results/cartpole/bicogan/20251208-011000/20251208-011253/D.pt (torch, 408377 bytes, 7 tensors)

fc1.weight f4 [256, 9]
00000000: 489e 1c3e b342 b63c 4f8d 87bd fe96 52bd
00000010: 8755 b4bd 659f fbba 93c3 ae3d 1811 b5bd
00000020: 0356 acbd ab13 dd3d 0df3 213e 0d26 70bd
00000030: 9946 01be 43d5 0c3e 76dc adbd 95fe c7bd
00000040: afe2 8bbd 8b75 013e f72f 383d f4a6 ae3d
00000050: 43c7 ed3d 17e6 fabc 9a98 173e 090c 0d3e
00000060: 5cfb e7bd 2fdf 9a3d 5cc2 9dbd de2d 96bd
00000070: bffc fabd 224e c6bc f952 acbd f34a a53c
00000080: bee0 a3bc 76ad c0bc b62e e43c c4bd 61bd
00000090: d593 4c3e 662d ab3c ed92 253e 9601 b2bc
000000a0: 26fc a0bd ea84 363d de4a a1bd 4965 063d
000000b0: a8c0 4a3c 9c21 203e cef3 0ebe 6ec2 24be
000000c0: 2a50 853c 2d5f d83d 84fe ccbd de1d 9a3d
000000d0: 0ee3 4cbc 0941 153e 2d2a af3d 5184 c4bd
000000e0: 65d6 a43d 4148 ff3d 775e 163d 091a 4fbd
000000f0: 055e fa3d 7356 663d f65d 043e f498 2b3d
00000100: b403 01be 8585 eb3d 731f ea3d c1f4 213c
00000110: 3b6b 08be b213 93bd fd67 c9bc ec9f 883d
00000120: b3b4 0ebd 3079 50bd 8240 a33d 79d2 fd3d
00000130: d9cd c83c fd0d f43d 5041 83ba 7a03 963d
00000140: 77da b3bc dc1d 5f3d aed4 95bd ece8 2b3d
00000150: 76f1 56bd e60d 31bc 2466 c7bd 6768 4c3d
00000160: 9b75 d5bd dff8 dbbb 6998 e9bb 6736 b2bc
00000170: aa1a c33d 3983 513d 3fed 57bd 7ca0 bbbd
00000180: 180f 29bd 6d04 a73c 203b f5bd c667 3abd
00000190: 30a8 50bd a09d 0bbe 116f 4bbd d317 1b3d
000001a0: 1850 e5bc d4c4 e13d 628b 07bc 9028 8bba
000001b0: 8b0f 1e3e f7ed 303d d7c0 2c3d e49d e03d
000001c0: 0c72 4a3d 342c 023e 31d0 f9bd 2f4e fb3c
000001d0: a6c6 06be 9f90 11be 6d5c 0d3e 1674 bdbd
000001e0: c1ff 893c ac99 b5bc cf7c 58bd b19f a43d
000001f0: 6dae 55bd ee5f c9bd b407 17bd aa20 bd3d
00000200: 57cf 563c e80f 883c 10e4 d93d e3b4 dc3d
00000210: c04f c73d 7c47 af3d 0f50 383d 5dcf 57bd
00000220: 6c30 d63d 7895 c5bd 23e0 37bd 4543 d93d
00000230: 69ae 713d 3095 df3d 23ba 753c 5964 e93c
00000240: cc25 5b3d fd52 ec3d ad0d acbd 2d11 1cbe
00000250: 83f7 f4bd 86d2 18be e2ee 0ebe 721b 95bc
00000260: 4a94 63bc 38a3 d1bd 79f3 09bd 151e 343e
00000270: b556 fdbc 9b0d 103d d493 37bd 7a39 07be
00000280: 0a72 04be f742 073e 1b23 523d 38ec d33d
00000290: 068b a23d 3bf0 8a3d 76c7 883d 2c03 443d
000002a0: bd51 163e b34c e03d 0621 153d 8d09 183e
000002b0: 45df c8bd 78ce 2b3d cfb0 ce3d 2429 8cbd
000002c0: c76c ec3d 9d9c a8bc 775e 153c f8aa eebb
000002d0: 770c 2b3e d6e4 b8bd f2fc e9bd 00d5 0abe
000002e0: 2b43 65bd d4df 05bd 1601 9bbd 499f 0cbe
000002f0: d8b5 00bd 14ff 2cbe 88a6 fcbd 180b e5bc
00000300: 8f80 e6bd 70d4 073d 5de2 893d b56b a63d
00000310: cb37 513d b17a a5bd 10c6 48bc 3e7d fe3d
00000320: 047d b23d 276d f73d f1b7 7b3d f4af 063e
00000330: 0834 f53d 06aa 8ebd 1bc5 52bd fcb6 b73d
00000340: 73da d93d d9d2 08be 99a9 c23d a8d0 6c3d
00000350: 467b 84bb 7b37 4cbd 21b5 03be 208c 10be
00000360: 6d03 e23d 966e 10be 3cac 433d 0ff2 0dbd
00000370: 704f 97bd 2445 d0bd 5d2c 063e 15ac af3c
00000380: 9852 503b 234c 2abd 9da1 f2bd e277 b2bd
00000390: 29c8 73bd b63e 903d dd24 f3bd 0f99 f1bd
000003a0: 8883 cc3c 041a c83c 69c2 123e f8fe c23d
000003b0: af00 63bd 6107 0f3e bb86 e3bd a323 913b
000003c0: acba 9f3c 029e 1abe c667 21be 8715 dabd
000003d0: 1f1e a13d 2772 abbc d2b4 19bd ce1f b9bc
000003e0: 39fc f5bd 9603 a5bd 8187 fdbd e101 0c3b
000003f0: 1910 b83d 535a 703d 6324 07bd b376 0ebe
0.15294755 0.022248602 -0.06618749 -0.05141353 -0.088053755 -0.0019197284 0.085333966 -0.08841151
-0.08414843 0.10794767 0.15815373 -0.058630038 -0.12624587 0.13753228 -0.08489315 -0.097653545
-0.06830346 0.12642495 0.044967618 0.085279375 0.11610272 -0.030627294 0.14804307 0.13774122
-0.1132724 0.075621 -0.07703087 -0.07332967 -0.12255239 -0.024207179 -0.08414263 0.02017734
-0.020004626 -0.023520213 0.027854305 -0.055112615 0.19978268 0.020895671 0.16169329 -0.021729272
-0.078605935 0.04456035 -0.07875608 0.032811437 0.012375034 0.15637821 -0.13960192 -0.16089794
0.016273577 0.10565028 -0.100094825 0.07525228 -0.012505306 0.1457559 0.08552966 -0.0959555
0.08048705 0.12464953 0.036711182 -0.05056194 0.12224964 0.05623479 0.12926468 0.041893914
-0.12599069 0.11500076 0.1143178 0.009885014 -0.13322155 -0.07181491 -0.024585718 0.06671128
-0.034840297 -0.050896823 0.07971288 0.1239366 0.024512218 0.119167306 -0.0010013971 0.07324882
-0.021954758 0.054471835 -0.07315956 0.04197018 -0.05247637 -0.010806536 -0.09736279 0.049904253
-0.10422822 -0.0067130174 -0.0071287644 -0.021754457 0.0952657 0.051150534 -0.05271649 -0.09161469
-0.04127416 0.020387853 -0.11974168 -0.045509122 -0.050941646 -0.13634348 -0.049666468 0.037864517
-0.027992293 0.1102387 -0.008272978 -0.0010616947 0.15435617 0.04319569 0.042176094 0.10967615
0.04942517 0.12712175 -0.121979125 0.03067693 -0.13161716 -0.14215325 0.13804789 -0.09250657
0.016845586 -0.022168003 -0.0528534 0.08038271 -0.0521683 -0.0983275 -0.03687258 0.09234746
0.013110957 0.016609147 0.106392026 0.10776689 0.09732008 0.085585564 0.044998225 -0.05268799
0.104584545 -0.096476495 -0.044891488 0.10608534 0.05900422 0.10917127 0.014997992 0.028490232
0.053502843 0.11539266 -0.08401046 -0.15240927 -0.119612716 -0.14924058 -0.13958314 -0.018201564
-0.013890335 -0.1023621 -0.03367946 0.175896 -0.030925134 0.035169225 -0.044818714 -0.1320552
-0.12934127 0.13209139 0.05130301 0.103477895 0.07936673 0.067841016 0.06678669 0.047854587
0.14679618 0.10952129 0.036408447 0.14847393 -0.0980821 0.04194495 0.10092317 -0.068437845
0.11544185 -0.020582492 0.00911676 -0.0072835647 0.16703974 -0.09028022 -0.114251986 -0.13557816
-0.05597226 -0.032684162 -0.075685665 -0.13732637 -0.03142342 -0.1689418 -0.12336451 -0.027959391
-0.11254989 0.03316158 0.067326285 0.08126012 0.0510786 -0.08080042 -0.012254253 0.12426232
0.08715251 0.12081366 0.061454717 0.13153058 0.11972815 -0.06966023 -0.051457506 0.089704484
0.10637369 -0.13361682 0.095050044 0.057816178 -0.0040430157 -0.049857598 -0.12862064 -0.14115953
0.1103581 -0.14104685 0.047771677 -0.034654673 -0.073881984 -0.101694375 0.13102861 0.02144436
0.003178751 -0.041576516 -0.118472315 -0.08714272 -0.05951706 0.07043211 -0.118722655 -0.11796772
0.024965063 0.024426468 0.14331974 0.09521288 -0.055420574 0.13967659 -0.11109682 0.004429297
0.019498192 -0.15099338 -0.15762243 -0.10648637 0.07867073 -0.020928456 -0.03752596 -0.022598173
-0.12010998 -0.080573246 -0.12379361 0.0021363425 0.089874454 0.05867989 -0.032993685 -0.13912468

fc1.bias f4 [256]
00000000: 2359 0a3c 6420 a33b 9964 a33c 90b6 a63c
00000010: ec87 b53c c9f7 c03c d085 f7bc 1d50 3c3c
00000020: de1a f43c a449 8abc 2008 03bc e8c6 5fbc
00000030: ec9b 973c ee30 f83c 86c2 a7ba 1946 d13c
00000040: 6ee7 e53a 7b82 693c af4c 753c ca21 d83c
00000050: be99 bf3c 1645 e03b 411b 9c3a 07bb 553c
00000060: 3089 f7bb d821 a93c 95a1 823b e022 db3b
00000070: 1a32 edbc 6dac 8d3c 0fc9 6abc 91e7 fb3a
00000080: e5e2 d0bc 29be 843c 9ba3 8cbc c9e4 14bc
00000090: 75b0 d73c 5ea0 e9bc bd2d cb3b 272e 813c
000000a0: 05f8 023c 1a8a d7bc 84a0 b9bc f97f 79bb
000000b0: d231 813c c3d5 98bc b8c9 0e3d 1d84 f43b
000000c0: a002 253c afa7 773c d115 a43b 9359 9d3c
000000d0: 1d16 8ebc 02e3 1b3d da65 b3bc 25ea 18bc
000000e0: 681b a1bb ae88 eb3c 5b62 083c a5f6 7ebc
000000f0: 2b9d 2dbc 2369 19bc 1d36 abbb 5d79 bb3b
00000100: e815 703a 1d2f 893c 4583 d43b b2bf 61bc
00000110: ee4f 73bc 7afb d43c 459d b23c 91be 933c
00000120: afb4 883b 8aaa a5bc c523 b6bc b145 cfbc
00000130: 726a 40bb 5e1f c1bc 9a6a 533c 3dd6 9abb
00000140: cf25 abbc f7d3 cc3c 42ec 1a3c dd3c 6fbc
00000150: c9ac 883c 8365 2e3b 0f77 093d 4dab ee3c
00000160: 478b a5bc 4fa7 2e3d 98eb b23c f7e8 93bc
00000170: e18f e63c 7010 a7bc ff4f a4bc 608a cdbb
00000180: b1d8 113c 4402 25bc f7ad 913c 3eb5 80bb
00000190: f90d a6bb d492 ca3c fae9 b03b 0322 da3c
000001a0: 867e b4bc c4af 063d 237a 75bb 9d69 e1bc
000001b0: 61af f73c 524f a7bc ce19 4bbc 101b 88bb
000001c0: 4605 d2bb e27f 9bbb ecc6 e83c c2fb 523c
000001d0: ee15 2ebc d808 c23c d516 5e3c 2288 443b
000001e0: ecac 82bc eb2a f9bc a08d e33c 50b2 ae3c
000001f0: f39e 21bc ff68 9e3c 6e9d e1bb b569 743c
00000200: 67d3 dbbc 2f61 3a3d 2cec 013c b376 de3c
00000210: e5b0 053d a03d 16bd 5ae1 4a3c 5974 8ebc
00000220: 7229 cdbc 65cf f0bb 0e7c 8ebc 87b5 db3c
00000230: f30d e73c 257c 8cbc f037 813c 6d61 8fbc
00000240: 4c65 b0bc b355 e43b 5dd4 0c3b a307 39bc
00000250: 5365 a7bb fbf7 b1bc 22b7 dd3c d33e 92bc
00000260: a513 32bc c08b acbc ec47 823c 2f54 9fbc
00000270: ffdf 7fbc 99e6 8d3c fb37 663c b266 873c
00000280: 1754 d63c a9f1 9d3c 089c ad3c b758 2ebb
00000290: 46cd ddbb 05da cabc 728b b53c d87d af3c
000002a0: 48c9 103d 555d 80bc 5816 013d f71e a4bc
000002b0: cefd 813c 6ba0 f6bc 7c7b 4dba b397 653b
000002c0: 28a2 67bb 7b1b 813c d835 04bd 9dc0 253d
000002d0: 3998 7ebb fc94 4cbc 7782 1ebb 75f2 c6bc
000002e0: f844 b3bc 26cf 013d 2220 4ebc ef2e abbc
000002f0: 9059 d93c 0916 9ebb 24b7 9bbc d800 2dbc
00000300: 5fc5 a83c c6c5 5c3c ccd0 ab3c 98ae 99bc
00000310: 6618 c73c 7854 5fbc 964c b73c 4136 a13b
00000320: 0972 bcbc ee7e 86bc 6472 66bc bb56 9f3c
00000330: fdce ccba 442a cebc 85ba 593c 50fa 2cbc
00000340: 3b1d 583c ceba d4bc 4907 fa3b a8b7 f33c
00000350: 280f 3ebc b235 49bc 3c20 703c dec9 e83b
00000360: d2e7 553a 617b bbbb 4482 58bc 4f44 e8bc
00000370: 2605 be3c 3e01 393c f7cd ecbc 4a6e 8dbc
00000380: 1fb5 ce3c 0490 013d 6da5 16bc 37f6 8cbc
00000390: 71e1 72bc 441c aa3c 2f79 293c c1b6 e4bc
000003a0: 045a 41bc 87d1 0d3c 05f8 b93c 83b3 c33c
000003b0: f645 b43c eb67 24bb b5b3 74bc 06a5 40bc
000003c0: 16a7 2bbc b6de 253d 34f8 bf3c 5f58 cabc
000003d0: 7e59 7b3c f020 62bc 56dd 043d 5da2 a53b
000003e0: 0eaf 313c 1f59 22bb ce22 053d 0224 f2bc
000003f0: f2d9 0a3c 1730 6b3c fb52 023b d559 183c
0.008444103 0.0049782265 0.01994543 0.020350724 0.02215954 0.023555653 -0.030215174 0.01149371
0.029797968 -0.016880818 -0.007997543 -0.013658263 0.018506967 0.030296769 -0.0012799061 0.02554612
0.0017540285 0.0142523 0.014971896 0.0263833 0.02338874 0.006844173 0.0011909978 0.013045079
-0.007554196 0.02064602 0.0039865472 0.006687507 -0.028954554 0.017294133 -0.014330163 0.0019218792
-0.025498817 0.016203957 -0.017167857 -0.00908775 0.026329258 -0.028518852 0.006200521 0.015769077
0.007993703 -0.02631097 -0.022659548 -0.0038070662 0.015770826 -0.018656617 0.034860343 0.007462038
0.010071427 0.0151156625 0.0050074835 0.019207751 -0.017344529 0.03805829 -0.021899153 -0.009333168
-0.004916597 0.028751697 0.008324231 -0.015561734 -0.010596554 -0.009363445 -0.0052249567 0.0057212547
0.0009158538 0.016746098 0.006485375 -0.013778614 -0.0148506 0.02599882 0.021803508 0.018035205
0.00417193 -0.02022292 -0.022233853 -0.025301786 -0.0029360321 -0.023574527 0.012903834 -0.004725246
-0.020892052 0.025003416 0.009455742 -0.014601913 0.016683953 0.0026610799 0.03356081 0.029134417
-0.020208014 0.042640027 0.021840855 -0.018055422 0.028144779 -0.02039358 -0.020057676 -0.006272599
0.008901761 -0.010071341 0.017783148 -0.0039278558 -0.0050675836 0.024728216 0.005398986 0.026627546
-0.022032987 0.032882467 -0.0037456832 -0.02751618 0.030234994 -0.020423565 -0.012396289 -0.0041536167
-0.00640932 -0.0047454694 0.028415166 0.012877407 -0.010625346 0.023685858 0.013555248 0.0029988368
-0.015951596 -0.030415973 0.027777493 0.02132526 -0.009864557 0.019337175 -0.006885222 0.014917781
-0.026834203 0.045502838 0.007929843 0.02715621 0.032639403 -0.036679864 0.01238283 -0.017389463
-0.025044177 -0.007348942 -0.017393138 0.026819957 0.028204894 -0.01714904 0.015773743 -0.01750251
-0.021532677 0.006968224 0.0021488883 -0.011293325 -0.0051085143 -0.021724692 0.027064864 -0.017852223
-0.010868941 -0.021062732 0.015903436 -0.019449322 -0.01561737 0.017321872 0.014051433 0.016528461
0.026163144 0.019280272 0.021192566 -0.002660317 -0.0067688553 -0.024762163 0.02216122 0.021422312
0.035348207 -0.015669504 0.03151545 -0.020034296 0.015868094 -0.03010579 -0.000783853 0.0035033047
-0.0035344455 0.015760174 -0.032277912 0.040466893 -0.0038848056 -0.0124866925 -0.002418665 -0.024285534
-0.021883473 0.031691693 -0.012580903 -0.020896403 0.026531965 -0.004824404 -0.019008227 -0.010559283
0.020601926 0.013474887 0.020973586 -0.01876001 0.024303626 -0.013630979 0.022375386 0.0049197976
-0.023003595 -0.016417947 -0.014065359 0.019450536 -0.0015625652 -0.025166638 0.013289099 -0.010557726
0.013190563 -0.025967982 0.007630263 0.02975066 -0.011600293 -0.012280868 0.014656123 0.0071041426
0.0008159849 -0.005721495 -0.0132146515 -0.028352885 0.023195814 0.0112918 -0.028906805 -0.017264504
0.02523285 0.031631485 -0.009194714 -0.017207248 -0.014824257 0.020765431 0.010343834 -0.027919175
-0.011801247 0.008655912 0.022701273 0.023889309 0.022006016 -0.0025086354 -0.014935424 -0.011758095
-0.010476848 0.040495597 0.023433782 -0.024700342 0.015341161 -0.013801798 0.032437645 0.0050547556
0.010844959 -0.0024772359 0.032503895 -0.029558185 0.008474814 0.014354727 0.0019885886 0.009298761

fc2.weight f4 [256, 256]
00000000: c01f 233d 3d46 853d 235b 3b3d 60d2 433d
00000010: d3b4 bfbd 235b b0bd 656f 1a3d 2d75 0cbd
00000020: dfbe 353d 6ad0 c03c 59da 32bd 086f 95bd
00000030: f124 4a3d 63f4 a7bc 1cff 6f3d e479 5bbd
00000040: e0f1 8fbd a2ca dfbc 3cee 89ba 1b93 06bc
00000050: 4981 903b 2f26 36bc 19b6 6dbd 3a69 06bd
00000060: 6c14 33bd 6870 bdbd e741 5dbd 1d17 373d
00000070: 2d4e cabb 9ead a1bd ff19 bd3d 6976 46bd
00000080: d784 d83d a47d 1a3d 8640 c93d 5df4 6dbd
00000090: caf0 55bd 0e1d a53c 49c7 a1bd ced6 443d
000000a0: 11e9 f1bd b8fa a7bc 1877 ad3d 25b2 293c
000000b0: e4df 063d ec43 8dbb fc06 933d ee9d 003d
000000c0: 09e8 53bd ff79 e1bd 6141 c83d 9e48 b6bc
000000d0: aada 7cbc 912f 9b3d dd0b b63d 1f1c 8ebd
000000e0: 78e1 9b3d 7ee4 f43c b56e d5bc 8d24 873d
000000f0: f350 cbbd d789 a83d 000a 0f3d 9e39 41bc
00000100: e013 5fbd 46fb 8ebd ff7a 3cbd ea62 adbd
00000110: 27ab 813d f09f 2f3d bef2 90bd 5404 41bd
00000120: 1f67 c53c be3a f2bd b96d 05bd 7cd5 2f3c
00000130: 0c7f a13d 385a a13d 004d 19bd 6316 b63d
00000140: 3169 8ebc 6a3e a03d 65fe cb3d 32d9 82bd
00000150: c4de b83d 8129 91bd 7c5d 6abd f690 b63d
00000160: 62bb dd3c e4f4 153d 8289 ed3c d3a6 69bd
00000170: 7d43 683d 88ad 89bc 707a a73d def3 61bd
00000180: e5e2 d7bc 5244 ce3d 8951 d0bd 774a ad3d
00000190: 38b9 cf3d 751c c53d 1009 16bd d60a afbc
000001a0: 6016 56bd b0a6 2a3d e460 c2bc 985b 433d
000001b0: cbee 17bd 699f bcbc 1b8e 943d f01d 603d
000001c0: 75ca 1dbc a589 d9bd f548 67bd 12ca 973d
000001d0: 4cbf 393d cacd 95bd c56f b73d bd58 7a3d
000001e0: a147 b1bd 6f1f e63d ac4e febc 033c b2bd
000001f0: 1418 fb3c 5ddb 37bd 2d10 513d 5b6b 0a3c
00000200: 4294 afbc a41a b9bb c8ea 57bd f1bf 9bbd
00000210: b53e 78bd 5bc2 65bd 6ea4 7ebc d74b b73d
00000220: aff5 21bd 4b08 d43d 5ded bfbd d92f d7bd
00000230: c0ac 993d d909 8c3d e583 033d 370d 34ba
00000240: 6491 ac3c 33b1 d2bd 7de2 cbbd 8a55 9c3d
00000250: 418c f03b 0a63 073d 404c 1a3d 8872 913d
00000260: 5a8a d23c 8049 50bd d6b1 87bc bd0c 8cbd
00000270: 2394 69bc a785 33bc c543 38bc d026 993d
00000280: c01d 9abc e717 bcbd b4b6 a03d 76e5 923d
00000290: 757e 1c3c e50a b13d 8e1f f23c 48ad f0bc
000002a0: ff5e 723d 7d27 03bd 5539 afbd cc1d 983d
000002b0: c0f6 a7bd 8433 9a3c 4d8b 2c3d a4bf f23c
000002c0: aefc 5d3d 6aff cdbd 69f5 9ebd cef0 89bc
000002d0: 824a bbbd 5b7b e6bd c1c1 153c 490e a83d
000002e0: c5c3 723d ede3 8839 2258 83bd df7a 58bd
000002f0: 8b30 b7bd 37ea e43c bdec 623c 1bbc 17bd
00000300: b961 eebd 0273 923d 4003 993c 12ac da3d
00000310: 44ea 63bd 1e00 a6bd 25b2 67bd 9682 f4bc
00000320: 4d2f eabc 3dbd b23d 807d 163c 896b 793d
00000330: 1af7 65bd 725b 6ebd 59df d33c 3d98 b8bd
00000340: ca61 b43d b384 85bd edbf 543d af2b af3b
00000350: 6148 683d fabb 9bbd f6a1 97bd 3c7b 5bbd
00000360: 7075 3bbd 8065 d4bd 8c9f fb3c c67c ca3d
00000370: 65fb 553d 104d dc3c ee76 cb3d 616b a83d
00000380: 9f61 453d 8635 babd a149 c13b bf5a 17bd
00000390: 9156 86bd 90d7 053d 39e7 bbbd f082 db3d
000003a0: d414 4abc 6412 debd bb8a 22bd 8b92 b93d
000003b0: e1cf 56bd 654b 5a3d 866d eebd db94 09bd
000003c0: 63af cc3d df8f 9fbd 5e5b ecbc e5a0 56bc
000003d0: 7f53 6f3d 2540 e33d 8f43 d5bd c481 d1bd
000003e0: 2c12 323c 2b56 abbd a7cc c73d a130 19bd
000003f0: 047f f33c f9c0 d8bd 4c75 563c 2852 0e3d
0.0398252 0.065075375 0.04574121 0.04780805 -0.09360661 -0.08611133 0.03770389 -0.034291435
0.044371482 0.02353688 -0.043665264 -0.07296568 0.049351636 -0.020502275 0.0585929 -0.05358304
-0.07028556 -0.027318303 -0.001052327 -0.008213784 0.0044099432 -0.011117502 -0.05803499 -0.032815196
-0.043720648 -0.092499554 -0.054017927 0.044699777 -0.00617387 -0.07894443 0.09233474 -0.04845277
0.10572212 0.037717476 0.0982676 -0.05809437 -0.052231587 0.020155456 -0.07899339 0.048056416
-0.11812032 -0.020505294 0.08469981 0.010357414 0.032928362 -0.0043110754 0.071790665 0.031400613
-0.051734958 -0.11009597 0.09778095 -0.022251423 -0.015432993 0.07577432 0.088889815 -0.069389574
0.07611364 0.02989411 -0.026053766 0.065987684 -0.09927549 0.08229416 0.034921646 -0.011793522
-0.054462314 -0.0698152 -0.046015736 -0.08466132 0.06331473 0.042877138 -0.070775494 -0.04712327
0.024097024 -0.118276104 -0.032575343 0.010732051 0.078855604 0.07878536 -0.03742695 0.08890989
-0.017384144 0.078244045 0.09960631 -0.06389083 0.09026864 -0.07087994 -0.05721806 0.08914368
0.02706689 0.0366105 0.028996233 -0.05704386 0.056704987 -0.016806379 0.0817765 -0.05516421
-0.026353309 0.10071625 -0.101718016 0.08461469 0.101427495 0.096245684 -0.036629736 -0.021367472
-0.052267432 0.04166287 -0.023727842 0.047694772 -0.037092965 -0.023025231 0.07253667 0.05471605
-0.009630789 -0.10621957 -0.05646606 0.07411589 0.04534845 -0.07314642 0.08956865 0.061119784
-0.0865624 0.11236464 -0.031043373 -0.087028526 0.03065113 -0.044886936 0.051040817 0.008448447
-0.021433 -0.0056489278 -0.05271414 -0.07604969 -0.060606677 -0.056093555 -0.015542133 0.08950012
-0.039540943 0.10353144 -0.09371445 -0.10507173 0.075036526 0.06837816 0.032108206 -0.0006868424
0.021065421 -0.10287704 -0.099553086 0.07633503 0.0073409383 0.033053435 0.037670374 0.07101923
0.025700737 -0.050851345 -0.016564291 -0.06838367 -0.01425651 -0.010957158 -0.011246626 0.07478106
-0.018813014 -0.091842465 0.07847348 0.071726725 0.009551634 0.08644656 0.029556062 -0.029379502
0.059172627 -0.03202008 -0.08555857 0.07427558 -0.08201361 0.018823393 0.042125035 0.029632397
0.054196052 -0.10058482 -0.07761652 -0.016838457 -0.091450706 -0.11253997 0.009140433 0.0820585
0.05926873 0.0002610976 -0.064132944 -0.052851554 -0.08944806 0.027943714 0.013850388 -0.037044626
-0.11639733 0.07150842 0.018678308 0.10677351 -0.055643335 -0.08105491 -0.056566376 -0.029847424
-0.028587008 0.087275006 0.009185195 0.06089357 -0.056143858 -0.058192678 0.025863336 -0.09013412
0.08807714 -0.06519451 0.051940847 0.0053457837 0.05670965 -0.07604213 -0.074039385 -0.053584322
-0.045766294 -0.10370922 0.030715726 0.0988708 0.0522417 0.026892215 0.099347934 0.08223606
0.0481888 -0.0909224 0.00589867 -0.036951777 -0.0655948 0.03267628 -0.091749616 0.10718334
-0.012334067 -0.108433515 -0.039683085 0.09061154 -0.052444343 0.053294558 -0.11641984 -0.033589225
0.0999439 -0.07791113 -0.028852161 -0.013099884 0.058429237 0.11096219 -0.104132764 -0.10229829
0.01086859 -0.083660446 0.09755831 -0.03739989 0.029723652 -0.105836816 0.013089489 0.03474632

fc2.bias f4 [256]
00000000: 099d 71bc 6533 db3c 9e80 c5ba 1f77 a9bc
00000010: 63da 253c 62ab fb3c f919 a8bc 9784 2dbc
00000020: e6da 163c 00d4 06bc 5c1f 8e3b e34f 26bb
00000030: 94d8 693d ea20 783a 453e c83c 071c ae3c
00000040: 80f2 103d 2758 95bc 69d3 bd3c 33ea 85bc
00000050: 180e aa3c 2a0a 3a3c 320f b0bc adde 73bc
00000060: 5a41 04bc 5f97 b43c 0417 6bbc 3db9 babc
00000070: 04bc 153d 0ae0 073d 2815 ddbc fa1e 0ebc
00000080: e76a bbbc 9323 00bc 5cb3 01ba 5adb c63c
00000090: b99f a03c bea0 febc 3a25 6bbc 3fc9 93bc
000000a0: 848b 443c 9115 cebc 54e7 da3b 87e5 ab3c
000000b0: f755 6abc 628c 54bc 5626 e03c d797 013d
000000c0: cdfc 0dbd 8091 a6ba aec7 193d 9256 bfbc
000000d0: 1e37 eb3c 6ea9 233d 7083 79bc 094e c13c
000000e0: 9790 93bc 81be b13c 90bd f9bb 7358 053c
000000f0: ab60 aabb e355 4cbc faa6 b1bc 5df9 c1bc
00000100: aea4 223c 01d7 ef3c 65c5 90bc e289 013d
00000110: a30f 88bc 64a3 df3a bdff ae3b 8eda 053d
00000120: 2ec6 0a3d a6f5 c0bc 0565 29bc e759 1abd
00000130: cd0c 61bc 71d1 d93a 95c8 a53c d970 cfba
00000140: 40da a5b8 750d f23c 77db 13bc 75a7 89bc
00000150: 371e ef3c c4f7 e93c a791 1d3d 1780 2abc
00000160: a693 15bc a2cc 1fbb ac70 b3bc 4d46 fa3c
00000170: e406 a4bc 90b8 62bc 3d33 e63b d65a 593b
00000180: 0e0e b0bc 7913 48bc 686c e4bc 733b 55bb
00000190: e90b 40bc 3b32 f93b 1c1f 82bc 41a3 b7bc
000001a0: 1cbd 7bbc 5545 41bc 662d 1ebc 946e 58bc
000001b0: f0bd e5bc 9584 103c d5e8 b43b 9367 3dbc
000001c0: 425c 4cbc b55c 8cbc 22e0 26bc 2733 aaba
000001d0: a025 9bbc 1f4b 073d 19ec a9bc 6c04 eabc
000001e0: 5fdf a1bc c403 81bc d15f 163d a3ab 9d3c
000001f0: 30fa 1fbc 9eb1 5d3b 32e0 7dbb 6f24 113c
00000200: 4b1c 063d 3583 4a3c a6f6 113d d10b 003d
00000210: 9952 4ebc 87c4 233c c861 b2bc c65e c63c
00000220: 216c 5fbc 2eb9 d8bc 24da b4bc cacb 5a3c
00000230: 3c9d 4dbb 3b4d 8cbc 314d ac3c 3b8b 3fbc
00000240: 5d34 443c b989 0d3c 518f d23c c3c4 fb3c
00000250: 3929 4cbc e05c d93c 2c7b 983c 49ed 54bc
00000260: 7fe2 153d f220 66bb 4d5d 1b3c ef0e 933c
00000270: 3623 a1bc 7fe6 a8bc b593 72bc 64c9 36bc
00000280: 8adc 7cbc cc5e 5a3c 50e8 5bbc 872c 933c
00000290: f9e5 6bbc 5bae 1abc 078b f73c 638e b8bc
000002a0: 829c a43b ac5a cfbc d47d e13c 0a23 f03c
000002b0: db73 05bc f653 5dbc 5cea 18bc 3600 b7bc
000002c0: 9790 0f3d 5afb 86bc 95a6 903c 80d4 aabc
000002d0: 4da8 a93c c77a cc3c 6a67 9ebc de5d a6bc
000002e0: bc75 a2bc 74bc cfbb c4a5 d03b 4ac9 4cbc
000002f0: 2305 a53c d3bd b6bc 3031 aa37 3510 ad3c
00000300: 5653 953c a8bd 7dbc 03cb d8bb 1a2c 9abc
00000310: ed4e b6bb 579c 0c3c 78e2 d43c f0f6 c13c
00000320: bae8 45bc 6493 e13b 23a0 d23c 97e1 d1bc
00000330: f3a4 81bb bf8d a4bc 2ec8 f93c d078 93bc
00000340: 45c2 f23c 3ec1 18bd 1306 c23b c5a6 27bc
00000350: d910 ab3b 6a8c 883c ea23 933c 1732 ab3c
00000360: 74ef c93c 5631 c93c c0fa 123c 9aa6 83bc
00000370: 5199 c53c e7f3 293d 4046 06bd 6f6d 45bc
00000380: 8503 e43c 0883 efbc 9cf3 45bc 2591 45bc
00000390: af12 9fbc 32c3 b63c 5426 233d 114a a5bc
000003a0: 8933 79bc 89a2 20bc f6a7 bf3c 97d1 8bbc
000003b0: 75df 473c 8312 15bc ab3e 543b 4555 5cbc
000003c0: bc9c e03c c02b 6c3d b6d2 0b3d e428 8f3c
000003d0: d49b b6bc 83bf e83c aa0a c1bc d0a6 c83c
000003e0: 6cf1 03bc 6de0 e53c 0178 033d 28f0 0d3c
000003f0: 15f1 a2bb 5a8f 1fbb 63ef 02bd a38d 42bc
-0.014746913 0.026757905 -0.0015068238 -0.020686684 0.010122868 0.03072137 -0.020520197 -0.010590694
0.009207463 -0.008229256 0.0043372344 -0.0025377206 0.05709131 0.0009465354 0.024443755 0.021253599
0.035387516 -0.01823051 0.023172097 -0.016347026 0.020758674 0.011354962 -0.02149162 -0.014884633
-0.008072222 0.022044836 -0.014348749 -0.022793407 0.03655626 0.033172645 -0.026987627 -0.008674378
-0.022878123 -0.007820982 -0.0004947686 0.024274517 0.019607412 -0.031082507 -0.014352137 -0.018040298
0.011996154 -0.025156768 0.0066804085 0.02098347 -0.014302722 -0.012972923 0.02736203 0.031638946
-0.034664918 -0.0012708157 0.037543945 -0.02335671 0.028712805 0.039956503 -0.015229091 0.02359678
-0.018013282 0.021697285 -0.0076214746 0.008138764 -0.005199512 -0.012471649 -0.021686066 -0.023678476
0.009926958 0.029277327 -0.01767225 0.031625636 -0.016609019 0.0017062244 0.005340545 0.032679133
0.033880405 -0.023554634 -0.010339026 -0.037683394 -0.013735962 0.0016618205 0.020237247 -0.0015826478
-7.908465e-05 0.029547432 -0.009024492 -0.016803483 0.029189212 0.028560527 0.038468983 -0.010406516
-0.00912944 -0.0024383445 -0.021904312 0.0305511 -0.020022817 -0.013837948 0.007025151 0.0033165715
-0.021491077 -0.012211674 -0.027883723 -0.0032536655 -0.01172159 0.007604865 -0.015883975 -0.022416713
-0.015364911 -0.011796315 -0.0096543785 -0.013209958 -0.02804467 0.0088206725 0.00552092 -0.011560339
-0.012473168 -0.01713405 -0.010185273 -0.0012985215 -0.01893884 0.033030625 -0.020742463 -0.028566562
-0.019759832 -0.015748866 0.03671247 0.019246882 -0.009764239 0.0033827792 -0.0038738367 0.008858784
0.032741826 0.012360384 0.035635613 0.03126127 -0.012592935 0.009995586 -0.021775141 0.024215113
-0.01363662 -0.026455488 -0.022076674 0.013354251 -0.0031374237 -0.01712667 0.021032901 -0.01169091
0.011975375 0.008638793 0.025703104 0.030733472 -0.012461 0.026533544 0.01861342 -0.012996026
0.036592957 -0.0035114852 0.009482694 0.017951457 -0.01967011 -0.020617722 -0.014805724 -0.011156414
-0.01543344 0.013328265 -0.013422087 0.017965568 -0.0143980915 -0.009440984 0.03021766 -0.022528833
0.00502354 -0.02531179 0.02752582 0.029313583 -0.008145298 -0.013508787 -0.009333219 -0.022338968
0.03505 -0.016477276 0.017657558 -0.020853281 0.020710135 0.024960889 -0.019336421 -0.020308431
-0.01983153 -0.006339604 0.006367417 -0.012499163 0.020144051 -0.022307312 2.0288484e-05 0.021125892
0.018228214 -0.015487112 -0.0066159978 -0.018819857 -0.005563608 0.008582196 0.025986895 0.02367732
-0.012079412 0.0068840254 0.025711125 -0.025620265 -0.003956431 -0.020087121 0.03049096 -0.018001944
0.02963365 -0.037293665 0.0059211343 -0.010232632 0.0052205143 0.016668517 0.017961461 0.020897908
0.024650313 0.024559658 0.008970916 -0.016070653 0.024120959 0.04149237 -0.03278184 -0.012050017
0.02783371 -0.029237285 -0.012082007 -0.012058531 -0.019418089 0.022309873 0.039831474 -0.02017692
-0.015210041 -0.009804376 0.02339552 -0.017067714 0.012199272 -0.009098652 0.0032385986 -0.013448064
0.027418487 0.05765891 0.034136496 0.017475553 -0.022291102 0.028411632 -0.023564655 0.024493605
-0.008053165 0.028061116 0.032096867 0.008663215 -0.004972587 -0.0024346919 -0.03196658 -0.011874589

fc3.weight f4 [128, 256]
00000000: 7641 c1bd 2666 fa3d 2b2a 613d 0b74 70bd
00000010: b09a da3d 5bb1 debd b1ea 9c3d e4d7 553d
00000020: 69bc 663d 1305 113d 5887 2abd d16d b1bd
00000030: e0c5 53bd 9acf 30bb 644e d9bd 1dbf a1bd
00000040: 428a f4bc 1335 e83d d5ce 773c 106b 08bd
00000050: 8015 14bd 799e 8ebc 79ba 1e3d cc41 8c3d
00000060: 0312 e63d 2a6d a6ba c7fc 5b3d 77a1 303d
00000070: 554d e73d 49d5 003e b3d1 d6bc 958e 843d
00000080: 4244 1f3d d116 fdbd e25d bebd d224 b53d
00000090: 8444 98bd f707 3c3d 6f05 8abc cfbf 573d
000000a0: 4b28 7d3d 5318 1abd bde9 c0bd 875f 9fbd
000000b0: ad8a 7cbd 738f 733d fc57 ad3d ca59 a2bd
000000c0: 819e 2e3d 8fd3 043d 746b 8d3d eb2c 583d
000000d0: 086c a6bd b602 3bbd c210 aa3d 5084 c9bd
000000e0: 3087 27bd 72cb 033e 052f 8d3d 1f03 bfbc
000000f0: cfe3 2bbd 14af d33d 7d98 bc3d 1132 bb3d
00000100: 43e9 983d 6064 9c3d fe3c 2a3c 562a 04be
00000110: a0e4 833c 2db6 7d3d ff03 3cbc a700 aabd
00000120: ccf6 f63d a3f6 ae3d 89b3 bdbd c43a dabc
00000130: aecc b13d 9b73 a5bd 599f 673d 7839 773d
00000140: 2762 90bd 7a64 bdbd f6ba e73d 92ae cbbc
00000150: 7c37 94bd bac2 893d 40b1 d538 51e6 c03c
00000160: f4a0 3a3c 15b4 fa3d 7e6d f93c 4a3d ecbd
00000170: 4b6e f8bc 2f95 6ebd 6ee6 84bd 0919 18bd
00000180: abfb 533c 1244 063d 54b0 6a3d 757b 8a3d
00000190: be35 a9bc 6397 a0bd 76fa d93d 8280 d83d
000001a0: baef a73c 9893 e33d 93a6 a83b 183e 8fbd
000001b0: 183b b63d 051d b7bd e244 d93d e64c fdbd
000001c0: 62bd 70bc 7d20 fd3c 6234 813d d9dc 933d
000001d0: 0de1 8bbd 522f d93c fcf4 11bd 00f8 b1bd
000001e0: 8a40 23bc cf33 c5bd e8c7 f9bc c414 eebd
000001f0: 9112 91bd 953b f23d 84c3 aa3d 0647 b3bd
00000200: a866 5a3d 7bf1 aa3d 10fa b7bd 8673 3a3d
00000210: 4d2d bb3d f3bf 9a3d c031 b5bd a43c 513d
00000220: c273 fb3d 473c d33d de5c 2ebd 24f8 b63d
00000230: cb45 04bd 5d39 8c3d 3a27 c0bd 9c29 423c
00000240: 372b b13d de8d 063e 5391 cdbd 5aea b3bd
00000250: 059d 99bd 7cc4 1c3d f77d d33d 9785 76bd
00000260: e0ff c5bd 46ac c5bd 0d4b 55bd f7e4 c9bc
00000270: 7a77 8ebd 6069 95bd df16 ff3c ac97 b53d
00000280: 8ccb b13d d228 a1bd 7386 8dbd 728a b7bd
00000290: a2fe fb3c 1a24 063d 203f ecbd 071e e7bd
000002a0: 70cf 6ebc c047 2bbd ec6c c23d 1eb3 d43d
000002b0: ee14 b33d a0cb ecbd 7248 86bb 5e5f 3cbd
000002c0: fd6f e6bc e00d 703d a70a a53b 7de1 de3d
000002d0: 5d34 84bd 760a 86bd 7c9f f03d 65d7 72bd
000002e0: 9826 5b3d 2e35 3ebd ccdf 963d bdde 593d
000002f0: 5215 9a3d 3fb4 f7bc 7ca8 f2bd c33e 703d
00000300: f4ea dcbd edc7 da3d e563 b9bc 837f a43d
00000310: c945 593d 593d 7cbd 1a47 dd3d 52a8 c53d
00000320: f35f 41bd bda5 bb3c bad5 4f3d 87d6 c7bd
00000330: caa6 dc3d 13c4 af3c abef cbbd c014 86bd
00000340: 4167 03bd 4734 e43d 7b1e fbbd dc66 023e
00000350: c502 7c3d af36 f93d 290c f13d bbcc a73d
00000360: 0caf c13b a0d4 ae3b 611d cc3d 84a4 f5bd
00000370: bc00 ca3d 9389 2ebd 8783 91bd 9daa a93c
00000380: 2c9c 09bd 2db4 b93d d8f3 953d 0d9c 8abc
00000390: c342 a43d 8213 cfbd 28d1 7b3c 4731 193d
000003a0: 513a 963d 8db4 b23d 3931 eb3d 6106 b5bd
000003b0: 93f2 2e3b ca9b 82bc 1c86 7e3c e2f6 f9bd
000003c0: b30a 8d3d 3c0e b83d 5ded fe3d 7564 f9bb
000003d0: 1e8d c3bd 89e7 d2bd e06c 9e3d 6bf7 edbd
000003e0: dd08 d93d 57d2 d8bd c5ed dfbd 2293 953d
000003f0: c38d 2fbd e2aa 893d 903e 693c 446a cbbd
-0.09436314 0.122265145 0.054971855 -0.058704417 0.106740355 -0.108736716 0.07661951 0.052207842
0.056332026 0.03540523 -0.04163298 -0.08663524 -0.05170238 -0.002697921 -0.10610655 -0.0789778
-0.029851083 0.11338248 0.015124996 -0.033305228 -0.036153316 -0.01740955 0.038752053 0.06848487
0.11233904 -0.0012697328 0.053707864 0.043122735 0.11294047 0.12581362 -0.02622304 0.06472508
0.038883455 -0.123578675 -0.092952505 0.088449135 -0.07434943 0.045906033 -0.016848294 0.052673157
0.061806004 -0.037620854 -0.09419582 -0.07781892 -0.06165569 0.059462976 0.08464047 -0.07927282
0.04263163 0.03242832 0.06905261 0.052777212 -0.08126074 -0.045656882 0.083039775 -0.0983969
-0.04090041 0.12870577 0.06893734 -0.023316918 -0.041965302 0.10336128 0.09208772 0.09140409
0.07466366 0.076363325 0.010390518 -0.12906775 0.016100228 0.061941314 -0.011475562 -0.08300906
0.120587915 0.08543136 -0.09262759 -0.02663935 0.08681618 -0.080786906 0.05654845 0.06035754
-0.07049971 -0.0924768 0.11314957 -0.024863515 -0.07237145 0.06726594 0.00010189647 0.023547323
0.011390913 0.12241379 0.030447718 -0.115351275 -0.03032603 -0.05824774 -0.064892635 -0.03713325
0.01293842 0.03277976 0.057297066 0.06761829 -0.02065551 -0.07841375 0.10643475 0.10571386
0.020500053 0.11112136 0.0051468103 -0.06994265 0.0889799 -0.08941082 0.106088415 -0.12368183
-0.01469359 0.03089928 0.06308819 0.07219858 -0.068300344 0.026511822 -0.035634026 -0.0868988
-0.009964118 -0.09629022 -0.03049083 -0.116250545 -0.070836194 0.118277706 0.08338073 -0.08753781
0.053320557 0.0834684 -0.089832425 0.045520328 0.091395 0.07556143 -0.0884738 0.051083222
0.122779384 0.10314231 -0.042569034 0.08934048 -0.032293122 0.06846879 -0.09382482 0.011850741
0.08650821 0.13140056 -0.10037484 -0.087849334 -0.07500652 0.03827332 0.1032676 -0.060185995
-0.09667945 -0.09651999 -0.052073527 -0.024645312 -0.06956382 -0.07295489 0.031138835 0.0886682
0.086814016 -0.07869114 -0.0691041 -0.08961953 0.030761067 0.032749273 -0.11535478 -0.11285024
-0.014575824 -0.041816473 0.094934314 0.103857264 0.087442264 -0.11562276 -0.0040979916 -0.045989387
-0.028129572 0.058606982 0.0050366702 0.10882852 -0.064553 -0.06544964 0.11749169 -0.059287447
0.053503603 -0.046437435 0.073669046 0.053190935 0.07523598 -0.030237315 -0.11848542 0.058653604
-0.10787001 0.10682664 -0.022630641 0.080321334 0.053045068 -0.061581943 0.10804577 0.09651245
-0.047210645 0.022906179 0.050740935 -0.09757715 0.10774 0.0214558 -0.099578224 -0.065469265
-0.032080892 0.111427836 -0.12261673 0.1273455 0.06152608 0.12168633 0.117698975 0.08193346
0.00591076 0.0053354055 0.09966541 -0.119942695 0.09863421 -0.04261167 -0.07105165 0.020711238
-0.033596203 0.09067569 0.073219 -0.016920114 0.08020546 -0.10111143 0.015369691 0.03740051
0.07335342 0.087258436 0.11483998 -0.08839107 0.0026694878 -0.015943427 0.015534904 -0.12205292
0.06886806 0.0898709 0.12447617 -0.0076108524 -0.095484 -0.10298068 0.0773561 -0.11619457
0.10597394 -0.10586994 -0.10934023 0.07303454 -0.042859804 0.067220464 0.0142361075 -0.09932378

fc3.bias f4 [128]
00000000: 342a b2bc f51d e03c b2b9 b9bc f469 ef3c
00000010: 099c 9bbc c432 d9bc 2f73 bcbc cedd e73c
00000020: e267 64bc ccf5 3a3d 934f 78bc a93e e03c
00000030: 1439 d13c e41d d13c 8feb d63c 30ec a3bc
00000040: f602 e63c b7fa 77bc 2d5a 2bbc 9f82 c3bc
00000050: 62cd e5bc 6c6f ccbc 61a3 abbc b0ba f03c
00000060: a5bf b53c 38fc 3dbc fce7 cf3c f857 cdbc
00000070: 9001 babb c0f2 da3c 94c1 cc3c bb90 0c3d
00000080: ff1c 4ebc 588f 5bbc 0742 c33c 230b cb3c
00000090: 2b30 173d cd04 d33c 2a15 c63c 7e78 ea3c
000000a0: 4011 cc3c 9864 afbc 21cf fcbb d422 053d
000000b0: c4ae e93c 60a3 fa3c c944 da3c 0a2c c4bc
000000c0: 485c d33c a1f5 cfbc 51a2 7bbc bd1e 8ebc
000000d0: 9ec6 c03c ea8c acbb ead7 b8bc bc4e 8cbc
000000e0: 8d7a b33c 3ed4 d33c ebb5 a3bc 60ed 82bc
000000f0: e351 b2bc 9193 babc c05c ce3c 6658 0ebc
00000100: 135c 113d e720 91bc c171 cc3c 1d9f 113d
00000110: 9d14 5bbc db4a 08bd e771 0a3d dffd bbbc
00000120: 0712 d73c 253e e43c 90b9 edbb 4467 fa3c
00000130: 11b2 57bc b7af 60bc b1c9 a8bc bab6 98bc
00000140: a44e 013d d15c e2bc e2a7 db3c 77ad 3b3d
00000150: 7851 e13c 2276 3a3d 8dcf 013d 466a b7bc
00000160: 7344 063d fddc c9bc 39a0 83bc 8130 d53c
00000170: c33a e1bb 51f0 123d 4b14 ccbc 6382 cdbc
00000180: 3140 d13c 492b c1bc 84c9 dfbc 7e43 f83c
00000190: ede3 f83c f49b e13c 9dfc 6cbc fd98 c63c
000001a0: aad9 073d 6bad 753c e5f6 f23c b7fc 9bbc
000001b0: 923c d23c 31f9 de3c 3089 85bc aebd c93c
000001c0: 4eee 39bc 8bbf 1c3d b48a 153d e602 27bc
000001d0: 8535 acbc d4ca 0f3d a6aa b3bc 1af3 82bc
000001e0: 9f36 85bc b271 b2bc 7893 be3c f21d ca3c
000001f0: 6e15 453d 3b83 58bc 2a8d 233d 75c3 83bc
-0.02174864 0.027358035 -0.022671554 0.029225327 -0.018995302 -0.026513465 -0.023004143 0.028304007
-0.013940783 0.045644566 -0.015155691 0.027373629 0.025539912 0.025526948 0.02623537 -0.020010084
0.028077584 -0.015135459 -0.010458511 -0.023865996 -0.028052036 -0.024955474 -0.020951929 0.029385895
0.02218611 -0.011595778 0.025379173 -0.02506636 -0.005676456 0.02672708 0.024994649 0.034317713
-0.012580155 -0.013400875 0.023835195 0.024785584 0.03691117 0.025759125 0.024180014 0.028621908
0.02491057 -0.021410272 -0.0077151214 0.032503918 0.028525718 0.030595481 0.026644127 -0.02394678
0.025800839 -0.02538568 -0.0153585235 -0.017348642 0.023532208 -0.0052658217 -0.022563893 -0.017127387
0.021909023 0.02585804 -0.019984206 -0.01598233 -0.021767562 -0.022775443 0.025190711 -0.008688068
0.0354882 -0.017715884 0.024956586 0.035552133 -0.013371614 -0.033274513 0.033800032 -0.022948204
0.026253713 0.027861664 -0.007254787 0.030566819 -0.013165013 -0.013713769 -0.020603986 -0.018641818
0.03156914 -0.027632149 0.026813451 0.045819726 0.027504668 0.045522816 0.031692076 -0.022389542
0.032780122 -0.024641508 -0.016067611 0.026024105 -0.00687346 0.035873715 -0.02491202 -0.025086587
0.025543304 -0.02358021 -0.02731777 0.03030562 0.030382121 0.027540185 -0.014464525 0.024242872
0.033166565 0.014994959 0.029658744 -0.019041402 0.025663648 0.027218433 -0.016300768 0.02462658
-0.01134832 0.038268607 0.03650923 -0.010193562 -0.021021614 0.03510554 -0.021931957 -0.01598506
-0.016261397 -0.02178273 0.023263678 0.024672482 0.04811614 -0.0132148815 0.039929546 -0.016084412

fc4.weight f4 [1, 128]
00000000: 3bd3 b2bd 06aa 963d a6ea 2abe efff e03c
00000010: 363f 7abd e216 96bd 2209 49be 864a 783d
00000020: f35f b4bd f7bd 453e de56 6cbd e7a4 5d3d
00000030: 1ccb 1f3e c950 7f3d 0efa c83d 4975 acbd
00000040: 1f90 613e c45b 16be b07c 0cbd 7601 adbd
00000050: 2478 17be a294 b3bd 3d9d 3bbe c8ef 523e
00000060: 6236 a83d c36e c1bd d83e 523e 27b3 5cbe
00000070: d6f3 25be aa46 1c3e 4167 8a3d 7800 9d3c
00000080: e6eb 1cbe 8dcc b0bc b923 143c 86d8 3a3e
00000090: 7f5b 2a3e bbf6 373e f8c8 9d3d ef18 353d
000000a0: 29f5 2a3e 76f8 91bc c172 5cbe 0643 3d3e
000000b0: bfb3 523e 62f1 aa3d 24a7 923d a05a 31bd
000000c0: f45b a33d dc4d e5bc 9b99 29be 935c 10be
000000d0: 4da4 c33d 1f05 16be a30a 40be 5c45 1fbe
000000e0: bedc c63c 4659 ca3d 8d84 6cbe 38f6 7dbe
000000f0: 10a6 60be e84b 12be 8b3a 3b3e c04e 72be
00000100: d00b 263e 94c5 0fbe cd7a 463e 047f 243e
00000110: 8286 11be 3ddb b1bd 3a2b b23c b06d 33be
00000120: 9d72 303e 941c 683d c8f5 30be 2399 c13d
00000130: 5dea 19bd 0f00 73be 473b a7bd 5978 8fbd
00000140: 2c75 443d 7f9e 13be 4468 423d 1f62 193e
00000150: bb21 ca3c 73cd 5a3e c68a 1c3d cfff 28be
00000160: cc14 3c3e c9ae 3fbe d27e 73bc aac1 413e
00000170: 4a8b 13bd 3ade 763d 230d 21be 8808 b6bc
00000180: 5224 5c3e be30 5bbe 2bca 1ebe 21fd 163e
00000190: 16e1 da3d 185f 063d 74a0 44be 0e5c 813d
000001a0: ec73 a43c f7e4 013e 2d6f fd3d 8c79 f0bd
000001b0: e336 1d3e d3ba 083d 6d60 37be 0fb7 4b3e
000001c0: a8cb 1dbe f5e1 273e 670e ae3d ff28 05be
000001d0: 6e35 ddbd 9586 4f3e c29f bfbd f100 48be
000001e0: 2ecf 20be 9a84 50be 6c41 3f3e 7f0f 303e
000001f0: f026 f13d 89c7 c0bd e237 cb3d 542a 8fbe
-0.08731695 0.07356648 -0.16691074 0.027465789 -0.06109544 -0.07328583 -0.1963239 0.060617946
-0.08807363 0.19310747 -0.05770003 0.05411234 0.15604824 0.062332902 0.09813319 -0.08420808
0.22027634 -0.14683443 -0.0342986 -0.08447544 -0.14791924 -0.08768584 -0.183217 0.20599282
0.08213498 -0.09444954 0.20531785 -0.21552716 -0.16206297 0.15261331 0.06757975 0.019165263
-0.15324363 -0.021581912 0.00904172 0.1824666 0.16636465 0.17965214 0.07704347 0.04421323
0.16695084 -0.01781867 -0.2152815 0.18482599 0.2057638 0.08346821 0.07160786 -0.043299317
0.07976523 -0.027991228 -0.16562502 -0.14097814 0.09552822 -0.14650391 -0.18754058 -0.15553802
0.02427518 0.09880309 -0.23097439 -0.24800956 -0.21938348 -0.14286768 0.18284051 -0.23662853
0.16215444 -0.14040214 0.19382782 0.16064078 -0.14211467 -0.086843945 0.021749128 -0.17522311
0.17231221 0.05666788 -0.17281258 0.09453037 -0.037577022 -0.23730491 -0.08165603 -0.07005376
0.047963306 -0.1441593 0.047462717 0.14978836 0.024674287 0.21367435 0.038218282 -0.16503833
0.18367308 -0.18719019 -0.014861779 0.18921533 -0.03602151 0.060270526 -0.15727668 -0.022220865
0.2149823 -0.21405312 -0.15506808 0.14744999 0.10687463 0.032805532 -0.19201833 0.06316386
0.020074807 0.12685 0.12374721 -0.11741933 0.15352969 0.033381294 -0.17907877 0.1989405
-0.1540972 0.1639479 0.08498841 -0.1300392 -0.108012065 0.20266183 -0.09356643 -0.19531609
-0.15704033 -0.20363083 0.186773 0.17193411 0.11775005 -0.09413058 0.09922768 -0.2796198
