results/cartpole/bicogan/20251208-011000/20251208-011253/G.pt (torch, 279077 bytes, 10 tensors)

theta_u1 f4 [64, 4]
00000000: 2bd1 90bb b1f8 8e3b ba59 d8bb aba8 8abc
00000010: ea9a 0bbc c606 b9bc e84e 353c b6cb db3b
00000020: 30ac 57ba 1e96 a0bb b391 b13b cb4c bfbb
00000030: 38ac d23a 633b 943b a6e7 c5bb 6bd4 df3b
00000040: 6e98 333c 8d58 2d3c 4e27 143c 2e31 bf3b
00000050: 6499 9e3a 71cc 2c3b bf35 43bc ee04 003c
00000060: fe6f 2dbb 44e2 273c 45fd 433c 93e8 2e3c
00000070: 5169 bfbb d5e2 7a3b 387e 80bc 36a3 20b9
00000080: c140 5b3c b7b4 ab3b 7289 873c dcc4 8e3b
00000090: 95e7 93ba 803d 1a3c 9fea 1e3c ed74 81bb
000000a0: 6ed2 64ba 6db1 263c 9d5f 523c 3941 b73b
000000b0: 61f4 14bc b236 093a 5229 a8bb 1d11 87bc
000000c0: 21ed 10bc c0a8 a73b 2042 6abc 053f b73b
000000d0: a267 0ebb 78d7 a73a d39d b73c 933c e23b
000000e0: 292c e03b 0e26 c039 2544 563b ceb1 b0b9
000000f0: 97ef 303b d7c5 68bc 742b 3939 c2a6 8a3b
00000100: 230c 603a 0cfa eb3a 4228 cdba 72fe 7a3b
00000110: 8501 4c3c 6acf 28bb 402e c439 5efd 00bc
00000120: a810 b03c b88c 993b fc37 34bc 67a4 e63b
00000130: 2516 ddbb 1e96 5bbc 9edc 8dbc 8e76 753c
00000140: 5739 dbba 4a4a 07bc 89e2 f7bb 9a99 1d3c
00000150: 9b64 64bc 14a0 c8bb e75f ae3b 2780 87bc
00000160: 53bb 3a3b 39f2 08bc ea5b 7e3a eb2c 23bc
00000170: 4a2d 25bc 25be 7f3a 6a10 f0bb 9de6 27bc
00000180: 842a f1ba e69c 8c3c 1299 2c3a 40f1 03bc
00000190: 46c3 d8b9 9018 c4bb 5d0e 82bc ea9d b1bb
000001a0: 754c 7e3c c9a1 22bb 8755 8bbb 0244 31bc
000001b0: f6f6 a43c 9657 6abb edde 6b3b bef9 a3bb
000001c0: 766f cabb 6261 203c c633 69bb b65d 95bc
000001d0: de17 b6ba 0d52 b93c ef47 c43a 0236 38bb
000001e0: 38a8 943a a5d0 18bc 84bb 38bb 5eca 093b
000001f0: 6767 71bb fa22 f73b 74db 87bc 33b0 05bc
00000200: 3e5b dcbb 8493 a73a 316d 813b 584a 8cbc
00000210: 068f 9cbb dfa6 78bc 94a5 4e39 6c96 ddba
00000220: ed0d bcbb 4991 7cbc 5d33 57bc 4b62 77ba
00000230: 6b06 2cbc 5ad9 dfbb a7fc 2fbc d2ab 173c
00000240: fad8 f43b a704 77bc 2123 0abc 2d37 363c
00000250: 2e00 3fbc e8e2 d83b 7799 1a3c 1a50 6a3a
00000260: 528d ae3c bb87 9b3b 78f5 48bb 46e4 413a
00000270: cef0 b0bc 06bd 13bc bd32 00bc 4e5e 2b3b
00000280: c477 c7bb aa8a 233c 8ad5 38ba b1ca 6cbc
00000290: 317d 693c ce87 d33b 8497 4f3c 78ac 553c
000002a0: 7142 143c 5d00 ad3b 4232 b53c 8aab b3bb
000002b0: 038a 8fbb 0e5a d03a e2a6 b73c 850e eb3b
000002c0: 295a 39bc f245 4c3c 3f3e 2e3b a066 92b9
000002d0: 46a1 3a3b a87b 153b 8d12 26bc 13ec 04bc
000002e0: 17f8 1db9 c279 cbbb b397 91bc 8f6c 3dbc
000002f0: 9bb9 7f3a 75ba 48bc 5dba 1fbb c04b d33b
00000300: e8f3 0b3c eb97 053c cf9b 023c a5ab 92bb
00000310: bd4c e43b 3fba 82bc e4e1 b23b dfb2 82bb
00000320: 9a2a 76bb 364b 6fbc e722 d23c aede 4bbc
00000330: 21b9 7bbc 7067 063c 4916 f6bb fa84 bebc
00000340: 9f17 4cbc e308 cabb d873 a13c ee9d d9bc
00000350: 9d00 bb3b 9537 0aba e3fd 51bc 10d8 f83b
00000360: 23c5 46bc daf9 e2bb 31d2 63b9 ea54 26bb
00000370: 1339 a7ba 612b e63a e4f0 463c 7dcd 4f3b
00000380: 5689 b53c 52db 063c 3a60 25ba 0a13 243c
00000390: 78a9 0abc df76 82bb 6687 47bc 3bde f1b8
000003a0: cbf2 13bc 5c24 45bc 1857 393c 31d4 233c
000003b0: 3abb 2c3c f406 9f3b 5c86 af3c 6d5e eabb
000003c0: cc34 3d3c c33c 843c 46ff b93c 06f3 8abb
000003d0: 99bd 873c 25be cdbb c4be e9bb 1bc0 e8ba
000003e0: 6472 f3bb 059f 8a3c 9b96 06bc b292 83bc
000003f0: 435f 903c b8eb 083c 0c22 a83c 3521 b2bc
-0.004419466 0.0043631424 -0.006602493 -0.01692613 -0.008520821 -0.022586238 0.011066176 0.006707634
-0.0008227257 -0.004900708 0.00541898 -0.005838012 0.0016073054 0.004523681 -0.0060395775 0.006830742
0.010961635 0.010580194 0.009042574 0.00583472 0.0012100157 0.0026366974 -0.01191467 0.007813675
-0.0026464458 0.010246817 0.01196224 0.010675567 -0.005841412 0.0038282175 -0.015685186 -0.0001531959
0.013382138 0.0052400487 0.016545031 0.0043569636 -0.0011284227 0.009414077 0.009699493 -0.003950706
-0.0008728866 0.010174138 0.012840179 0.005592492 -0.009091468 0.00052342855 -0.005131879 -0.016487652
-0.008845598 0.005116552 -0.014297992 0.0055922293 -0.002172925 0.0012805304 0.022414124 0.0069041937
0.006841202 0.00036649447 0.0032694426 -0.0003370181 0.0026998275 -0.014207325 0.00017659162 0.004231305
0.00085467304 0.0018003597 -0.0015652257 0.0038298634 0.012451534 -0.0025758394 0.00037418492 -0.007872907
0.021492317 0.0046859644 -0.010999676 0.0070386413 -0.0067470246 -0.01340249 -0.017317113 0.014981879
-0.0016725463 -0.008257458 -0.007564847 0.009619141 -0.013940002 -0.0061225984 0.005321491 -0.0165406
0.0028493002 -0.008358532 0.00097030273 -0.00995944 -0.010081599 0.0009755812 -0.0073261755 -0.010247854
-0.0018399511 0.017164659 0.00065840886 -0.008053124 -0.0004134422 -0.0059843734 -0.01587599 -0.005420436
0.015521158 -0.002481567 -0.004252139 -0.010819437 0.020137291 -0.0035757772 0.0035991028 -0.005004137
-0.006177838 0.009788843 -0.0035583838 -0.018233161 -0.0013892611 0.022622133 0.0014975051 -0.0028108363
0.0011341637 -0.0093270885 -0.002818794 0.0021025161 -0.0036835314 0.0075420113 -0.016584136 -0.008159685
-0.006724744 0.0012785052 0.003949784 -0.017125294 -0.004777792 -0.015176504 0.00019707374 -0.0016905791
-0.005738965 -0.015415498 -0.013134805 -0.0009436949 -0.010499577 -0.0068313302 -0.010741389 0.009257274
0.0074721547 -0.015076793 -0.008431227 0.011121553 -0.011657758 0.006618846 0.009436003 0.00089383277
0.021307621 0.004746405 -0.003066389 0.0007396381 -0.0215992 -0.009017235 -0.007824597 0.002614874
-0.006087275 0.009981791 -0.0007050863 -0.014452622 0.014251039 0.006455398 0.0126704015 0.013041608
0.009049044 0.0052795843 0.022118691 -0.0054830955 -0.004380466 0.0015895979 0.022418443 0.0071733617
-0.011313 0.012467848 0.0026587395 -0.00027923752 0.0028477474 0.00228093 -0.010136259 -0.008112925
-0.00015065107 -0.006209583 -0.017772531 -0.011561527 0.00097551354 -0.012251486 -0.0024372556 0.006448239
0.0085420385 0.008153896 0.007971718 -0.004476028 0.0069671557 -0.01595795 0.005459057 -0.0039886083
-0.0037562014 -0.014605334 0.025651408 -0.012443228 -0.015363962 0.008203372 -0.007509981 -0.023256768
-0.012456804 -0.00616561 0.019708559 -0.026564565 0.00570686 -0.00052725646 -0.012816879 0.007594116
-0.012131962 -0.0069267573 -0.0002172671 -0.0025380203 -0.0012758098 0.0017560535 0.012142394 0.0031708174
0.022160213 0.008231001 -0.00063085894 0.010014305 -0.008463256 -0.0039814557 -0.012178278 -0.00011533169
-0.009030054 -0.0120325945 0.011312269 0.009999321 0.010542685 0.004853124 0.021426372 -0.0071523697
0.011548232 0.016142255 0.022704732 -0.0042403964 0.0165699 -0.0062787705 -0.0071333367 -0.0017757447
-0.007429408 0.01692153 -0.008214618 -0.01606116 0.01762355 0.008356981 0.020524047 -0.02174435

theta_u2 f4 [4, 64]
00000000: 3940 8ebb 4601 9dba d8e9 a0bb f85d 0bbc
00000010: 7542 19bc 98b5 01bc 3b82 f63b cfa1 37bc
00000020: e6cb b53b 1ac4 053c 93ce 903c ad6b 32ba
00000030: 08b8 2d3c a00d 813b f7db fcbb de0c 89bc
00000040: 9c17 3bbc ccf5 dcbb 5099 d838 8e82 20bc
00000050: 2878 0d3c ba8f 2cbc 035f 1c3c 125f 66bc
00000060: 0d81 433c 164b 8638 c0f8 81ba 07e9 293c
00000070: 6b7e 79bb 8559 113c c91d 153c 8d69 1ebc
00000080: 63b5 91bb f0ac 8ebc 97c3 36bc 035a d6bb
00000090: b0fb 8b3b 3f0d 01ba 433e ca3c af9b f53b
000000a0: 6f0d 81bc 8504 bb3a 959a 3bba 06f3 cb3b
000000b0: 5630 dbbb 3ba4 0339 1e24 3e3b ba96 9dbb
000000c0: f105 6f3c 8141 23bc 0d1f 4aba 9ac6 7cbc
000000d0: 49f8 c9ba 257f 903b 98bd 823c 7e30 6ebb
000000e0: facc a1ba 6857 47bc d3a7 003b 7818 86bc
000000f0: 532f 2cbc 48c0 f53b 9e45 0e3c c4b8 b23a
00000100: 1a97 2bbb eb82 6fba 3c2b 33bc 1dfc b63c
00000110: a1ab 903b 9e26 763a ed95 cf3b 4a6e 673b
00000120: 6045 eabb 4952 96bc a6b5 8e3c 48df 1bbc
00000130: 9e53 433b b618 1b3c 4fee ccbb 952f 7fbb
00000140: 779f eabb 50cd e53a b6dd 47ba 6e0e a73b
00000150: 7b0a 573b 081e ff3b 0cc9 5abc f80d 713c
00000160: 6f64 f1ba c060 fabb 8c0d 973c 71c2 b93b
00000170: 7c4f 0bbc 4ab9 c63b 5e92 823a 5633 fe3b
00000180: 5ab8 89bc 7680 323c 9d6b 87bb 3262 c93a
00000190: 0544 ac3b c049 7e3c 75fc c5bc 6b90 d7ba
000001a0: 5e78 26ba f08e b6bb c39d 0b3c 2ff2 37bc
000001b0: 50c0 dc3a 6786 65b9 538f 313c 9a33 75bc
000001c0: 5cf7 22bb ca33 523a b124 a7bc 6f91 9c3a
000001d0: 2088 363c 1565 b4bb 02e9 faba 70d1 4fbc
000001e0: ba57 913c dd14 973c 6098 053a 33db 1cbc
000001f0: 0d73 433c b63c 21bc 7ee4 e5bb a0ee f5bb
00000200: a7c6 b63a 0b8f b7ba 11c0 5a3c 6de7 6fbc
00000210: 95b3 01bd 6170 193c 8a16 44bc f76c 133a
00000220: 9540 9f3a 1cd2 1d3b 3689 993c c075 b23c
00000230: 60ea 903b 5d16 913a 5ffc 103b ddf4 313c
00000240: 1886 6d3a 4241 2a3b 3cd4 f53c 81ae b4ba
00000250: be6f 8eba a139 ca3c 29b1 703a 4e9e 253c
00000260: e273 0dbb 18bc 10ba 291c d93a 15cc 333c
00000270: dc1a f93b cdce bf3b 8fac eb3a 3fed edbb
00000280: b2ab ae3b aaaa e5bb 43c9 9bbb cedc d338
00000290: 5c56 cbbb dfcb e23a 9fed ac3b 85a7 53bc
000002a0: fcdd efb9 9ae4 d03b 36d3 b4bb 3a7e 953b
000002b0: 3ce3 8bbb ef9a 123c 0bb5 96ba 695f 9bbc
000002c0: 26d6 013b 7206 a03c d873 99bb fea4 bf3b
000002d0: fd28 b33b f3cd abbb 6ded 583c 60a6 a6bb
000002e0: 792e 29bc bcbd dbba 1f06 bb3b 5927 ae39
000002f0: 414d 03bc d788 ff3b 6f0a 123b c1f2 d7bb
00000300: 609c 1a3a fb0d 833c f9a2 c03b 43c3 1cbc
00000310: 569d 86bc 1c8d 8fbb 584b 3d3c f3be 40bb
00000320: 9ca4 7e3a f9fa a73b e566 1f3b 9422 083c
00000330: dedc 3a3c d6c6 fabb 5546 9b3b bdb5 683c
00000340: 8930 c939 c9a8 833b ae2f d2bb 2b17 223c
00000350: fa4c 563c 806d 8bbb 646e c9bb be0f 3dbc
00000360: e7ce 9dbc 1bad c23c 51c6 423b 84bc 573b
00000370: 5c15 42bc 90b2 0abb 1e8e 693c 30a1 8e3c
00000380: da84 bdbb e373 013a 871e 55bc 288f 35bc
00000390: 39f1 a23a 37a8 86bb 0866 87bc f6d7 213b
000003a0: 4a5e 2cbc a1d8 eebb 5284 51bb 6f63 363c
000003b0: 4bcc 8e3c fd98 473b faa2 fd3c 3b48 b0ba
000003c0: 6558 943c 99af 02bc ab7b acbc db72 96bc
000003d0: 4ee4 b03b d100 06bc b85d 21bc 250d 2bbc
000003e0: a0a6 58bc eb4e 5cbc 9258 5fbb 86da 47bb
000003f0: f59b 0d3c 4f2a 67bc f82d 1dbc 33c1 c6bb
-0.004341152 -0.0011978529 -0.004910689 -0.008506291 -0.0093542235 -0.0079168305 0.007522849 -0.011208012
0.005547988 0.00816443 0.017676627 -0.0006806206 0.0106029585 0.003938392 -0.0077166515 -0.016729768
-0.011419203 -0.0067431685 0.00010328239 -0.009796752 0.0086346045 -0.010532314 0.009544137 -0.0140607525
0.011932624 6.403604e-05 -0.0009916052 0.010370499 -0.0038069736 0.008871441 0.00910134 -0.00966872
-0.004446672 -0.017416447 -0.011155031 -0.006541492 0.004271947 -0.00049229333 0.024687892 0.0074953656
-0.015753476 0.0014268315 -0.00071565184 0.006224039 -0.0066891117 0.00012554314 0.0029013227 -0.004809228
0.014588819 -0.009964348 -0.00077103154 -0.01542821 -0.0015409078 0.004409688 0.015959546 -0.0036344822
-0.0012344413 -0.012166835 0.001963128 -0.01636909 -0.01050933 0.0074997284 0.00868359 0.0013635387
-0.0026182593 -0.0009136635 -0.010935601 0.022337014 0.004414991 0.00093899097 0.006335011 0.003531354
-0.0071493834 -0.018349783 0.017420601 -0.009513684 0.0029804478 0.009466341 -0.0062539945 -0.0038938273
-0.007160123 0.0017532501 -0.0007624285 0.0050981557 0.0032812643 0.0077855624 -0.013353597 0.014712803
-0.0018416772 -0.007640928 0.018439077 0.005668931 -0.008502837 0.0060645686 0.0009961834 0.0077575846
-0.016811538 0.010894885 -0.0041327015 0.0015364347 0.005257132 0.015520513 -0.024168232 -0.0016446238
-0.00063503336 -0.0055712387 0.0085215 -0.011227175 0.0016841982 -0.0002188921 0.010837394 -0.014965916
-0.0024866676 0.00080185814 -0.020403238 0.0011945198 0.011140853 -0.005505214 -0.0019142928 -0.012684211
0.017742027 0.018442566 0.0005096253 -0.009573746 0.011929286 -0.009841135 -0.007015764 -0.007505253
0.0013944701 -0.0014004422 0.013351456 -0.014642579 -0.031665403 0.009365172 -0.011968264 0.0005623842
0.0012149984 0.0024081534 0.018742185 0.021784663 0.004422471 0.0011069287 0.002212308 0.010861603
0.0009060814 0.0025978838 0.030008428 -0.0013784916 -0.0010867042 0.024685683 0.00091816724 0.010108544
-0.0021583964 -0.0005521192 0.0016564179 0.01097395 0.007602079 0.00585351 0.0017980504 -0.007260948
0.0053305263 -0.00700887 -0.004754217 0.00010102392 -0.006205363 0.001730319 0.00527735 -0.012918358
-0.00045751024 0.0063749077 -0.0055183424 0.0045621665 -0.004269032 0.008948072 -0.0011498047 -0.018966394
0.001981148 0.019534323 -0.004682999 0.005848526 0.0054675327 -0.005243057 0.0132402005 -0.0050857514
-0.010326021 -0.0016764919 0.005707517 0.00033217182 -0.008014024 0.007798295 0.002228405 -0.006590218
0.00058979355 0.015997877 0.005878803 -0.009568038 -0.016432445 -0.004380835 0.011553608 -0.002941069
0.000971386 0.005126354 0.0024322805 0.008309025 0.011405198 -0.0076530976 0.004738609 0.014203486
0.0003837387 0.0040179235 -0.0064143753 0.009893219 0.013079876 -0.004254997 -0.006147193 -0.011539398
-0.019263698 0.023764184 0.0029720257 0.003291876 -0.011845913 -0.002116356 0.014255075 0.017410845
-0.0057836594 0.0004938228 -0.013007767 -0.011081494 0.0012431509 -0.0041094082 -0.016528144 0.0024695373
-0.010520527 -0.007289008 -0.0031969738 0.011132105 0.017431399 0.0030456178 0.030961502 -0.0013449261
0.018108556 -0.007976436 -0.021055063 -0.018365314 0.00539831 -0.008178906 -0.009849004 -0.010440146
-0.01322332 -0.01344655 -0.0034079892 -0.003049524 0.00864314 -0.014109208 -0.009593479 -0.0060655116

bu1 f4 [64]
00000000: 92f7 8ab9 6964 1dba 0df6 8ab9 fe02 1dba
00000010: 18e5 8ab9 2e16 1dba 15aa 8bb9 03ee 8ab9
00000020: f1fa 8ab9 d00a 8bb9 f2f6 8bb9 a313 8bb9
00000030: 88f5 8ab9 7487 1dba 7df2 8ab9 48f9 1cba
00000040: 81f5 8ab9 6df0 8ab9 f01f 8bb9 a4fc 1cba
00000050: d809 1dba 56ed 8bb9 541f 8bb9 140a 8bb9
00000060: af33 8bb9 bcc8 8ab9 c7ed 8ab9 8e13 8bb9
00000070: b820 8bb9 9c10 8bb9 d30b 1dba c39e 8ab9
00000080: 1aec 8bb9 38f5 1cba f717 1dba b91a 1dba
00000090: 230f 1dba ded1 8bb9 b457 8bb9 b27b 1dba
000000a0: ad00 8bb9 4a23 1dba cae7 8bb9 db7b 1dba
000000b0: 15c3 8ab9 0b00 8bb9 acae 8ab9 4c06 1dba
000000c0: cdf1 8ab9 8d1a 1dba 0c9d 1dba 7015 8bb9
000000d0: 61bf 8bb9 7e1a 1dba e19e 1dba 7a86 1dba
000000e0: b6f8 8ab9 a30f 1dba ad87 1dba 62c6 8bb9
000000f0: cc96 8bb9 7130 1dba 4924 8bb9 39f9 8ab9
-0.00026505865 -0.0006004037 -0.00026504733 -0.00059895206 -0.000264921 -0.000599238 -0.00026638867 -0.00026498744
-0.00026508377 -0.00026520202 -0.00026696135 -0.00026526776 -0.00026504346 -0.0006009259 -0.0002650208 -0.00059880735
-0.00026504326 -0.00026500542 -0.0002653594 -0.0005988574 -0.00059905415 -0.00026688975 -0.00026535487 -0.00026519655
-0.00026550653 -0.0002647097 -0.0002649857 -0.00026526715 -0.00026536523 -0.0002652452 -0.00059908367 -0.00026439698
-0.00026688055 -0.0005987468 -0.0005992646 -0.00059930567 -0.000599133 -0.0002666851 -0.0002657749 -0.0006007507
-0.0002651265 -0.0005994333 -0.00026684842 -0.00060075306 -0.0002646676 -0.00026512178 -0.00026451552 -0.0005990013
-0.00026501567 -0.0005993031 -0.00060124765 -0.00026528118 -0.00026654734 -0.00059930224 -0.00060127495 -0.0006009113
-0.00026506715 -0.0005991405 -0.0006009292 -0.00026659953 -0.00026624498 -0.0005996293 -0.0002653918 -0.00026507096

bu2 f4 [4]
00000000: 29de dcb9 aeb8 b0bc b569 113b 2205 8d3c
-0.00042127192 -0.021572437 0.002218825 0.017214362

sf_fc1.weight f4 [256, 5]
00000000: e25d 23be 7aae 0bbd bb09 383d e256 aa3d
00000010: 90d2 ccbd d53a 213d 1c85 b13d cea3 23be
00000020: fd7c 003e 6675 0e3d f941 003e cd07 edbb
00000030: bf4f 05be 6f52 06be 249c 003d 41b6 193e
00000040: 69ef 993d ae7e bcbd 0131 7bbd 5898 0f3e
00000050: 8999 9ebd ab8a 183e c0de 38bd 5a2a 24be
00000060: 57ba 693c bbc5 18be c432 d13d 6bf0 3abe
00000070: fc0f 833d cd6b c9bd acb6 d9bd fe54 153e
00000080: 3485 ba3d de84 be3c 5a0b 883c f1cf a5bd
00000090: 3e3d 4a3d 6f71 f43b bb0c a4bd 85b1 43bd
000000a0: e837 26bd ad4b 75bd abfa 07be 678e d3bc
000000b0: 19ea d8bd 998d f9bd 98eb 12be 84b5 bcbd
000000c0: 46a8 cdbb fbd9 51bd 5c7c 78bd 3b43 0bbe
000000d0: 5dd0 c83d 44cd ea3c 4909 373d 0c51 fdbd
000000e0: 4fcd b1bd c264 3b3e 3d20 89bc 9d30 2f3b
000000f0: 8dbd f43d 2378 2c3c a422 8fbd b283 17be
00000100: 6553 163e f26d ccbd c6ca 44bd 981e 433c
00000110: 2aea 8fbd e65a 36bd 2de5 203e 1cfd f8bc
00000120: ec76 48bd 800e dc3d 99f8 05bd c362 0bbd
00000130: 0cab e1bc 75a5 27be 0510 02be 99da 08be
00000140: 9f3e d4bd 3096 9a3c c156 7abd 75c3 20be
00000150: 799a 7cbb a0a1 55bd a0e8 87bc 40ba 14be
00000160: 1b79 bb3d 0b2d b23d def3 bb3d c1c5 f13d
00000170: 7211 f9bc 0417 f63d 1e87 b13d f7e6 703c
00000180: 332d dd3d 167d 363d d7b8 0cbd 3858 b03d
00000190: 7b55 53bc 5f05 9abd 7e3a dc3d a672 993d
000001a0: f044 0ebe a184 a73d bec3 283d 865d 7e3d
000001b0: 4e37 033e d2b4 5a3d 32cf ff3d d5e3 1d3d
000001c0: f182 d33c e1b9 cabd 3616 bfbd 6c94 993d
000001d0: f73d 513d 860a 38bd ed5c 663d 0a7b 6ebd
000001e0: 9d77 913d c8d3 04bd 56f8 19be b1ac 0f3d
000001f0: 2422 e63c b3a7 1cbe 6a4b ecbd e3f4 a43d
00000200: d048 ba3d 4b03 05bd a291 80bd fb8f e93d
00000210: 59ca ebbd a3d4 f0bd 6381 103d 28e9 61bd
00000220: 60df 063e 3b0d e4bb 22b3 88bd b815 113c
00000230: 3e17 b93d f8d1 213e 0fdb f73d 2a44 143d
00000240: 8afc a2bd 4f93 4f3d 538a 873c 99ca 1cbd
00000250: 9921 5d3c 8415 8ebb 9e1f 0fbe 8c54 a3bb
00000260: 48d4 873d 32a3 a53c a686 cfbc 53e3 1dbe
00000270: 2141 2f3d 107e 193e 587e e6bd 9f6f 03be
00000280: 4510 673d 4421 ee3d 9a3d 1f3d 5ca2 3bbd
00000290: ed75 433c 7d1e af3c 0072 f53b 3834 bd3d
000002a0: c380 b0bd 1f94 abbd aec9 f3bd 8ecb f13d
000002b0: ebc1 0cbe 3e94 173e 3b13 16be 26c6 19be
000002c0: f66e fa3d 5850 9dbc 6036 a73d 99d0 243e
000002d0: edbc 89bd 2664 243d bfde 423d 611c ed3d
000002e0: 1ffa eb3d 2415 c13d c3c7 fdbd 1bb6 aebd
000002f0: ee43 7ebd b1b7 03be d89e a1bd 8eea d1bd
00000300: 831d 0e3e 197c dcbd 95fb 97bd ad7a 923d
00000310: 98d9 673d 277f 0f3d 74ea d53d 2a7f a03d
00000320: 6335 0e3e 1f21 ff3d e345 0f3e 99a2 aabd
00000330: 813d a63d 6ddf 95bd 10c7 2a3c 0232 763d
00000340: 0cfc d2bc f570 54bd 54b1 7f3c dfb3 d1bc
00000350: d402 87bd c03d 98bd 9f11 163e f3a0 d3bd
00000360: aff5 5dbd da94 51bc 746b 3ebc 1c66 0c3e
00000370: 5ab0 cbbd 6516 0ebe 04d1 3ebd f54a 91bd
00000380: 2e38 613c 97a1 adbd 36b5 7b3d d71c d83d
00000390: dbc0 d43d dac1 90bd 9d5a 203d 0f65 46bd
000003a0: c0b2 893d e847 af3d 0537 9ebd bb71 593d
000003b0: 9848 8abd f2ab 283e 669e 043e cb3a 283d
000003c0: a15a d83d 1d30 513d 6d89 863c d7d1 27bb
000003d0: 28a6 9b3c 9d29 4dbc d4fb e7bd 0ffa 223c
000003e0: dd1c e93d 46c8 1dbd 3ec4 813d fbe1 07be
000003f0: 4371 073e 4440 f0bc 3b92 14be 572e 213d
-0.15953782 -0.03410194 0.044931155 0.08317353 -0.10001099 0.039362747 0.08667967 -0.15980455
0.12547679 0.03477993 0.12525167 -0.007233596 -0.13018702 -0.13117383 0.031398907 0.1501093
0.07516367 -0.0920385 -0.06132603 0.14022958 -0.07744128 0.14896648 -0.045134306 -0.16031781
0.014265618 -0.14919178 0.10214761 -0.18255775 0.06399533 -0.098350145 -0.10630545 0.14583203
0.09107438 0.023256715 0.016606975 -0.08096302 0.04937481 0.0074598114 -0.08010241 -0.047776718
-0.04058066 -0.059886623 -0.13279216 -0.025824739 -0.105915256 -0.12185211 -0.14347684 -0.09214309
-0.0062761633 -0.051233273 -0.060665473 -0.13599865 0.09805367 0.028662331 0.04468659 -0.12368974
-0.08681738 0.18300155 -0.016739005 0.0026731857 0.119502164 0.01052669 -0.06989029 -0.14796332
0.1468025 -0.09981908 -0.048044942 0.01190915 -0.07027085 -0.04452028 0.15712424 -0.03039413
-0.048941538 0.10744953 -0.032707784 -0.034029733 -0.027547382 -0.1637171 -0.12701423 -0.13364638
-0.103635065 0.018870443 -0.06111789 -0.15699561 -0.0038544221 -0.05215609 -0.016590416 -0.14524174
0.091539584 0.086999975 0.09177373 0.11805297 -0.030403826 0.12016109 0.0866835 0.014703504
0.10799637 0.044552885 -0.034355965 0.086105764 -0.012898798 -0.07520556 0.10753344 0.074925706
-0.13893485 0.08179594 0.0412023 0.06210091 0.12814066 0.0533951 0.12490691 0.038547356
0.025819274 -0.09898735 -0.09330408 0.07499012 0.051084485 -0.04493191 0.056240965 -0.058222808
0.071028925 -0.032428533 -0.15036139 0.0350768 0.028092451 -0.15298347 -0.115378216 0.08054521
0.09095919 -0.032473844 -0.06277777 0.11404415 -0.11513204 -0.11759307 0.035279643 -0.055153996
0.13171148 -0.006959585 -0.06674792 0.008855276 0.09037636 0.15802753 0.12102329 0.03619782
-0.07958324 0.050677594 0.01654545 -0.03827915 0.01349678 -0.004336061 -0.13976905 -0.004984444
0.06632286 0.02021942 -0.02533276 -0.15418749 0.04278672 0.14989495 -0.11254567 -0.12835549
0.056412 0.11627439 0.038877107 -0.045809135 0.011929971 0.021376843 0.0074903965 0.092384756
-0.08618309 -0.08377861 -0.11903702 0.11806403 -0.13745849 0.14802644 -0.14655773 -0.15016994
0.12228195 -0.01920335 0.08164668 0.16095199 -0.06725488 0.04013457 0.04757571 0.115776785
0.11522316 0.094278604 -0.12391617 -0.085308276 -0.0620765 -0.12863041 -0.07891625 -0.10249816
0.13878445 -0.10765857 -0.07421032 0.07152305 0.056603998 0.03503337 0.10445109 0.078367546
0.13887553 0.12457489 0.13991503 -0.08331794 0.081172 -0.07318006 0.010423437 0.060106285
-0.025754951 -0.051865537 0.015606243 -0.025598465 -0.06592336 -0.07433653 0.1465516 -0.10333433
-0.05418938 -0.012791837 -0.0116222985 0.13710827 -0.09945746 -0.1387573 -0.04658605 -0.07094375
0.013746304 -0.084780864 0.061452113 0.10552376 0.10388347 -0.07068224 0.039148916 -0.04843622
0.06723547 0.08558637 -0.07725338 0.053086977 -0.067521274 0.16471842 0.12951049 0.041071694
0.10564161 0.051071275 0.016422952 -0.0025607252 0.019000128 -0.012522128 -0.11327329 0.009947314
0.11382458 -0.038521074 0.06336258 -0.13269798 0.132268 -0.02932752 -0.14508907 0.039350834

sf_fc1.bias f4 [256]
00000000: e8cd e13b 8330 c43c b917 29bc 2de0 dabc
00000010: 81ef 033c a45d 223d 7962 d3bb 6dc4 51ba
00000020: e12e c13c 35f3 153d ce99 06bb 1058 8a3c
00000030: 4dc4 9cbc 1325 a4bc 0d33 3e3c da1a b1bc
00000040: b056 4d3c 1bb0 b53c 2ffd 7e3c c83d fdbb
00000050: f2b6 5b3c 1e4a 433c 369e 6bba f1f1 a73c
00000060: 088c 0d3b db47 583b 34f3 71bc c62a 75ba
00000070: f2d5 92bb 1fff 273d 48b6 be3b e185 63bb
00000080: 3cd4 4d3c ebfb ae3b f3da de3c 6612 c33b
00000090: 9534 cb3b 1e1d 5d3c 5eaa bbbc a92e 2c3c
000000a0: 7e91 dabc b1c2 2f3c 4957 99bc a30d 11bc
000000b0: 7749 f9bc 17f9 5abc eff9 c83b ecfb 8b3c
000000c0: 9a52 1a3c 4d2c 5cbc 2b23 ac3c cdf7 403c
000000d0: 17ea c43b 2d06 883b de99 003b 16fc 8bbb
000000e0: c920 4cbc da62 94bc a3c7 253a 9ea8 6ebc
000000f0: bb04 1a3d d8fe 05bd 0975 b0bc 4c2f 423b
00000100: 1bd2 fa3a c4a4 c2bc 4dcc 44bd 8d74 013d
00000110: e35d e9bc ffc8 923c e71a 603c 9cf5 68bc
00000120: 8df4 10bc a45a cf3b 1d40 ca3c 2d46 ec3b
00000130: 3c38 f23b 2ff5 04bd 00dd a2bc de31 0bbd
00000140: 0da6 a8bc 474d 1dbd 3167 0b3b a710 b7ba
00000150: ece4 be3c 2c81 a43c 8856 953b bc7f 31bc
00000160: 12ad 5b3c 77bf a33b 6b65 7fbc 2d11 0b3c
00000170: 2416 f73c ddee c63a 3cc9 e23b 71ef 893c
00000180: 5af7 9dbc 087c 0b3d 58e2 83bb a6a5 243c
00000190: 0460 dd3b 725c 073d 9c35 5e3c bc8a 94bc
000001a0: 203b 1abc c46d 6d3c c462 9e3c 6c94 15bc
000001b0: b912 4d3b 2ffd 1a3c d8ab b73c dea0 e03b
000001c0: 4d2f 1d3c f915 ad3b 65e3 85bc f953 a7bc
000001d0: ec51 8f3c c961 873c 56c8 57bc 1ee8 ac3a
000001e0: 14b5 bebc 4903 9d3c c210 a03c a463 ab3c
000001f0: b030 fc3c 5d19 c03b 81ac d4bc e402 8abc
00000200: a98a c139 0cfb 7e3c d95e b73c 71f6 ba3c
00000210: 7de7 503c aec9 e03a 0b78 babc 934b d73c
00000220: 7c69 27bd be3f 7ebc d22c b0bb 5e6e b7bc
00000230: 727d 17bd f503 88bc 54be 07bb 90c9 523b
00000240: 300b fabc ab24 c63c bcc8 df3c 572b e03b
00000250: a50f 223c 43b4 d43b ea4a 9a3b ef0e ad3b
00000260: 0c53 62bc 2c52 15bd 1ee1 743c e4e7 a63c
00000270: 7412 0cbd cc1f b6bc 2721 893c 9b5b e3bb
00000280: eb03 a23c 686e 92bc f143 80bc 7d10 0fbb
00000290: 5dd0 083d b013 183c 20c2 72bc c998 c1bb
000002a0: 31d1 65bc 2e84 a4bc 505d a8bb e9f5 1ebd
000002b0: 973b 073c a165 e8bc 626b 2c3c afcf 983c
000002c0: 4944 d8bc 13f2 623c 3617 613c 92ed b63b
000002d0: 5d2d 033c 3c23 0cbd 03ac 28ba cb0a 82bb
000002e0: f3f7 813a b3dd 8c3c 0332 9f3c 4e1d 7b3b
000002f0: 877e 2a3c 8727 613b 9036 1c3b a804 92bc
00000300: cb40 bf3c 5484 8f3c e9c0 4b3c 52d6 5b3c
00000310: 348c 2cbc d498 653b 2756 a93c 73ca b439
00000320: 4023 ec3b 1bcf 0538 f15d f83b 5407 c33c
00000330: ed38 1ebc 7fa0 9ebc 9cc2 4a3c 3da8 d0ba
00000340: 1599 13bc 33b7 e0bc 3a72 6d3a c307 2abd
00000350: 8895 e0bb 558c 893c 4ca3 7dbc 2ebe d23c
00000360: c539 bdbc b741 a53b 528f 803c 342b b23c
00000370: 7938 f6bb 0a01 b43c a515 733a a788 a53c
00000380: 5f99 323c 4a37 813c 7980 763a 0885 fd3b
00000390: 261c d1bc 8699 c83c 31da 8f3c e8ce edbc
000003a0: 12d6 653c c619 1d3b 7b47 db3c 722a 0a3c
000003b0: 3519 b63c ebf3 3abb 470a 8ebb d23e 4c3c
000003c0: 0f64 9fbc 5733 203b a998 983a 542a 1f3b
000003d0: 1e70 b23c e65b 553c af5a d2bb 48a3 0c3c
000003e0: 3cdb 503b dbdf 39bc 00fc edbc 6948 683c
000003f0: f1af f8bc fc70 0bbd 1138 af3c 4cc6 e4bc
0.006891001 0.023948913 -0.010320597 -0.026718223 0.008052708 0.039640084 -0.006450948 -0.0008001987
0.023581924 0.036608893 -0.0020538452 0.016887695 -0.019136572 -0.02003721 0.011608851 -0.02161925
0.012532875 0.0221787 0.015563293 -0.007728312 0.013410317 0.011919526 -0.0008988114 0.020501109
0.0021598358 0.0033001814 -0.014767457 -0.0009352382 -0.0044810707 0.041014787 0.0058200695 -0.003471725
0.012562808 0.0053400896 0.027204012 0.005953121 0.0062013366 0.013495712 -0.022908386 0.0105091715
-0.026680704 0.01072757 -0.018718379 -0.008853349 -0.030430539 -0.013365052 0.00613331 0.0170879
0.009419108 -0.0134382965 0.021012863 0.01177783 0.006009351 0.004151127 0.0019622962 -0.0042719943
-0.012458988 -0.018113542 0.00063239987 -0.014566569 0.037602168 -0.03271374 -0.021540182 0.0029630242
0.0019136103 -0.023760207 -0.0480464 0.031605292 -0.028487151 0.017918108 0.013678289 -0.014218714
-0.008847368 0.006327944 0.024688775 0.007210514 0.0073919576 -0.032460388 -0.019880772 -0.033983104
-0.020586992 -0.038403776 0.0021271224 -0.0013966755 0.023302518 0.020081125 0.0045574345 -0.010833677
0.013407962 0.0049971896 -0.015588145 0.008487982 0.030161925 0.0015177388 0.0069209617 0.016837807
-0.019282985 0.034053832 -0.004024785 0.010049259 0.0067558307 0.033047147 0.013562586 -0.01813256
-0.009413511 0.014491502 0.019334204 -0.009129625 0.0031291677 0.009459778 0.022420809 0.0068551144
0.009593797 0.0052821604 -0.016343782 -0.020425783 0.017495118 0.01652612 -0.013170322 0.0013191735
-0.023279704 0.019166606 0.01953924 0.020921536 0.030784935 0.0058623985 -0.025961163 -0.016847081
0.00036915138 0.015562784 0.022384094 0.02282259 0.012750504 0.0017149949 -0.02276232 0.026281154
-0.040872082 -0.015518127 -0.0053764367 -0.022391494 -0.03698487 -0.01660345 -0.002071281 0.0032163598
-0.030522913 0.024187407 0.027317397 0.006841104 0.009891425 0.0064912154 0.0047086375 0.0052813212
-0.013813745 -0.03645532 0.01494625 0.020374246 -0.034197286 -0.022231959 0.016739441 -0.0069384105
0.019777259 -0.017874911 -0.015657397 -0.0021829896 0.033401836 0.009282038 -0.014816791 -0.005908106
-0.014026926 -0.02008256 -0.005138077 -0.038808737 0.008253953 -0.028368773 0.010523649 0.018653719
-0.026399748 0.01385166 0.013738444 0.00558252 0.008006421 -0.03421329 -0.0006434323 -0.003968572
0.0009915814 0.017195558 0.019433027 0.0038317028 0.010406143 0.0034355836 0.0023836233 -0.017824486
0.023346325 0.017519154 0.01243613 0.013417797 -0.010531474 0.003503372 0.020670963 0.00034483112
0.0072063506 3.1902553e-05 0.007579558 0.023807205 -0.009657127 -0.01936364 0.0123755 -0.001591928
-0.009008666 -0.027431106 0.00090578536 -0.04151131 -0.006853763 0.016790548 -0.015480828 0.02572545
-0.023098836 0.005043234 0.01569334 0.021749116 -0.0075140563 0.021973152 0.00092729396 0.020206762
0.010900824 0.015773434 0.0009403299 0.007736806 -0.025526118 0.024487268 0.017560096 -0.029029325
0.014028089 0.002397166 0.026767483 0.008432971 0.022228817 -0.0028526734 -0.0043347212 0.012466149
-0.019456891 0.0024444663 0.0011642176 0.0024286704 0.021781977 0.013022399 -0.0064195017 0.008583851
0.0031868955 -0.011344875 -0.029050827 0.01417742 -0.030357333 -0.034043297 0.02138904 -0.027926587

sf_fc2.weight f4 [256, 256]
00000000: 9d78 41bd 6458 743d 3e21 80bc d923 753d
00000010: ad26 b13b 4094 39bb 16fa b7bd c8dc 103d
00000020: cc24 e43d 5df4 c6bb b909 f63c 8e48 af3d
00000030: fe04 a1bd 363a 1dbd e054 443d c5cb 393d
00000040: 2d87 12bb e013 7dbc 35f7 50bc 7345 853d
00000050: 5bcc 9a3d 1d92 2dbc f6ba 08bd 4f0c 563c
00000060: 219f b8bc d2c5 7dbc d368 2c3d 790f 51bb
00000070: d0b0 873d 1efa 96bd c1d7 4d3c 14eb 933d
00000080: 1b21 813d 319c 9d3d f61d f3bc 6f8f 94bc
00000090: debf d4bd 4766 e43d cbf6 fc3d 8fd3 4d3d
000000a0: 618d 5ebc e6f7 d93b 8f42 81bd 876c e03d
000000b0: 2412 ba3d ee59 94bd 834c b53d 6b5d 68bd
000000c0: aa90 c8bd 883b aebd 633b b73d 509a bd3d
000000d0: c88f d9bb 7ccf e23d c87b 943d 081a d23d
000000e0: 7f66 003d d82d 2f3d 1efb 223d 87b3 a03d
000000f0: 5afc 173d b970 1b3b 39ac d13d f1ef a1bd
00000100: a67c 9b3d 4de1 923c b161 233d 21c9 703d
00000110: 719e 79bd e50a 6bbd fe44 15bd 3e0b f03c
00000120: 7e29 c9bd 7f94 9c3c c37f a93d dafa b9bd
00000130: 48d7 80bc bda5 48bc ce48 5a3c 3035 8eba
00000140: 65d6 8cbb a2a6 75bd 0285 d33d b049 913d
00000150: e1b8 b63d 5981 a53d d1d8 93bd 987c f4bc
00000160: 98ef 8abd 196f 753d 43a9 acba 29e7 bd3d
00000170: 0480 dc3c 855d 0cbb 94f7 083c 9d78 6a3d
00000180: 090d 67bd 627b 9d3d fb0d 103d affa 43bd
00000190: b075 52bc 7a2f 843d 3fda ce3d 7dad b83d
000001a0: 29b4 abbd 7b31 c8bd 69dd 643d 18d9 cf3c
000001b0: 0d55 cc3d ec19 b4bd 6ebf 9cbd 5254 37bc
000001c0: 927c 06bd ca4d 893d 6c32 d7bd cf96 5a3d
000001d0: 1ee7 e33c 1802 653d 06b6 b6bb d559 e33c
000001e0: aa8b 59bd edb7 03bd 4ee7 983d 32df 6dbd
000001f0: baba 013e 85ed a3bd d6d7 333d 2d7a 19bd
00000200: 7a99 233d 5f86 b0bd a604 9b3d 24bc 81bd
00000210: 59ec b2bd 50e1 d9ba 82cc 9fbd 9e9a ab3d
00000220: f857 9cbd b8a3 a63d 4163 1f3d c3a9 6b3d
00000230: cbdb debc 341a 23bd 0c73 0bbd d426 843d
00000240: c175 05bd ac8e 34bc 3b73 703d 5d34 583d
00000250: ea8d da3d ce7b a2bd 6358 293d 160b 5dbd
00000260: 10b5 18bd ab43 71bd d61a a0bb 9a5f 46bd
00000270: 66b6 57bd d146 d53c 21d7 6ebd e934 cabd
00000280: 7095 773d 0b91 90bd 8ca7 293d ce2d eebd
00000290: a691 c6bc 4944 cdbd 8e03 93bd 879a afbd
000002a0: a2bb e1bb fe59 fcbd d5f6 5abd 3b93 5d3d
000002b0: 799d e53d 2561 ed3d fa5d 653d 84e2 8bbd
000002c0: 88e8 d23d 83fe b73d bde4 84bd 6bd9 de3d
000002d0: c4ef cebd 6392 273d 7043 70bd 5101 b13d
000002e0: 2c58 da3d ae8e d8bd f7fd 90bd 17f5 a5bc
000002f0: dc80 9ebd e92c 72bd 6029 9abd a51f 393d
00000300: 6108 6fbd 8460 c9bd dab3 8cbd 2e64 7b3d
00000310: 3b21 c63c 84bb af3d 3887 973c 85c1 df3c
00000320: 01ac 3b3d e76b a53d 2daa 933d bda1 983d
00000330: 62f8 c5bd f2b6 29bd 0de9 4bbc c4a6 453a
00000340: 2986 d7bd 8112 db3d ee82 b9bd 10ea 5c3d
00000350: 8aba 2cbd 1f27 a23d 336b e2bd 3c50 983d
00000360: 614a 69bd dbd9 c93d 68b5 563c 7b6c 4f3d
00000370: 5c9e 62bc 569a e8bc 5d86 fc3b c728 c23d
00000380: 0cd5 633d 9f22 533d 49ff 263d 0e80 dfbd
00000390: c44c 5b3d 6397 b1bd fe5d 4fbd 9389 f8bb
000003a0: 7b4b 573d 0698 dbbd fb7e 923c 8b7b b93d
000003b0: 9bcf 53bb b2dc cd3d 04eb b6bc ecfa 313d
000003c0: 154b e03d 440f 3a3d 403a 533c 102a 89bd
000003d0: 559a 473b 34e1 4b3d 629b e43d d80d 003e
000003e0: 8d0e 1c3d 5076 4c3d 2bf9 cb3d 5bab a43d
000003f0: 7961 6dbd 60f1 07bd 1032 223d 53c4 ce3b
-0.047234166 0.05965461 -0.015640851 0.05984864 0.005406222 -0.0028317124 -0.08983247 0.035366803
0.11139831 -0.006071611 0.030033933 0.085587606 -0.0786228 -0.038385592 0.047932506 0.045360345
-0.0022358403 -0.015446633 -0.012754251 0.06507387 0.07558509 -0.010593918 -0.033381425 0.013064458
-0.022536816 -0.015489059 0.042092156 -0.0031900092 0.06625521 -0.07371925 0.012563647 0.07222572
0.063051425 0.07695807 -0.029677372 -0.0181348 -0.10388158 0.1115232 0.123517595 0.050250586
-0.013583512 0.0066518662 -0.06311523 0.109582 0.09085491 -0.07243715 0.08852484 -0.056729715
-0.097932175 -0.085074484 0.08946874 0.092579484 -0.0066394545 0.11074731 0.07250172 0.10258871
0.031347748 0.04276833 0.039790265 0.07846742 0.037105896 0.002371831 0.10237927 -0.07907093
0.07592134 0.017929697 0.039888088 0.05878556 -0.060942117 -0.057383437 -0.03644275 0.029302236
-0.09822367 0.019113777 0.08276322 -0.09081049 -0.015727654 -0.012246546 0.013323022 -0.0010849591
-0.0042980188 -0.059973367 0.103281036 0.07094133 0.089219816 0.08081312 -0.07219089 -0.029844567
-0.0678398 0.059920404 -0.0013173003 0.09272606 0.026916511 -0.0021418047 0.0083598085 0.057243932
-0.056408916 0.07689549 0.035169583 -0.047846492 -0.012845442 0.06454368 0.10100221 0.09017465
-0.08383972 -0.09775063 0.055875216 0.025372073 0.0997716 -0.08794007 -0.076537 -0.011189537
-0.032833643 0.0670429 -0.10507664 0.05336648 0.027820166 0.0559102 -0.005575898 0.027752796
-0.05311171 -0.032157827 0.07465993 -0.058074184 0.12668887 -0.08004288 0.04390701 -0.03747003
0.03994129 -0.08619379 0.07569246 -0.06334713 -0.08736486 -0.0016622934 -0.07802679 0.083791
-0.07633966 0.081366956 0.038913015 0.057534944 -0.027204415 -0.03981991 -0.034045264 0.064527184
-0.032583002 -0.011020344 0.058703642 0.052784313 0.10671599 -0.0793377 0.041344058 -0.05396565
-0.03728205 -0.058902424 -0.0048860116 -0.048431017 -0.052664183 0.026034744 -0.05831063 -0.09873373
0.06044525 -0.07058915 0.04141955 -0.1162983 -0.024239372 -0.1002279 -0.071784124 -0.085743956
-0.0068888227 -0.12321852 -0.053458054 0.054095488 0.11211676 0.115907945 0.055997826 -0.06830314
0.10298258 0.08984091 -0.06488941 0.10881313 -0.101043254 0.04091109 -0.058658063 0.08642829
0.10661349 -0.10574089 -0.0707969 -0.02025847 -0.07739422 -0.05912486 -0.07527423 0.045196194
-0.0583576 -0.09832862 -0.068702415 0.061374836 0.024185767 0.08580688 0.018497095 0.027313957
0.045818333 0.08077221 0.07210193 0.07452724 -0.09666516 -0.041434236 -0.0124457 0.00075398036
-0.10523636 0.10696889 -0.09058176 0.053934157 -0.042170085 0.07917618 -0.11055603 0.074371785
-0.0569557 0.09856006 0.013104774 0.050640564 -0.013831701 -0.028393906 0.007706447 0.09480434
0.0556231 0.05154669 0.040770803 -0.10913096 0.053540006 -0.08671453 -0.050626747 -0.0075847595
0.05256222 -0.107223555 0.017882815 0.09056767 -0.0032319787 0.1005186 -0.022328861 0.04345219
0.10951821 0.045424715 0.012892306 -0.06697476 0.003045698 0.049775317 0.111624494 0.12505281
0.038099814 0.04991752 0.099596344 0.08040496 -0.057954285 -0.033189178 0.039598525 0.0063100248

sf_fc2.bias f4 [256]
00000000: c97f 3bbc 9219 563c 29e8 0cbc 3d78 85bc
00000010: 9094 923c b838 76bc a69a a73b fe20 173c
00000020: 62cb 393c f649 e53c a9ae 5f3c 705a 223c
00000030: 8080 35bc 6ca0 4d3b 5702 013c ec67 a1bc
00000040: ee81 ab3a 24c5 c63b 5041 54bc b8b6 3dbc
00000050: 8915 963c 012a 0abc 8193 c03b 3a85 a43c
00000060: 4550 0c3c 6676 303b 6df9 95bc ca83 48bb
00000070: ffdd 3a3d 4b6c e23b 3ad5 a73a f203 25bc
00000080: 4989 153c adb1 10bc e855 ca3b a59a cf3c
00000090: e040 bc3a 833c 25bc 6341 853c 8549 39bb
000000a0: 4d7b 70bc b824 ecbb fe7b b7bb e02b 093d
000000b0: 000c cd3c 8849 d13c aac7 ecb9 b47d d33b
000000c0: aeee 623c 1cd7 a83c 607b 3fbc 6760 52bb
000000d0: be4d 073b 47f3 593c ecbc 7bbc cd99 55bc
000000e0: 0a77 aa3c f54e c53c 5db3 92bb 330c 29bd
000000f0: c498 2eba eed8 2dbc 26ae 51bc cc58 803c
00000100: e95e bd3c f681 ef3c 9a21 ccbb 2041 c43c
00000110: 8150 803b 3075 8d3c b34a 07bd 2c50 ea3b
00000120: e589 07bb 1396 24bb bf5b e23c 4681 933c
00000130: 2712 e03c 0c67 e13c 1c88 fe3b 87be be3c
00000140: 9fa3 22bd 717f 0abc 559c d93c 6e4b a6ba
00000150: 10ff 063c 3673 5fbb 15c3 843c 40a7 7d3b
00000160: 83b1 463c 3802 cdbb a4e5 773b 5adf 22bc
00000170: 5b23 1abb ef24 de3c db91 023d 44f3 fabb
00000180: e926 103d 03d7 e03c bca2 3cbc 8e42 8ebb
00000190: 773f 463b 075f 923a fc4c d83c c0b6 bfba
000001a0: 897d 783c 75f5 fb3a 4a48 a2bc 0843 963c
000001b0: 89d5 30bb afbc c4bb 0c9c 20bc 3204 6c3c
000001c0: da6f cc3b 34d6 37bc 4970 d93c 2964 cc3b
000001d0: dbaf a9ba 7a40 d93c b08c 8e3c d751 68bc
000001e0: c329 f33c a593 903c fe9a c53c 7e2a b33b
000001f0: 5393 3c3b 8076 e1bc d458 883c bd5f 45bc
00000200: 0466 adbc 0565 0f3b eda1 ce3c 63fd 1bbc
00000210: ac91 703b a9fe 993b 495e f0bb 4867 a83c
00000220: a130 6e3c c19e 63bc 7583 953b 05fe edb8
00000230: 9160 2c3b eb58 553c cf60 d23c 9d88 b9bc
00000240: 2746 8ebc fb9d a63b 1fe7 293c f5d6 d1bc
00000250: ed08 8a3c 7a1b f23c 70a5 47bc e5da 693c
00000260: d987 9bbb ce6b 373c 8cf8 ac3b 9622 c93b
00000270: b425 e5bc da52 cc3c 157e 82bc 4e5b 0fbc
00000280: 61f3 5bba 14d4 e33b 148b 073d 4461 073c
00000290: 7e46 4dbb f2d2 57bb 42c2 553c 5abd 0fbc
000002a0: 9ac4 98bc 2a89 7a3c 08c2 43bc 475c 05bc
000002b0: 6990 ccbb d88b 753b f41b eabb 4698 a03c
000002c0: 6d56 873b d648 f73b 8234 4eba 71bc 233c
000002d0: 2ae1 763c 9f20 e93b 1dc1 de3c 6ba7 c23c
000002e0: d7e3 36bb 1545 e23b 60de 983c 0789 073c
000002f0: e538 45bc 7203 08bd 55ff 963b b30e 87bc
00000300: 2996 13bc e095 4fbc 5b5b a43c 75c6 31ba
00000310: 4eb5 6f3c cdac f43c 4a4f 98bc f7c5 b83a
00000320: 1427 ebbc a34e b73c d8d3 593c bacb 9a3c
00000330: 3587 a5bb 8b0e 32bb 3121 da3c ec31 b73c
00000340: a7f7 ec3b bb76 b33b 6b77 3b3c 3345 8abc
00000350: 3e0a 3abb 83f4 b53c 28b5 57bc 09c1 2fbc
00000360: 349a e5bb 700a 523c f34d a83c 439c 8fbc
00000370: cb34 873c 7550 953c 5b34 f33c c837 553b
00000380: 5eeb 083d 2bd9 123d 55c8 953c 6513 8bbc
00000390: db8b 3dbc 1b42 033c eec0 8d3b 122f 69bc
000003a0: 7e00 a73c 1e65 993c 7198 27bc 881f ef3c
000003b0: 6059 d3bb e584 093c 16ab 213c a675 9a3b
000003c0: 4cdc 1ebc 26c1 f8ba c35c 0d3c 7991 02ba
000003d0: adab 143b 4fb9 6cbc e3d9 2e3c ddec eb3b
000003e0: edbe f1bb c86a 993c bfb5 c33c 3e7f a03c
000003f0: a1ff 86bb a74e 8b3c 62a6 9d3c c21b 47bc
-0.011444041 0.01306762 -0.008600273 -0.016292686 0.017893106 -0.015028171 0.005114871 0.009224175
0.011339994 0.027989369 0.013652482 0.009909257 -0.011078 0.0031376136 0.007874093 -0.019702874
0.0013084987 0.0060659815 -0.012955025 -0.011579208 0.018320816 -0.008432866 0.005876959 0.020083059
0.00856406 0.002692604 -0.018307412 -0.003059613 0.04562187 0.006909882 0.0012804635 -0.010071741
0.00912697 -0.008831424 0.0061747916 0.025342295 0.0014362596 -0.010085228 0.01626653 -0.002827258
-0.014677835 -0.0072065257 -0.005599498 0.033489108 0.025030136 0.025547758 -0.0004516219 0.006454194
0.013850851 0.020610385 -0.01168713 -0.0032100917 0.0020645703 0.013302631 -0.015364867 -0.013037157
0.020808715 0.024085501 -0.004476948 -0.0412714 -0.0006660337 -0.010610802 -0.012797868 0.015667342
0.023116546 0.029236775 -0.0062295916 0.023956835 0.003915847 0.017267793 -0.033030223 0.0071506705
-0.0020681557 -0.0025113865 0.027631639 0.018005978 0.027352406 0.027514957 0.0077676903 0.02328421
-0.039706822 -0.008453236 0.026563803 -0.0012687275 0.008239523 -0.003409577 0.016206304 0.0038704425
0.012127283 -0.006256368 0.0037826085 -0.0099409465 -0.0023519609 0.02711722 0.03187738 -0.007658394
0.035193358 0.027446276 -0.011513408 -0.00434143 0.003025023 0.0011167236 0.026403897 -0.0014626607
0.015166649 0.0019222932 -0.01980986 0.01834251 -0.0026982746 -0.006003938 -0.0098028295 0.014405297
0.0062389197 -0.011220504 0.0265428 0.006237526 -0.0012946086 0.026520003 0.01740107 -0.014179668
0.029683 0.017648527 0.024121758 0.005467712 0.0028774336 -0.027522326 0.016643919 -0.012046752
-0.021166809 0.002188028 0.025223697 -0.009520861 0.003670792 0.0046995473 -0.0073354584 0.02055706
0.014537961 -0.01389283 0.00456279 -0.000113483555 0.0026302675 0.013021688 0.025680928 -0.02264815
-0.017367436 0.0050847507 0.010370045 -0.025615195 0.01684996 0.029554117 -0.0121854395 0.01427338
-0.004746419 0.011195136 0.0052786525 0.006138156 -0.02797208 0.02494185 -0.015929261 -0.008749796
-0.00083904533 0.006952772 0.03309162 0.008262936 -0.0031322534 -0.003293213 0.013046803 -0.008773172
-0.018648434 0.0152914915 -0.011948116 -0.008139676 -0.006242801 0.0037467387 -0.0071444456 0.01960386
0.004130176 0.0075465245 -0.00078661006 0.009993658 0.015068332 0.0071144844 0.027191693 0.023761472
-0.00279068 0.006905208 0.018660724 0.008272416 -0.0120374905 -0.03320641 0.0046080747 -0.016486501
-0.009007969 -0.01267001 0.020063093 -0.00067815866 0.014630629 0.029867554 -0.018592495 0.0014097084
-0.028705157 0.022376364 0.013295136 0.018895973 -0.0050515183 -0.0027169313 0.026627155 0.022362672
0.007231671 0.0054768003 0.011442046 -0.0168787 -0.0028387452 0.022211319 -0.01316575 -0.0107271755
-0.007006908 0.012819871 0.020544982 -0.017530566 0.016504666 0.018226841 0.029688051 0.003253447
0.03342759 0.03585164 0.018284002 -0.016977021 -0.011568989 0.008011366 0.0043259775 -0.014232414
0.020385977 0.018724974 -0.010229216 0.02918984 -0.0064498633 0.008393501 0.00986745 0.004713732
-0.009696078 -0.0018978461 0.008628073 -0.00049807836 0.0022685335 -0.014448478 0.010672065 0.007199867
-0.0073774965 0.018727675 0.023890374 0.019591924 -0.004119829 0.017005278 0.019244377 -0.012152614

sf_fc3.weight f4 [4, 256]
00000000: bfae 9cbd c78e 063d 7ba7 0cbd 4882 253d
00000010: f9cf 2dbe 04a2 0c3e 1985 8fbd 0861 b9bd
00000020: b8d4 f13c 9c4b 76bd 7231 88bd f57b 51bd
00000030: 0c5e 0d3e 7eb7 47bd 313a 02be 06ba bbbd
00000040: 0b4e c53d dbd0 183d 15d2 673d e946 35be
00000050: 9f6b fb3d 4166 71bd 9ec0 02bd d494 babd
00000060: f95b ebbd 90cb d5bd d2a8 d9bd 3d0e 7abd
00000070: dfe1 04bc 7022 bcbd 1247 383d e990 c8bb
00000080: 1e5a c33c f57c f13d a52c 18be d41f 683d
00000090: 6ba1 ebbd b64c 58ba 4e46 05be 0de3 133e
000000a0: 5803 96bd 6d4d 2ebd 887b 983d 8c5d 9e3d
000000b0: 0038 183d 93a3 1c3e b952 693d d973 043e
000000c0: f3fc 0f3e a16d 033e edb8 3f3d ee0d 003e
000000d0: 3ec0 93bc ff08 50bd 899d 0a3e c7f8 b0bd
000000e0: f48a 63bd 4b0e 02be 38cf a0bd a1d7 ad3d
000000f0: 1d2a 2dbd e711 c33d f93c bfbd 802b e13c
00000100: 24f9 903d 333f 393d fb42 ba3d 8ead e1bd
00000110: a752 c33d 4ada 033e 322f 0cbe 4ef7 4a3d
00000120: 30ef 09be 14a7 cd3d 205c b0bb 80cc 5abd
00000130: 0861 103e 94f7 02be 20dd 053e cfe6 993d
00000140: 6eae f5bd da53 e1bd 9848 86bd 542c f53d
00000150: 8558 acbd f99d c8bd 06ce 023e ea6e be3d
00000160: 8a52 05be 8fb4 983d 1fa5 18be 033a d7bd
00000170: 195d 063e 0b8d c7bd 6910 bc3c a9da a93c
00000180: 0e14 25bc 23ec a33d ff72 5ebc de6f 6fbd
00000190: d9b0 edbd c6be b23d 9f31 0a3e f2ee 053d
000001a0: be09 f83b 7516 163e a05c e83d 0e9f c2bd
000001b0: 5cb8 f73a db95 95bd 5a37 32bd 3bd7 083d
000001c0: 6ffb 1bbe ee11 f0bd d152 0bbe c755 e9bd
000001d0: 7de9 a33d 50ca 6e3b 42ce bf3c 7d25 1c3d
000001e0: cde6 bd3c 818b 2a3c 2b31 f23d d2ce 87bd
000001f0: b942 a1bd b9b7 07be d1e4 a8bd 0701 01be
00000200: 6b3e fb3d 178c e7bc c652 8ebd b241 ea3d
00000210: 0477 c7bd 5b89 02bc 4828 76bc 8935 0d3e
00000220: dd4f 70bd 2c44 053e 264d b6bd 1fd0 8cbc
00000230: 4d17 e13c 2d49 91bc 7507 333d 560c 633d
00000240: f3e5 1c3d 7509 223e ca93 4ebd e188 d03d
00000250: 49f1 f5bd 90ef ae3d a0e5 d8bd 99b9 c3bd
00000260: 86dd 1a3e c9d0 1abe afc1 99bd 0bef b83d
00000270: 5153 92bc 1dad eebc bdfd c43d 668f 363d
00000280: 9abd 133e dfbf e5bd dd7b c9bd f418 863c
00000290: 8b33 a23d 6448 2d3e 582e f23d 35a2 e63d
000002a0: 2419 b8bd 5607 393d 6bc7 103d 17f7 eabd
000002b0: f870 03bb 0474 07bd 423f d9bd 76c9 d9bc
000002c0: bae0 1d3e 944a e5bd 0faf 053e 7d84 1dbd
000002d0: 3c8a 1bbe a3cc 73bd 7dff 83bc 9c7f e0bd
000002e0: 2bf9 91bd 3acc 773d 8dec d93b 75c4 e5bd
000002f0: a26a 033e 79ab cd3d 60d3 1cbe 44ff 24bd
00000300: 248a 04be 0efa 1dbe 93d2 153d bafd 20be
00000310: f2ca 703d a8a1 233e 6920 9bbd e0a2 febd
00000320: fe66 78bd 2f19 8fbd c066 da3d 18da 9ebd
00000330: 59b2 96bd 8853 963d b61b f2bc 7dbd b43c
00000340: 18b3 c2bd ecc9 07be ab71 2cbd 464a a8bc
00000350: 2f14 bf3c aa0b 5fbd c68e 1e3d 5543 fb3d
00000360: 28c2 2b3e cefe 213c ed7a a43c 8658 b9bc
00000370: 7f39 b23d d205 893c efd2 1cbd 99e1 c63d
00000380: b34b 3abc 8467 bb3c fcd9 0fbe b65f eb3b
00000390: f694 3cbd 5f23 3c3d bcd7 c4bc 96f1 a53c
000003a0: 380b 2a3e 0848 77bd f85e d03d 8cd0 b63d
000003b0: 6e55 dd3b 7950 f13d cebc 81bd de3a ffbd
000003c0: bfe1 eebd a088 e33d f3f2 41bd 213a d8bd
000003d0: 411b 46bd b8ef 94bd de5d a5bd f8a1 0dbe
000003e0: 42e9 9a3d 6b66 e73c b653 073e 3d93 013e
000003f0: b18e 613d 84ce 483d a1b5 a3bc 5db7 8d3d
-0.07650518 0.032851007 -0.03433941 0.04040745 -0.16973867 0.13733679 -0.07007808 -0.0905171
0.029520378 -0.0601307 -0.06650056 -0.051143605 0.13805407 -0.048758976 -0.12717511 -0.091663405
0.09634026 0.037308555 0.056596834 -0.17702831 0.122763865 -0.058935408 -0.031921975 -0.09110418
-0.11492152 -0.10439217 -0.10627903 -0.061048735 -0.0081104925 -0.09186256 0.044989653 -0.0061207903
0.023846682 0.11791412 -0.1486078 0.05667098 -0.115053974 -0.0008251177 -0.130151 0.14442082
-0.073248565 -0.042554308 0.07445437 0.077326864 0.03716278 0.15296774 0.056963656 0.12934817
0.14061336 0.12834789 0.04680722 0.12505314 -0.018036004 -0.05078983 0.13536657 -0.086412005
-0.055552438 -0.12700765 -0.07852024 0.084883936 -0.04227649 0.09524899 -0.093378015 0.027486563
0.0707877 0.045226287 0.09094807 -0.11019431 0.09537249 0.1287624 -0.13689879 0.049552254
-0.13470149 0.10041633 -0.005382076 -0.053417683 0.14099514 -0.12789756 0.13072634 0.07514726
-0.119961604 -0.110023215 -0.06556815 0.119713455 -0.08415321 -0.09795756 0.12773904 0.09298499
-0.13019767 0.07456314 -0.14906739 -0.10509112 0.13121451 -0.09743699 0.022957044 0.020734148
-0.010075582 0.08004024 -0.013577222 -0.058456294 -0.11605997 0.087277934 0.13495491 0.03269858
0.0075695207 0.14657004 0.11345792 -0.095029935 0.0018899548 -0.07303973 -0.04350982 0.033408385
-0.15232633 -0.1172217 -0.1360581 -0.11393314 0.08003519 0.0036436506 0.023413781 0.03812169
0.023181343 0.010409237 0.11825784 -0.06631245 -0.078740545 -0.13253678 -0.08246768 -0.12598048
0.12267765 -0.028265042 -0.069493815 0.11438312 -0.09739497 -0.007967318 -0.015024252 0.13789953
-0.058669914 0.13014287 -0.08901434 -0.017189084 0.027476931 -0.017735088 0.043708283 0.055431686
0.038305234 0.1582392 -0.05043391 0.101823576 -0.12008912 0.08541787 -0.105906725 -0.09556884
0.15123567 -0.15118708 -0.07507645 0.09029969 -0.017861994 -0.029135281 0.09618709 0.04457035
0.14427796 -0.11218237 -0.09838078 0.01636932 0.07919987 0.16922146 0.118252456 0.11261407
-0.0898917 0.04517301 0.03534643 -0.1147291 -0.0020056348 -0.033069625 -0.106077686 -0.026585322
0.15417758 -0.11195865 0.13055061 -0.03845643 -0.15189451 -0.05952133 -0.016113037 -0.109618396
-0.07127603 0.0604975 0.0066505135 -0.11219112 0.12833646 0.100424714 -0.15315008 -0.040282503
-0.12943321 -0.1542742 0.036577772 -0.15721789 0.058787294 0.15979636 -0.07574541 -0.1243341
-0.060645096 -0.06987225 0.10664129 -0.07756442 -0.07358236 0.07340151 -0.02955423 0.022063011
-0.09506816 -0.13260621 -0.04210059 -0.020543229 0.023325054 -0.054454483 0.038710378 0.12268702
0.16773283 0.00988741 0.020078147 -0.02262522 0.08702373 0.016726408 -0.0382871 0.09710998
-0.011370587 0.022876509 -0.14047998 0.0071830405 -0.046040498 0.04593217 -0.024028651 0.020256799
0.16605842 -0.06037143 0.10174364 0.08926496 0.006754569 0.11782927 -0.0633484 -0.124624
-0.116641514 0.111100435 -0.047350835 -0.10557962 -0.048365835 -0.07272285 -0.08074544 -0.13831317
0.07564022 0.028247079 0.13215527 0.12653823 0.05506772 0.049025074 -0.019984068 0.069197394

sf_fc3.bias f4 [4]
00000000: 29de dcb9 aeb8 b0bc b569 113b 2205 8d3c
-0.00042127192 -0.021572437 0.002218825 0.017214362
