results/cartpole/bicogan/20251207-223241/D.pt (torch, 408377 bytes, 7 tensors)

fc1.weight f4 [256, 9]
00000000: 5cac af3d 509b 2abc 8e4b 903d 4c2c aebd
00000010: a9fa 12be f057 b7bd 3ae2 693b cfca 473d
00000020: ffe7 0f3e 837a 00be 8205 96bc 1410 e7ba
00000030: 07d4 edbd 482a 3b3d 3008 853c 8f4b 84bd
00000040: 6841 7a3d a3f5 3fbd a367 72bd 5ef6 0fbe
00000050: 05f6 a1bd e3bc 49bd 57ed febd dad5 133e
00000060: d5ac ebbd 3d77 0d3e dbd7 a0bd 4d12 6b3d
00000070: b7c7 1dbc 31e2 263e 69c7 8abd bb34 003e
00000080: 5ece 3c3d d20b c5bd 9f06 febd 77d7 b6bd
00000090: be24 0a3c 78aa c3bd 9952 473b f6b0 e3bd
000000a0: a5d2 b1bd 93a0 b63b bdb5 73bb 3b74 c33d
000000b0: f176 95bd 4dbb ac3d 274e a33d 8482 0b3e
000000c0: 9e14 f03c 43e7 8dbd ac72 03bd 51de c63c
000000d0: dfa2 193e ef17 53bd 8984 7cbd 760d 2c3d
000000e0: 7401 cf3b 379c f7bd b572 38bd 5b9e e9bd
000000f0: 3795 8f3d af9d 60bc 93c6 96bd b4dd f23d
00000100: 9ba1 7e3d 7d14 f6bd 57cc 7638 6752 d73d
00000110: dc8a 5bbd 0dd1 0e3e b499 66bd ac9a f63d
00000120: 430b b7bc 5efc 2c3d 6b04 cf3d 35a6 ab3d
00000130: 7a3e d83d 403c e4bd 40dd d53c e29e 2139
00000140: 68d2 e23c b75f 143e 4cb2 c4bd 20bf 183e
00000150: 0bfb 893d b129 853d 677d eebd 8a6c 91bc
00000160: de59 ffbb 8da1 d3bc e406 d93c b6a0 cf3d
00000170: bbf2 d7bd 2038 b83d 5560 f63c 3b9e 25bc
00000180: b343 84bd 222a 39bd 07e0 09be 3fb5 10be
00000190: ed2e 603d 1bea 3f3d ceb7 ea3d 147c 86bc
000001a0: acd0 1abd 660e 54bd 1919 ddbd f86f 72bd
000001b0: 3b50 7f3c e4a1 f3bd 1b3b 09be cbbb b93d
000001c0: c9f4 a8bd e56c 953d 175f 023e d0d8 d23a
000001d0: 0be2 b9bd 8699 313e ef45 123e 74b1 603d
000001e0: 4609 873d 67cd a0bd 2d61 dfbc e524 bd3d
000001f0: db9a cdbd a0da 073e 55f4 b03d ae2f dcbd
00000200: cd20 7bbd b92e 10be 61c3 533a 4065 203c
00000210: 1a94 223e 98fc 823d e722 053e 8a27 8a3b
00000220: 6988 2b3d 221d acbd 42bf 233d 74f5 0cbc
00000230: 504f 72bd c510 8f3d 9950 0f3e df94 b1bd
00000240: 631b 973d 85f0 603d 46df dd3d a122 403d
00000250: 68db 143d 338c 473d 7f86 9d3d 40f1 09be
00000260: 0f4e 02bd f4e8 28bd 7acf ba3c 4c8f d1bd
00000270: 615c de3d 5966 e7bc 155f 56bd c7c9 bdbd
00000280: 613d b8bc 644b ff3d d44f 583d 2153 b0bd
00000290: f3c8 533d 4eca a53d c563 973d 3204 f1bc
000002a0: 8db0 9abd 3afe ef3d 110a 053e e13a e13d
000002b0: 2281 823d 0944 88bc 9b9d e9bd adbc 073e
000002c0: 4a09 b03d 19b8 60bd c74c 0fbe ffe1 403c
000002d0: fc78 f3bd de00 62bd e568 b83d c1f7 65bc
000002e0: df0b 073e f4b4 063e 8cba babd 74de 043e
000002f0: eea0 0cbc ad67 89bd 5a5d 9bbd e192 e8bd
00000300: 0280 febc a454 173d c498 833d 4b3d d1bd
00000310: d8ca dcbd 6f69 ddbd d735 2f3d e40d 06be
00000320: 183c 67bd 0d80 cc3d f2f0 563c 554a e4bd
00000330: a00b 46bd 9b82 983d 2c40 69bd fc91 babd
00000340: b67d 15be 1e3f b03d 29d8 febd 4dfa 5e3d
00000350: 364f c33d 8492 ad3d b5d2 7abd bcc7 253d
00000360: f00d e0bc bd09 fa3d 5614 ec3d 63c3 8fbd
00000370: 4613 ae3d 0a93 773d c665 0ebd 1626 6ebd
00000380: ec9c 173e 303e 1c3e 675b 7d3d f06e 34bd
00000390: 531c ef3c 39c1 913d 9e7e e5bd 9517 d2bd
000003a0: ec44 193c 3f9e 003d 26d8 bd3d e803 d1bd
000003b0: 92bb af3d 2ab6 60bd c3bb 23bd e077 debd
000003c0: f429 e63d 46ad 9e3d 4232 843d e9e6 d4bd
000003d0: 2852 08be b6ee 0bbe badf dbbd 6fad 9bbd
000003e0: 4089 843d 758f 903d 4d14 76bc 819d f4bd
000003f0: 26f9 1b3d f6a8 c13d 9289 ddbd 2686 08bd
0.08577797 -0.010413006 0.07045661 -0.08504543 -0.14353432 -0.089523196 0.003568782 0.048777398
0.14053343 -0.12546735 -0.018313173 -0.0017628693 -0.11612707 0.04569462 0.016239256 -0.06459724
0.061097533 -0.046865117 -0.059180867 -0.14058825 -0.079082526 -0.049252402 -0.12447613 0.14437047
-0.115075745 0.13815017 -0.07853671 0.0573905 -0.009630135 0.16297223 -0.06776316 0.12520115
0.046095245 -0.09621395 -0.124036066 -0.089278154 0.008431612 -0.09553999 0.0030414222 -0.11117737
-0.086827554 0.005573341 -0.0037187182 0.095436536 -0.07298077 0.08434162 0.07973891 0.13624007
0.029306706 -0.06928875 -0.03209178 0.02427593 0.15003537 -0.051536497 -0.061649833 0.042005025
0.006317312 -0.120903425 -0.04503127 -0.11407157 0.07010882 -0.01370947 -0.07362094 0.11858693
0.062165838 -0.120156266 5.8841277e-05 0.10513764 -0.053599223 0.13946934 -0.056298926 0.1204122
-0.022344237 0.042232864 0.101082645 0.08381311 0.105587915 -0.11144304 0.026106477 0.00015413345
0.02768822 0.14489637 -0.0960432 0.14916658 0.06737336 0.06502093 -0.11645012 -0.01775195
-0.0077926954 -0.02583387 0.026492544 0.10138075 -0.10544344 0.0899508 0.030075232 -0.010108526
-0.06458225 -0.045206197 -0.13464366 -0.1413164 0.054732252 0.04685412 0.11460839 -0.016416587
-0.03779666 -0.051771544 -0.107958026 -0.059188813 0.015583093 -0.118961126 -0.13401453 0.09069022
-0.08249814 0.072961606 0.12731586 0.0016086344 -0.090763174 0.17343721 0.1428449 0.054856732
0.06593566 -0.078516774 -0.027268017 0.09235553 -0.10039302 0.13266993 0.08640353 -0.10751282
-0.06131058 -0.14080323 0.0008078125 0.009789765 0.15876809 0.06395835 0.13001595 0.004216139
0.041878138 -0.08403994 0.03997732 -0.008603442 -0.05915767 0.069856204 0.1399559 -0.08670973
0.073782705 0.054916877 0.10833602 0.046908025 0.036342055 0.04871769 0.07691669 -0.13470936
-0.031812724 -0.041237786 0.02280401 -0.1023241 0.10857464 -0.028247045 -0.05233677 -0.092670016
-0.022490205 0.124655515 0.052810505 -0.086096056 0.051705312 0.08095227 0.073920764 -0.029420946
-0.07553206 0.11718412 0.12992121 0.109975584 0.063722864 -0.016634004 -0.11407014 0.13255568
0.08595522 -0.05486307 -0.13994132 0.011772632 -0.1188831 -0.05517661 0.09004382 -0.01403612
0.13188122 0.13154966 -0.09117612 0.12975484 -0.0085832905 -0.06709228 -0.07586165 -0.1135614
-0.031066898 0.036945954 0.06425622 -0.10216769 -0.10780877 -0.108111255 0.042775955 -0.13091236
-0.056453794 0.09985361 0.013118969 -0.1114699 -0.04835093 0.07446786 -0.056945965 -0.091098756
-0.14598736 0.08605789 -0.12443573 0.054437924 0.09536593 0.08475211 -0.061236102 0.040473685
-0.027350396 0.12208889 0.11527316 -0.07019689 0.0849977 0.06044296 -0.034765027 -0.05814179
0.14805955 0.15258098 0.061854746 -0.04405111 0.02918831 0.071169324 -0.11205791 -0.10258404
0.009354811 0.031400915 0.09269743 -0.10205823 0.08580698 -0.054861225 -0.039973985 -0.10862708
0.11238471 0.07747893 0.064548984 -0.10395605 -0.1331259 -0.1366528 -0.10736032 -0.07601439
0.06471491 0.07058612 -0.0150194885 -0.11944104 0.038079403 0.09456055 -0.10817255 -0.03333106

fc1.bias f4 [256]
00000000: 3564 d4bc eb70 fbbb 2ca7 c1bb 56f3 0fbc
00000010: 8780 afbc 2ce7 663c bfa9 f13c 44b8 093c
00000020: a528 d23c 999b 56b9 0a21 c3bc 889b 58bc
00000030: 33f0 04bc d168 5b38 5406 42bc b0e1 f4bc
00000040: fa1e cb3c 33fe 123d 7806 853c 7ba7 a73c
00000050: 6554 873c dcf4 1a3c cb93 dd3c c015 f1bb
00000060: 2718 f4bc 2146 afbc 1edb 0bbd a23f df3c
00000070: b7f8 8d3c 0c72 4f3c caa5 07bd eb38 a2bc
00000080: 7723 453c eabe a33c 5a47 04bc bb8f 9f3c
00000090: 5be4 08ba 4021 d93a de3d 5abc 252f f2bc
000000a0: df60 8dbc f67c 1cbc a3ee 933c 87b4 adbc
000000b0: b846 023d b504 30bc 41e4 69bc d184 083d
000000c0: 9c39 a4bc b16b 703c 012e 123c 8329 02bb
000000d0: 1e53 4f3c 0f82 b8bc 469f 07bd 0ebb b4bc
000000e0: 204b 83ba 605c 4fbc 8528 35bc c1c7 eebb
000000f0: d30e 3dbc 56d1 df3c 0375 e5bc c795 06bd
00000100: c643 7ebc fd64 753c f5b5 28bc 1206 fcba
00000110: e06c 493b 6f62 fcbc 6fa0 9bbc f65b e4bc
00000120: 283d 553c 938a 983c 17e3 043c 1665 443c
00000130: a57f 773b e22e 6ebc f08f 4b3c ed6d e73c
00000140: d6f3 e13c c819 ea3c 9905 b9bc c9f4 e13c
00000150: 67b7 f0bc ce7f f33c 404f 70bc 6c38 c0bc
00000160: a37a 0a3d 0597 8a3c b218 113d b569 b2bc
00000170: 89d9 dcb9 711e 9fbc 9287 a8bb 3ffe dc3a
00000180: abb4 93bc 1af5 2f3c e38b 3cbc be6a 333b
00000190: 1f63 48bc 9bdc c53c 338a ca3c 9ce0 2f3c
000001a0: 30a1 fbbc bf0f 933c 0498 33b9 56f1 9b3c
000001b0: ae6b 1a3d 9398 033d a095 bfbb 61c7 643c
000001c0: bc5c e63c 3841 9dbc f3d0 96bc b7f8 9b3a
000001d0: 0b2a 2dbb c8c7 583c 9d3a ac3c 88db b1ba
000001e0: 0266 dcbc 2415 88bc 41e4 00bc 0724 f9bc
000001f0: 2871 2f3c a41d c53b aab6 103d ba26 e03c
00000200: 6750 cb3b 5b75 ad3c 56cd b03c b362 ae3b
00000210: 04a0 b33c 6a2c 6fbc 6d84 abbc d824 9cbc
00000220: 528f 21bd 721f b53c db59 c6bc 14be 313d
00000230: 2116 35bb 5795 1bba 6903 153c ceb6 a4bc
00000240: ae2c 32bc a10f 63bc a8b5 debc 0c11 4a3c
00000250: b83d e7bc 7726 9b3c a2b1 2cbb 5238 c4bc
00000260: 1e61 1c3c 7702 af3c 5647 f2bc 74f8 a0bc
00000270: 0654 c23c 6f0b f7ba 058b 45bc aaf3 703c
00000280: 5aaf 203c 7b26 0e3d 8312 99bc 9b43 813c
00000290: bf18 c2bc 1932 373c d4dd b33c 5944 59bc
000002a0: 44f3 e83c e330 a0bc bc6b 3abc bd3c d9bc
000002b0: ab14 423d 3728 233c 3b0a ddbb ee43 a03b
000002c0: 7ef6 aa3c fb44 3fbc 1df0 bebc 241d 5f3c
000002d0: 5e99 8abb bae3 a7bc a01c f4bc 6860 223d
000002e0: b064 b5bc eace f8b7 fa2e 0bbc 6269 40bc
000002f0: e035 ed3c 1b41 f5bb 1ae2 8ebc e2fb f73b
00000300: ebc2 f13c b43b e7bb f3b9 8ebc 6154 92bc
00000310: 3ecb 59bc cd38 453c cbda a53a b915 b9bc
00000320: 9386 00bc da4a 23bc c1c3 df3c 7a38 e7bc
00000330: cba2 0bbc 375b 9ebc 66fd e6bc 9901 db3b
00000340: 47e1 cdbc 9910 c73c ade8 143c 88ac d2bc
00000350: 9876 93bc a997 b2bc 26a6 cd3a ffd1 373c
00000360: b2a2 6c3c 1fad fe3b 78c2 473c 3696 b7bc
00000370: 70e1 153b f504 82bc eaad 9cbc c58a 653c
00000380: bae1 f5bc 507a 00bd 35f7 df3c 5638 5a3c
00000390: ca66 fcbb 7e3e edbc 5e2a b83c 5c5b 8b3c
000003a0: c286 55bb e691 c1bc 47fc 423c f05b f3bb
000003b0: 25b9 0c3b 0878 e4bc f3c1 36bc 04e7 843c
000003c0: 08eb 56bc 8dbc 1dbc b6ca c23c b631 8b3c
000003d0: 8e8d cc3c a735 0f3b d2a4 cebb 6c53 afbc
000003e0: dc52 2bbc 7432 c1bc 88ae d1bb 5864 ccbc
000003f0: 896c 02bd 1286 c1bb 4020 c7bc d770 663c
-0.025926689 -0.007673373 -0.005909821 -0.008786043 -0.021423591 0.014093202 0.029499887 0.008405749
0.025654146 -0.00020466595 -0.023819465 -0.013220675 -0.008113909 5.2311287e-05 -0.011842329 -0.029892772
0.024795044 0.035886955 0.016238436 0.020465603 0.016519735 0.009457793 0.027048012 -0.007357329
-0.029796673 -0.021395745 -0.034144513 0.027252022 0.01733051 0.012661468 -0.033117093 -0.019802531
0.012032381 0.019988496 -0.008073652 0.019477716 -0.0005222016 0.0016565695 -0.013320414 -0.029563496
-0.017258106 -0.009551277 0.018058127 -0.021204246 0.031805724 -0.01074331 -0.014275611 0.03332979
-0.020047002 0.014674113 0.008922101 -0.0019861169 0.012654094 -0.022522954 -0.03311088 -0.02206185
-0.0010016896 -0.012656301 -0.011057024 -0.007286996 -0.011539179 0.027321499 -0.028009897 -0.032857683
-0.015519088 0.014977691 -0.010297288 -0.0019227883 0.003073506 -0.030808656 -0.0189974 -0.027875882
0.013015069 0.018620765 0.008110783 0.011986991 0.003776529 -0.014537545 0.012424454 0.028250659
0.02758209 0.028576747 -0.022585677 0.027582543 -0.029384328 0.029724028 -0.014667332 -0.023464404
0.03380836 0.016917715 0.035423942 -0.02177892 -0.00042123746 -0.019423695 -0.0051431144 0.0016860439
-0.018030485 0.010739589 -0.011507961 0.0027376856 -0.012230664 0.024153044 0.024724102 0.010734703
-0.030716509 0.017951844 -0.000171274 0.019035976 0.037700348 0.032127928 -0.005846694 0.013963551
0.028120391 -0.019196138 -0.018410182 0.0011899684 -0.0026422765 0.013231225 0.021024043 -0.0013569454
-0.02690411 -0.016611643 -0.00786692 -0.030412687 0.010708131 0.0060154963 0.035330452 0.027362216
0.006204653 0.021174124 0.021582287 0.0053218245 0.021926887 -0.0145979915 -0.020937169 -0.019060537
-0.03944332 0.02210972 -0.024212768 0.043394163 -0.0027631598 -0.0005935034 0.009095051 -0.0201067
-0.01087491 -0.013858707 -0.02718623 0.012333166 -0.028227672 0.01893924 -0.0026350995 -0.023952637
0.009544639 0.02136348 -0.029575031 -0.019649722 0.023721706 -0.0018848012 -0.012057071 0.014706532
0.009807432 0.034704667 -0.018685585 0.015779307 -0.02369344 0.011181378 0.021956362 -0.013260924
0.02843631 -0.019554561 -0.011378225 -0.02651822 0.04738299 0.009958318 -0.0067456043 0.0048909103
0.02086949 -0.011674161 -0.023307854 0.0136177875 -0.0042297086 -0.02049433 -0.029798806 0.03964272
-0.022142738 -2.9660256e-05 -0.008495087 -0.011743875 0.028956354 -0.007484568 -0.017441798 0.0075678686
0.02951189 -0.0070566777 -0.017422652 -0.0178625 -0.013293086 0.012037468 0.0012653706 -0.022593366
-0.007844585 -0.0099665765 0.027315022 -0.028225172 -0.0085227 -0.019330604 -0.028197002 0.00668354
-0.025131835 0.024299907 0.009088677 -0.025717035 -0.018000886 -0.021800833 0.0015689775 0.011219501
0.014443086 0.0077721025 0.012192361 -0.022410493 0.0022869967 -0.015871504 -0.019125897 0.014010136
-0.030014861 -0.031366646 0.027339557 0.013319096 -0.007702683 -0.028960463 0.02248114 0.017011337
-0.0032581543 -0.02362914 0.011900968 -0.0074267313 0.002147266 -0.027889267 -0.01115464 0.016223438
-0.013117559 -0.009627474 0.0237783 0.016991477 0.024969842 0.0021852048 -0.006306269 -0.021402083
-0.010456767 -0.023583628 -0.0063989796 -0.024950191 -0.03184179 -0.005905875 -0.02430737 0.014064989

fc2.weight f4 [256, 256]
00000000: cb21 80bc d51a 43bd 4e88 3bbc d66d 0b3d
00000010: 977d e4bb 6152 843d cdaf ce3d 1ebf 2f3d
00000020: 6d3d c63b eff8 b4bd 5aff 1dbd 83f7 8a3d
00000030: 4c9b ab3d fea5 7e3d 7b2a bb3d 8971 87bd
00000040: 22a7 13ba a1a9 b7bd 785a 183d d242 afbd
00000050: 7fb1 4d3d 49f1 92bd dd6e 7ebd cc9b febc
00000060: 0f42 223c e2fe 873d 37b7 993c dedd 823d
00000070: 3c4a a2bd cc0a f0bb bc5e fd3d af0d 463d
00000080: 123c a0bd c42f cc3c 08cf 383d b043 ae3c
00000090: de3d 313d cab7 c03d de13 033d 3704 8f3d
000000a0: f308 73bd ae75 973d 072a 57bd 07cd 353d
000000b0: 48dc 63bc c2f1 d3bd ca97 b4bd 079a 99ba
000000c0: 23aa 42bd df06 2bbd a993 503b 3251 9f3c
000000d0: 13a0 333d 908b 6fbd e5c7 e03d 0f62 253c
000000e0: a2e0 983d 5275 04bc f28e 4abd 49aa 173c
000000f0: 0721 b2bd b88b a73d 23fe 5dbc bdf3 b3bc
00000100: 9e1a 0d3d 6e25 60bd 86aa 94bd be6d 9f3c
00000110: 53ed f2bc 55dc 30bd b7b0 f1bc 8c6b ec3c
00000120: 3b39 d93c 852d df3d 30d2 01bc 1df2 0b3e
00000130: 5e88 2ebc ba05 d63b 7020 cbbc 0551 6c3d
00000140: a675 6f3d b391 5cbd e630 b9bd 481b f8bc
00000150: 7903 933d 9a38 adbd 5a89 773d 592a 5e3d
00000160: a6dc 553c 207f 963d 7e79 033c c20d acbc
00000170: 1b93 dcbc a4fa b53b 22e0 2dbc b58a 82bd
00000180: f486 ecbc f1eb b6bd c0ea f03c 08e0 2d3a
00000190: f1c4 c13c 9bcf 10bd ec26 36bd 34ec c53d
000001a0: 59f7 62bd 65aa ebbd ee88 953d 438b abbc
000001b0: 4605 36bd 1d2b c4bd 5656 79bd 56b0 8b3d
000001c0: 053c a43d ff3b 563d f808 ccbb 5cb1 b13d
000001d0: 8396 b9bd b233 b3bc 70ff e33d c3c5 b4bd
000001e0: 459d aebd b361 a9bd 5a76 bfbd feac 283d
000001f0: 1c11 c6bd 6b3e b7bd b310 a7bd e9af 06bd
00000200: 58fa 27bd d59a adbd 2752 35bd 1993 33bd
00000210: b5a9 c93b f543 d23d b3dc 33bd e69d 82bd
00000220: 20d2 4b3d c396 02bc 5876 b5bc 298a 863d
00000230: cb8f 043d fde1 a63a 72f8 32bc 410f b63c
00000240: 902e ea3c c8f9 ea3d 39b3 bbbd 0399 a3bd
00000250: 3ddd ad3d 86c5 8c3c 8eb4 83bd 7526 fa3a
00000260: c94b 933d 85bc 99bd a7c1 c73d c377 9e3d
00000270: 1533 833c fa06 8a3d dc52 16bb 31e3 a4bc
00000280: 146d 8f3d 118d 963c 77a6 88bc 8403 5f3d
00000290: 6f86 ee3d aa1b c93d 96ee f0bc e8d6 543d
000002a0: 0401 953d b04e bebd 7051 863d 0004 6c3d
000002b0: a289 e8bd 6527 063e c12c 95bd d5bd 7fbd
000002c0: 890c 5d3b 940d db3a f7e2 41bc b987 2d3c
000002d0: eca0 823c 889b 81bd 0028 a4bd ef2d 26bd
000002e0: 874e 88bd c7fb a43b 499c 22bd ddf6 cd3c
000002f0: ab4c 25bd 591f 05bd fdf9 493d 9b58 67bd
00000300: 46b9 c93c 2ecf 0a3e 1309 73bd 68a8 b9bd
00000310: 584a ab3d 2ee4 a73d cd08 3b3d 37e0 58bd
00000320: 9921 71bc e726 bb3d 70b4 ad3c 94c6 d53c
00000330: 1499 10bd 082c fcbc a22e 87bd aafd 48bd
00000340: c691 aa3d 0eb8 d23c e542 9e3d 83ce c7bd
00000350: a76b d23c 7803 8f3d f005 02be 268f a8bd
00000360: 2a95 0e3d b4bb 42bd 3ce2 a03c 24bf d33d
00000370: b886 b3bd 431d 3dbd 3e00 243d 6e22 89bc
00000380: 3b73 4fbd efde 0f3d 950e 29bd 10c8 fabb
00000390: cf66 16bd 55d8 ba3d fdff 86bd b81a 56bd
000003a0: 8f60 b93d 6cd6 88b7 3d28 473d db25 a53d
000003b0: 4ce2 8dbc f063 ac3d 0de3 193d 3bae 763d
000003c0: 3c6d b93d 3ea4 d1bc a58b b2bd df1d 393d
000003d0: 7da1 adbd 2a35 813d 532e ae3d 070b 2ebc
000003e0: 90b7 bebd b053 933d daaf 2c3d 4811 bebd
000003f0: 5508 d43d 420e 8b3d b783 d23d c9cb fb3c
-0.015641114 -0.04763301 -0.011446072 0.034040295 -0.0069729793 0.06461025 0.10092125 0.042906873
0.006049803 -0.08836543 -0.0385736 0.0678549 0.0837923 0.06217002 0.09138962 -0.06613452
-0.000563251 -0.08967901 0.037195653 -0.08557667 0.0502181 -0.07174928 -0.062117446 -0.03108015
0.009903445 0.06640412 0.018764121 0.06389974 -0.07924315 -0.007325506 0.12371585 0.048352893
-0.078239575 0.02492512 0.045119315 0.02127251 0.04327189 0.09410055 0.03200137 0.06983226
-0.059334707 0.073954925 -0.052530315 0.044384982 -0.0139075 -0.10348846 -0.08818014 -0.0011718877
-0.047525536 -0.0417546 0.0031826294 0.019447897 0.04385383 -0.058482707 0.10975627 0.01009418
0.0746472 -0.008084612 -0.04945273 0.009256908 -0.08697706 0.08180946 -0.01354936 -0.02196681
0.034449212 -0.054723196 -0.07259087 0.019461509 -0.02965418 -0.043178875 -0.02950321 0.028859876
0.026516547 0.10897354 -0.007923648 0.13666578 -0.01065263 0.0065314444 -0.02479574 0.057694454
0.058461808 -0.053849887 -0.0904253 -0.030286446 0.07178397 -0.084580615 0.060433723 0.054239605
0.013053095 0.07348466 0.008024571 -0.021002654 -0.026925614 0.0055535603 -0.010612519 -0.063741125
-0.028872944 -0.08931721 0.029408813 0.00066328095 0.02365348 -0.035354238 -0.044470713 0.09664193
-0.05541167 -0.115071096 0.07301508 -0.020940429 -0.044438623 -0.09578536 -0.060873352 0.06820743
0.0801926 0.05230331 -0.006226655 0.08676407 -0.09061911 -0.021875236 0.11132705 -0.088267826
-0.085260905 -0.08270588 -0.09348746 0.041180603 -0.09671232 -0.08947452 -0.08157482 -0.032882605
-0.04101023 -0.084767975 -0.0442678 -0.043841455 0.006154264 0.10266868 -0.043911647 -0.06377773
0.049760938 -0.007970515 -0.022151157 0.06569321 0.032363694 0.0012732145 -0.010923492 0.02222407
0.028586656 0.11473423 -0.091650434 -0.07988169 0.084894635 0.01718403 -0.064309224 0.0019084947
0.07192189 -0.0750666 0.09753733 0.077376865 0.016015569 0.06739612 -0.0022937572 -0.020127865
0.07003227 0.018377813 -0.01668094 0.054446712 0.11646735 0.098197296 -0.029410642 0.051962763
0.07275584 -0.09292352 0.06558502 0.057621002 -0.113543764 0.13100965 -0.07283927 -0.062436897
0.0033729395 0.0016712421 -0.011833898 0.010591441 0.015945874 -0.06328493 -0.08015442 -0.04057115
-0.06655603 0.005034897 -0.039699826 0.025142128 -0.04035632 -0.0325006 0.049310673 -0.056480985
0.024624478 0.13555595 -0.059334826 -0.09065324 0.08363789 0.08197819 0.04566269 -0.052948203
-0.014717483 0.091382794 0.021204203 0.026095666 -0.035302237 -0.030782714 -0.066006914 -0.049070038
0.08328585 0.02572253 0.07727603 -0.09756186 0.025686098 0.069830835 -0.12697577 -0.082304284
0.034810223 -0.04754229 0.019639127 0.103391916 -0.0876593 -0.046170484 0.040039293 -0.01674005
-0.050647 0.035124715 -0.041273672 -0.007653244 -0.03671914 0.09123293 -0.06591795 -0.052271575
0.0905162 -1.6312311e-05 0.04862236 0.08063861 -0.01731982 0.08417499 0.037570048 0.060224753
0.09054038 -0.025591012 -0.08718041 0.045194503 -0.08478067 0.06308968 0.085049294 -0.010622746
-0.093123555 0.071936965 0.042159893 -0.0928064 0.10353152 0.06789829 0.10279029 0.03073682

fc2.bias f4 [256]
00000000: 75cb d3bc aa89 c23c 5691 aabc a5c5 ab3c
00000010: cc83 1fbc 5d81 f03c 5eba 233c 8d7f 0d3d
00000020: 8ee5 4bbc 41fc 053d 0685 0f3d f1df 8fbc
00000030: 47a1 c03c c0be cf3c 9b13 03bd 05b8 e2bc
00000040: d970 cf3c a408 813c 5563 163d da09 803c
00000050: b94a 2d3d 27b5 9d3c e530 fcbc fdec 943b
00000060: 3809 d1bc 732b 963c ecae fa3c 75c6 cebc
00000070: 87b4 65bc 348a 10bd dabc 13bc 3cbe 95bc
00000080: 9916 58bc 1a22 b4bc 73e8 0e3d 005c c03c
00000090: bf42 fa3c ddd3 0d3c 3187 a03c 6695 ed3c
000000a0: 63af d33c 7e99 e63c fdd3 f13c 4101 9fbc
000000b0: 9d59 b1bc 80b9 803b 7763 ae3b 3591 71bc
000000c0: 5156 f83c f4d3 8fbc a075 043d ca2e 2e3b
000000d0: a5cc 85bc 9104 46bc 42e0 f03c c956 ddbc
000000e0: 31e9 9bbc d60e 75bc 34ac 693a cb04 6b3d
000000f0: 5fc1 2ebc 82df b1bc 697e 22bc 1cca 50bc
00000100: 7f37 bcbc 0c8f 2d3b 85dc 6ebc f48c c8bc
00000110: 89b1 0d3d 56c1 28bc 5103 a0bc 56ad 7fbb
00000120: 2e60 7cbc 60cd 303c 44e6 153d c4f3 db3c
00000130: 7f59 d6bc 700e 0ebc d91e f03c b431 ee3c
00000140: 0bfa eabc 3940 a5bc cfc3 86bc 3465 0d3d
00000150: ed77 fdbc 9bd5 f0bc f2cc bebc 6b4f d03c
00000160: ea5c be3c 8d4e ec3b a11d c4bc 1fc3 a1bc
00000170: ccea f63c 497c 7ebc e8b1 e63c 5af5 2f3c
00000180: d438 d33c 53ff 8f3c 97db b23b 1820 d93b
00000190: 04e9 d33c f4f6 093d 8fdb 843c 586d 903c
000001a0: 6b01 d1bc b201 ac3c b733 97bc 1f6f ff3c
000001b0: be38 bb3c e443 98bc 4422 013b 62cb 8e3a
000001c0: 6daa fb3c c3b7 cbbc 7757 fe3c 5d2b ed3c
000001d0: 044c d9bc 06ef 1dbc 2d49 913c 1433 61bc
000001e0: 3edd 283c d729 c1bc 31eb 81bc cf3b f13c
000001f0: 0735 aabc 61af b63c c68d a7bc e3fd ce3c
00000200: bc36 933a 2644 083c f5bf df3c 9ad9 a63c
00000210: fd10 993c ae56 0ebc 654b aa3c a786 b8bc
00000220: 47d2 aabc 39da c1bb 0434 403b 8d91 05bc
00000230: c353 f5bc 050e a93c c7ca bd3c 9b64 e73c
00000240: f755 ab3c 071e 173d df7e 9bbc af8e d7bc
00000250: 237b e53c ba6d aa3c 6107 243d 696f bbbc
00000260: eaf1 a13c 4f50 16bc f2fa 903b 44f6 cbbc
00000270: 03db d73c 4756 94bc c3bd b439 84d1 9f3a
00000280: 8f2c 683c 252a 933c cac9 8bbb 37a2 9cb9
00000290: 7bc6 e73c 7bde 093d 2c80 c23c f81e cf3b
000002a0: df26 adbc fe88 b83c d733 88bc 33ae db3a
000002b0: 3558 8f3c 0ce5 063d ffd4 dbbc 0a12 f0bc
000002c0: c66f fe3c fad3 a83b 6c14 e33c aaab b0bc
000002d0: 55d7 ce3c 81b9 d83c 47c7 e3bc b528 b33c
000002e0: de59 52bc ac8f bc3c 063c b0bc e64c 8fbc
000002f0: 9275 bfbc 0cdb 573c 01b3 a53c 99c6 b3bc
00000300: 9f20 b4bc b25f 943c a142 69bc 7666 a1bc
00000310: 37b6 b63c cc51 ec3c 1cdc a1bc 7bb5 9bbb
00000320: c560 a6bc f1a3 60bc db19 14bc e0df 91bc
00000330: 9230 83bc 2640 ff3b 9e65 943c 421f c6bc
00000340: d81c 8e3c 34b1 c53a ca58 353b a3a3 c5bc
00000350: 675c 3cbc baad af3c 687b b13c 3905 203b
00000360: bc74 b6bc bcb7 2ebd 47d1 9a3c 9338 b83c
00000370: 69cb 073d d915 d4bc 5043 953c a694 97bc
00000380: 7fa8 eebb 9570 d53c db45 bebc 8a13 263b
00000390: 1084 c63c 7ae7 e9bb b03a ffbc e4dd bf3c
000003a0: 488a e83c 7503 eabc cda9 163d 5978 e83c
000003b0: 0a89 acbc 326d 85bc abe5 acbc 1223 dcbc
000003c0: 7715 9abc 1f0f 5c3c fdc3 f73c b58b f43c
000003d0: f01f e93c bf13 76bc aaa8 f6bc 1948 a3bc
000003e0: 8961 e23c 4914 adbc 44e0 bfbc be8d 7cbb
000003f0: db66 093c 191d 823b c4fa 223d 7285 153d
-0.025853852 0.023747284 -0.020821255 0.020968268 -0.009736013 0.02935856 0.009993164 0.03454547
-0.012444867 0.03271127 0.03503897 -0.017562838 0.023514403 0.025359511 -0.03200112 -0.027675638
0.025322365 0.01575119 0.036715824 0.015629698 0.04230759 0.01925142 -0.030785033 0.0045448528
-0.025517091 0.018331265 0.030600987 -0.025241116 -0.014020092 -0.03528805 -0.009017194 -0.018279187
-0.013188981 -0.021988917 0.03488965 0.023481369 0.030549405 0.008656469 0.019595714 0.029001903
0.025840467 0.028149363 0.02952003 -0.019409778 -0.021649176 0.0039283633 0.0053219157 -0.014744093
0.030314596 -0.017557122 0.03233874 0.0026578181 -0.016332934 -0.01208605 0.02940381 -0.027018921
-0.019032093 -0.01495715 0.0008913905 0.057377618 -0.01066622 -0.021713022 -0.009917834 -0.012743499
-0.022975681 0.0026482968 -0.014578943 -0.024481274 0.03459314 -0.010300001 -0.019532831 -0.0039013228
-0.01540379 0.010791153 0.03659655 0.026849635 -0.026165722 -0.008670434 0.029311584 0.029076435
-0.028683683 -0.020172225 -0.01645079 0.034520343 -0.030940974 -0.02939873 -0.023291085 0.025428494
0.023237664 0.0072115124 -0.02393991 -0.019746361 0.030141257 -0.015532562 0.028161004 0.010739649
0.025783934 0.017577803 0.005458306 0.0066261403 0.025867946 0.03368278 0.016217975 0.017630264
-0.025513371 0.020996902 -0.018457277 0.031180916 0.022854205 -0.01858706 0.0019704262 0.0010894353
0.030720914 -0.024867898 0.031047566 0.028951341 -0.026525505 -0.009639507 0.017735088 -0.013745088
0.0103066545 -0.023579521 -0.015859218 0.029447464 -0.020777239 0.022300424 -0.020453345 0.025267547
0.0011231522 0.008317029 0.027313212 0.020367432 0.018684858 -0.008687658 0.020787904 -0.022525145
-0.020852221 -0.0059159067 0.0029327879 -0.008152378 -0.029947167 0.020636568 0.02316798 0.028246215
0.020915015 0.03689387 -0.018981395 -0.026313154 0.028012818 0.020804275 0.0400461 -0.022880273
0.019768674 -0.0091744205 0.0044244463 -0.024897702 0.02634955 -0.018107546 0.0003447366 0.0012193178
0.01417078 0.017964432 -0.0042659985 -0.00029875498 0.028292885 0.03365944 0.023742758 0.0063208304
-0.0211367 0.02252626 -0.016626282 0.001676029 0.017498115 0.03293328 -0.026834963 -0.029305477
0.031059157 0.0051522227 0.027719699 -0.02156623 0.025249163 0.026455643 -0.027804984 0.021869997
-0.012838809 0.023017727 -0.021512996 -0.017492723 -0.023371492 0.013174783 0.020226957 -0.021945285
-0.021988211 0.018112037 -0.014237077 -0.019702177 0.022303684 0.028847598 -0.019758277 -0.0047518588
-0.020309815 -0.013710962 -0.009039368 -0.017806947 -0.016014371 0.0077896295 0.018114861 -0.024184827
0.017347738 0.0015082718 0.002767133 -0.02412588 -0.01149664 0.021445144 0.02166529 0.0024417175
-0.02227246 -0.04265569 0.01889862 0.022487914 0.03315297 -0.025889324 0.018220574 -0.018503498
-0.00728327 0.02605466 -0.023226669 0.0025341236 0.024232894 -0.00713819 -0.031155914 0.023421235
0.02838625 -0.028566102 0.03678303 0.028377699 -0.021061439 -0.01628742 -0.021105608 -0.026872192
-0.018809063 0.0134313395 0.030244822 0.029851774 0.028457612 -0.015019356 -0.030109722 -0.01993184
0.027634399 -0.021127837 -0.023422368 -0.0038536633 0.008386339 0.003970754 0.03978993 0.036504216

fc3.weight f4 [128, 256]
00000000: c6d4 64bd e227 44bd c12e eb3b 8297 babc
00000010: a179 51bd f187 c23c 7136 c73d 3b71 313d
00000020: 426d ce3d fb34 023e 150f d03d aac4 253d
00000030: ef04 37bc 4eed 1c3d f10a 5c3d c062 61bd
00000040: d6a7 91bd ad76 e9bb 8dbb aa3d cf3b bdbd
00000050: 0b46 9fbd e614 f9bc dd6c 46bd 8cae 91bd
00000060: da83 19bc 3239 073d cb6b 423d 1785 a83c
00000070: f857 04bc 0f9d ea3d f6bd ac3d da0f 1fbc
00000080: bc73 24bd bc76 d03d f4d9 63bd 6542 b93c
00000090: b8d5 963d d09c a63d eba8 48bd 44fa bcbd
000000a0: 9b3f 303d 1778 febb 46f6 e23c dd0c 04be
000000b0: 9eda febd 1794 3ebd a40f c53d da43 ca3d
000000c0: 4ef4 cebd ea51 d9ba 7482 12bd 72b9 fa3c
000000d0: 77f2 9ebd c141 4f3d 3b10 d6bc bd98 a6bd
000000e0: 0f88 ed3c 5c9d 03be 882f 1d3c acd3 23bd
000000f0: e4dc b53d 7760 c2bd c64f e3bd 249b eb3c
00000100: 2fb3 c53d d04d dabd e995 f33b d25e df3d
00000110: 7f78 e33d 2bc0 823d 76c8 de3d ddf7 083c
00000120: 1be1 b73c 6fd7 b4bd fe98 38bc 1697 ce3c
00000130: bbf5 d9bd 278e 8e3d c07e 00be 0d6a e3bd
00000140: b3f4 9e3c 610c df3d cadd a93d a9c3 1e3b
00000150: 7915 963d a9c7 de3d 2e59 ccbd 5f72 0cbd
00000160: 708e afbd 5248 cebd 1d42 fc3c 9baf 9a3d
00000170: e002 983d c296 c4bd fb51 83bd 7364 233d
00000180: c06e 053e 3908 f4bd d06b b7bd a092 93bd
00000190: ab81 d9bd b22f b6bd 5dc5 913d 5945 a6bd
000001a0: af06 a2bd af34 cdbc f5d5 64bc 556f 8d3c
000001b0: d505 a23c b530 d4bd 9c6a 9b3d 690e a3bd
000001c0: aed3 bcbd 2924 ec3d 6094 78bd 67e1 6b3d
000001d0: 47ae a5bd 36c7 04bc 54a0 16bd 1621 d43d
000001e0: eeb6 c3bc 2149 cdbd d7a6 c43d 30f8 903d
000001f0: e83e 3ebd 34f7 f3bd 1a19 b43d e454 9e3d
00000200: ecbd b33d 0a14 073e 9b16 6c3d 04c6 863d
00000210: 81eb f3bd 1b7b 9e3b 7a8e efbc acee a13b
00000220: 5bdc 263b 18f0 60bc a993 25bd 0d79 943c
00000230: fc0f ca3d 921e 073d eab2 8e3d 4e1f 9e3d
00000240: e44c a2bd 4bad fbbc 5330 04be d6b7 30bd
00000250: eb43 73bd 5bf7 0abd 5e8d 19bd 500b d6bc
00000260: 1c37 e4bd 810d f13d 86c8 b0bc 0a95 80bd
00000270: 4328 cb3d cdb4 9d3d 4bb9 ffbc fa81 723d
00000280: c0a3 42bd 67c6 113d 50d9 fdbd 4145 f93d
00000290: d84c f13c 1413 803d 6af4 ad3c 4e00 a13d
000002a0: 2e12 2fbb 814c cebc 2af3 233d b958 a03d
000002b0: 91d1 ce3c fd94 2cbd f1bf 21bd 0dd3 6abd
000002c0: 3447 b1bc 13b1 abbd 7d79 6b3d 4f07 d2bd
000002d0: 7124 c03d 6337 cfbd f000 a6bc b7df 3abd
000002e0: af47 cd3d 5ab0 d5bc 23cd 353d c6f9 613d
000002f0: 1416 b73d f34e 583d fd93 0a3e 72ea d4bd
00000300: 7196 153d cd03 97bd d17d 493d aefc c23d
00000310: 0c3d 08bc 8ce8 0cbd a9ff 9bbd 3005 a03d
00000320: 1476 683d 97c2 873d aafe 44bc 5912 523d
00000330: 7909 30bd 496c 463d ef54 1dbc 48b8 103d
00000340: e6ac 943d 351d 3bbd 0a81 4a3c 37f9 fabc
00000350: 775c 823d 0164 9abc 0bf7 0e3d fa21 963d
00000360: dd76 39bd 7513 61bc 1474 72bd 7b99 46bb
00000370: ef55 c83d 9fb2 823d caca 873d f374 e7bd
00000380: d5b9 3dbd cde1 7bbd f0bf cfbd d313 a6bd
00000390: d8be 6cbd 1ce3 b6ba 1c54 e4bd f1c2 6ebd
000003a0: c6bd 813d 69fc d73d ca9e 743d 5afc cf3d
000003b0: d5f9 9b3d 17d1 433b 6c64 c33d 292a 44bd
000003c0: e31b 823d 030a ff3c 2ff2 95bd dfaa c7bd
000003d0: cf20 283c 1034 53bd 11d4 babd a861 8bbd
000003e0: 51b1 e0bd 9f87 eabd 5641 0c3d 2c1a c7bd
000003f0: 177a b9bd bbde adbd bb53 cebd 3726 1abd
-0.05586698 -0.047889598 0.0071772044 -0.022777323 -0.051141385 0.023746463 0.09727181 0.043320876
0.10079433 0.12715523 0.10159127 0.040470757 -0.01117061 0.03831225 0.053721372 -0.055025816
-0.0711209 -0.007124743 0.08336554 -0.09239923 -0.077770315 -0.030405473 -0.048443664 -0.0711337
-0.009369815 0.03301353 0.04746608 0.020571275 -0.008077614 0.11455738 0.0843467 -0.009708369
-0.040149435 0.10178897 -0.05562778 0.022614667 0.07364982 0.08135378 -0.048989218 -0.09227422
0.04302941 -0.0077657807 0.027705323 -0.12895532 -0.12444042 -0.04652795 0.09622124 0.09876223
-0.10105191 -0.0016580198 -0.03576894 0.030606005 -0.0776109 0.050599817 -0.026130786 -0.08134601
0.028995542 -0.12852997 0.009593852 -0.039996788 0.08880022 -0.094910555 -0.110992 0.0287605
0.09653317 -0.10659373 0.007433642 0.109067574 0.11106967 0.063843094 0.10878079 0.008359876
0.022446206 -0.08830153 -0.011266945 0.025218528 -0.106425725 0.06960707 -0.12548351 -0.11104212
0.019403791 0.10891033 0.08294256 0.002422551 0.07328314 0.10877926 -0.09977947 -0.03428876
-0.0857209 -0.10072388 0.030793244 0.07553025 0.07422423 -0.09599067 -0.06412121 0.039890718
0.13030529 -0.11915631 -0.089561105 -0.07205701 -0.10620435 -0.08895816 0.07117722 -0.08118696
-0.07911431 -0.025049536 -0.013967027 0.017265001 0.019778172 -0.10360853 0.075886935 -0.07961733
-0.09220062 0.115303345 -0.060688376 0.057588007 -0.080898814 -0.008104136 -0.036773995 0.10357873
-0.023890939 -0.10023714 0.09602135 0.07078588 -0.04644671 -0.11912385 0.0879385 0.07731035
0.08776459 0.13191238 0.057638746 0.06580737 -0.11910153 0.0048364527 -0.029242743 0.004941782
0.0025460932 -0.013729118 -0.040424023 0.018124128 0.0986633 0.03298814 0.06967719 0.07720815
-0.07924822 -0.030722281 -0.12909059 -0.04314407 -0.059390943 -0.033927303 -0.037488334 -0.026128441
-0.11143324 0.11770154 -0.021579992 -0.06278427 0.09919789 0.07700501 -0.031216284 0.059205987
-0.047519445 0.0355896 -0.12394965 0.12171412 0.029455587 0.06253639 0.02123471 0.07861386
-0.0026713717 -0.025182964 0.04002682 0.078294225 0.025246413 -0.042134274 -0.03948969 -0.05733018
-0.021640398 -0.083833836 0.057488907 -0.102553 0.09381951 -0.10117986 -0.020264119 -0.045623507
0.10023438 -0.026085068 0.044385087 0.055169843 0.08939758 0.052809667 0.13533016 -0.103962794
0.036520425 -0.07373772 0.049192254 0.09520851 -0.008315336 -0.03440146 -0.07617123 0.078134894
0.056753233 0.06628912 -0.012023607 0.05128703 -0.042977784 0.048443113 -0.009602769 0.035331994
0.0725954 -0.04568215 0.012359867 -0.030636413 0.063652925 -0.018846514 0.034903567 0.07330699
-0.045279372 -0.013737549 -0.059192732 -0.0030303884 0.097820155 0.063817255 0.06630476 -0.11301603
-0.0463198 -0.061494637 -0.10144031 -0.0810925 -0.05779919 -0.0013953182 -0.11148855 -0.05829138
0.063350245 0.1054619 0.059721746 0.10155554 0.07616011 0.0029879266 0.09540638 -0.04789177
0.06352975 0.031132704 -0.073215835 -0.09749388 0.010261728 -0.051563323 -0.0912248 -0.06805736
-0.109713204 -0.11451649 0.034241997 -0.09721789 -0.0905649 -0.08489748 -0.10074564 -0.0376341

fc3.bias f4 [128]
00000000: 91a5 78bc bb96 f73c 8634 8abc f5f2 fd3c
00000010: f10e 0e3d e044 193d 22a7 e3bc b7cc 82bc
00000020: 8894 84bc 23f6 c9bc 5f58 033d c8b7 9bbc
00000030: 8a2c b8bc 135b 91bc 8ffa a1bc d969 c7bc
00000040: 3e0b 1ebc ef10 013d 6514 bcbc 61c3 8fbc
00000050: 71e3 15bc 6e0b c03c 7ed6 e6bc 8054 36bc
00000060: ca8c f13c 85a0 8e3c 3ac6 1bbc c73a 253d
00000070: 3064 90bc bb32 86bc 5068 bbbc 946b e53c
00000080: b1b6 92bc ed73 043d aae1 fa3c b6ff 69bc
00000090: 4edb 7fbc f0ed df3c 29bb 13bc c639 b3bc
000000a0: 62ae 3b3c 220c e4bc 6baf e83c e208 b0bc
000000b0: e6ae be3c f0ff 72bc 19e8 263d ce5e 093d
000000c0: bbbe 83bc e7b8 ea3c 90f6 623c f906 a8bc
000000d0: 9250 e43c d4b9 80bc 85eb 173d 7a54 033d
000000e0: 501e fc3c 519d 80bc 0b8e 3cbc df46 ae3c
000000f0: dacd b63c d95d fd3c 18a2 f53c ffe5 f53c
00000100: 5645 70bc 1e35 1dbd 6e39 96bc 189d e33c
00000110: 8fd8 e63c 9d7b c8bc 3fba 0d3d cb1d 0e3d
00000120: ec4f 003d ce99 f43c 6593 a8bc 8e28 f3bc
00000130: da98 b7bc 075c 1a3d 8ab6 d3bc 74b8 133d
00000140: e50f adbc 62b1 f33c dd95 c0bc 6a13 9abc
00000150: 4e15 8fbc 6f29 f73c afd3 e83c 265a 183d
00000160: a73f 043d cb3a a7bc 6257 073d ad4b e0bc
00000170: 6c4d e63c e909 9cbc bdda 173d 0cca 9cbc
00000180: ea6e 0b3d 8215 80bc e917 203d ff00 7ebc
00000190: 71df e03c c4c7 083d 649e 153d d07d 073d
000001a0: f4f3 92bc 4921 dabc 9c24 fe3c 73cc 99bc
000001b0: 42b3 0b3d 4383 f73c 7b65 f83c 56fd 103d
000001c0: 11d3 a9bc cf5c cfbc 3bf9 92bc 1942 87bc
000001d0: f34b b83c 0f02 043d 8c08 f63c de9b e63c
000001e0: 8bc5 a2bc 8f1a ee3c 006f adbb 379c 70bc
000001f0: 6a15 0d3d 3314 f7bc 2115 c0bc 025d f13c
-0.015176193 0.030223241 -0.016870748 0.03099964 0.034682218 0.0374192 -0.027789656 -0.015966756
-0.016184106 -0.0246535 0.0320667 -0.019008532 -0.022482175 -0.017743623 -0.019772796 -0.024342464
-0.009646235 0.03151029 -0.022958944 -0.017549219 -0.009148465 0.02344295 -0.02817845 -0.011128545
0.029486079 0.017410526 -0.00950771 0.040339258 -0.017625898 -0.016381612 -0.022876889 0.028005399
-0.01790938 0.032337118 0.030625183 -0.014282158 -0.015616251 0.027335137 -0.00901679 -0.021878134
0.01145515 -0.027837817 0.028403958 -0.02148861 0.023276757 -0.014831528 0.04074869 0.03353768
-0.016082158 0.028652621 0.01385273 -0.020511137 0.02787045 -0.01571361 0.037089843 0.032062985
0.030776173 -0.015700014 -0.011508475 0.021274028 0.022314955 0.03092854 0.029984519 0.030016897
-0.0146649685 -0.038380735 -0.018337931 0.02778487 0.028179435 -0.024473006 0.034601446 0.03469638
0.03132622 0.029858496 -0.020578096 -0.029682424 -0.022411752 0.03768542 -0.025843877 0.03606458
-0.021125743 0.029747669 -0.02350896 -0.018808085 -0.017466214 0.030171124 0.028421251 0.037195347
0.032287266 -0.020413777 0.03304232 -0.027379835 0.02811309 -0.019047694 0.03707384 -0.019139312
0.034041323 -0.015635256 0.039085303 -0.015503167 0.027450295 0.033393636 0.036528006 0.03307897
-0.017938592 -0.0266272 0.031023316 -0.018774247 0.0341065 0.030213958 0.030321827 0.03539785
-0.020730527 -0.02531281 -0.017941108 -0.01651101 0.022497153 0.032228526 0.030033372 0.028150495
-0.019869586 0.029065398 -0.0052927732 -0.014685682 0.03444425 -0.030160999 -0.023447575 0.029463295

fc4.weight f4 [1, 128]
00000000: 1d45 8bbd 9bb3 743d dc21 04be d1b5 0a3e
00000010: d29f 283e 2771 023e 0cbd fbbd 74d0 39be
00000020: 1e74 8dbe 8e1b 70be 2be1 4d3e 3095 c7bd
00000030: 702b 2ebd 6fd8 4abe 0501 02be 4b78 d0bd
00000040: 3a57 2fbe 6d64 3d3e 6fce 44be 27dc d0bd
00000050: 37af 1bbe d6a1 af3d f987 3abe 0e06 dfbd
00000060: b934 053e f9b9 453e 7608 ccbd ca38 483e
00000070: 236a 18be d626 8dbd 8973 49be 6a7e 393e
00000080: 0a22 31be ffe9 843d ddbf 3a3e 3022 08be
00000090: d622 35be 8263 863c 89b4 36be 4a0e a9bd
000000a0: 106d cd3d 6455 13be 9703 a43c dd7e ddbd
000000b0: b9f1 de3d 91bb 28be 8251 f43d dc46 213d
000000c0: 3603 21be 143e 323d 03a0 8a3d b10e 09be
000000d0: e06d 4a3d 28ac d4bd 2342 463e 1cec 433e
000000e0: 7410 803d 9cbc 92be f882 06be adea 803d
000000f0: 9ac4 143e c96e 983b cd64 0a3d 5191 923d
00000100: ddcd 42be f067 41bd 129e bdbd 9b4f 053d
00000110: 9e33 373d 9750 d9bc 249d cd3d 76f0 483e
00000120: 505a af3d ce40 273e a463 61be 1c81 13bd
00000130: e3c0 74bd 71b0 cd3d 767b d9bd 1f28 2d3e
00000140: 7483 78be 96e7 1f3d 1fc2 3abe 4b62 49be
00000150: 9b01 38be d7fd b13d c462 a33d 1008 863d
00000160: 6112 203e 9d0c 18be 107d d03d c3c6 dabd
00000170: 95e4 b93d 5acc e4bd 9c1f 083e 6d37 53be
00000180: 6374 db3d 2217 22be be05 a33c b1ff 35bd
00000190: d0ac d63c c007 e53d ad19 d03c 5e9e eb3d
000001a0: 2d4c a4bd 1988 cabc b7c5 093e 2e5d ecbd
000001b0: 1f6c 1f3e c0a9 1f3e 67f0 113e 25e7 1f3e
000001c0: a2bf 2cbe 08ef 3cbd 2a14 05be e2f3 8cbe
000001d0: 1f55 e13d 9444 3f3e 0fe3 0c3e 0248 4c3e
000001e0: 8d63 81bd e349 363e 5cbc 54be 2847 eabd
000001f0: 0002 093e 38ee 2cbe 2f08 32be 95e2 353d
-0.06800292 0.059741598 -0.12903541 0.1354592 0.16467217 0.12738477 -0.12291917 -0.18145925
-0.27627653 -0.23448011 0.20105426 -0.09745252 -0.042521894 -0.19809125 -0.12695701 -0.10179194
-0.17123118 0.1849534 -0.19219373 -0.10198241 -0.15203558 0.0857579 -0.18215932 -0.10889827
0.13008393 0.19309224 -0.09962551 0.19552913 -0.14884238 -0.06892173 -0.1967298 0.1811463
-0.17298141 0.06489944 0.18237253 -0.13294291 -0.1768907 0.01640487 -0.17842306 -0.082546785
0.10030568 -0.14388043 0.020021243 -0.10815213 0.10885949 -0.16477801 0.11929609 0.039374217
-0.15723881 0.043516234 0.06768801 -0.1338451 0.04942119 -0.10384399 0.19361167 0.19133037
0.06253138 -0.28659523 -0.13135898 0.06294761 0.14528123 0.0046518785 0.033787537 0.07156623
-0.19023843 -0.047218263 -0.09258665 0.03254662 0.04472696 -0.026527686 0.10039738 0.19622979
0.085621476 0.16333315 -0.22010666 -0.0360118 -0.059754264 0.10043419 -0.106192514 0.16909836
-0.24268895 0.039039217 -0.18238114 -0.19666402 -0.17969362 0.08690994 0.079778224 0.065445065
0.15632011 -0.14848562 0.10180104 -0.10682442 0.09076802 -0.111717895 0.13293308 -0.20626612
0.107155584 -0.15829137 0.019900199 -0.0444333 0.02620545 0.11183119 0.025402868 0.115048155
-0.08022342 -0.0247231 0.13454328 -0.1154121 0.15568589 0.15592098 0.14251862 0.15615518
-0.16869977 -0.046126395 -0.12995973 -0.27529818 0.11002564 0.18678504 0.13758491 0.19949344
-0.06317816 0.17801623 -0.20774978 -0.11439353 0.13379669 -0.16887748 -0.17385934 0.04440554
