results/cartpole/bicogan/20251207-223241/G.pt (torch, 279077 bytes, 10 tensors)

theta_u1 f4 [64, 4]
000000 2b a6 75 bc 8b 71 bc 3b 25 9d 75 3b 93 a5 e7 3b
       -0.014993231 0.00575084 0.0037477699 0.0070692985
000010 37 a7 0d 3c fb 47 2c bc fe 71 95 bc 2b 20 b0 bb
       0.008645824 -0.010515208 -0.018242832 -0.0053749285
000020 8f a7 6c bc 1d b5 e8 3b 25 e3 ab bb 29 56 2f bc
       -0.014444246 0.0071016685 -0.0052455836 -0.0107016945
000030 02 d5 2f 39 8e c0 c9 b9 68 5f f8 ba fe 69 e9 ba
       0.00016768652 -0.00038481172 -0.0018949332 -0.0017808077
000040 4a 41 9b 3b 85 3c 4d bc 5f 63 94 3b dc 86 10 3c
       0.0047380077 -0.012526636 0.0045284475 0.0088212155
000050 db 36 3c b9 3c d9 20 3c 76 2f 7c 3c b4 13 fd 3b
       -0.00017949512 0.009817418 0.015392175 0.007723296
000060 04 06 f0 bb 09 79 5a bb 74 ef 39 bc c7 62 62 3b
       -0.007324936 -0.0033336303 -0.011348594 0.003454374
000070 4f 08 b4 bc e7 04 2f 3b c8 79 80 3c 7c b2 1a bc
       -0.021976618 0.0026705803 0.01568307 -0.009441968
000080 4d 95 d4 bb 87 d6 9c bb 09 5c e8 bc 37 2e 2f bc
       -0.0064875246 -0.004786316 -0.028364198 -0.010692171
000090 e8 f2 d3 3b 26 2d 8a ba 0d 8c fb 3a f6 ef 26 3c
       0.0064681657 -0.001054202 0.0019191519 0.010189047
0000a0 ca 7d 19 bc c5 2e 38 bc fe ff 17 bc a2 e7 19 3c
       -0.009368369 -0.0112416195 -0.009277342 0.0093936045
0000b0 ce f9 0c bb 97 00 0e bc 37 83 42 bc a9 9b f0 3b
       -0.00215112 -0.008667133 -0.011872104 0.007342775
0000c0 e4 bc 7b bb 51 ce 08 bb e0 f6 02 bc 11 83 a0 3b
       -0.0038412148 -0.0020874927 -0.00799343 0.004898437
0000d0 e9 54 9f bc 54 50 6d bc aa 9e 2d 3c d6 9a 85 bc
       -0.019449668 -0.014484484 0.0105969105 -0.016309183
0000e0 ae 18 14 3c 9a a8 9b 3c c5 df 02 bc 5e f7 a1 bb
       0.009039087 0.019001294 -0.007987921 -0.0049428185
0000f0 da 6b 61 3b d5 d6 14 3b 43 ff 4f 3b 70 76 d2 3b
       0.003439656 0.0022711058 0.0031737841 0.0064228103
000100 a6 af d2 bb 48 5b 4a 3c 60 67 03 3c 75 df e9 bb
       -0.0064296303 0.012350865 0.008020252 -0.007137234
000110 60 e4 c3 bb b8 77 59 3c 85 d7 1b 3c 49 f0 2c 3a
       -0.005978152 0.013273172 0.009511833 0.00065970846
000120 fa 00 44 bc f1 8f d2 3a c9 23 a8 bb 60 3b ad bc
       -0.011963123 0.0016064626 -0.005131219 -0.021146476
000130 b5 73 03 3c dd 18 82 3b 3c 08 d1 bb 98 2c 9a bc
       0.008023192 0.003970249 -0.0063791554 -0.018820092
000140 01 c8 82 3b c9 bc f1 3b 09 09 00 bc 62 2d 90 3b
       0.0039911275 0.0073772413 -0.007814654 0.0043999413
000150 7c ce de 3b 9c 7f a5 bb 11 b1 15 bc 7e 66 ea 3b
       0.006799517 -0.0050506126 -0.009136454 0.0071533313
000160 8e 22 48 3b 6e 27 a6 3c 32 ea ed 3b bf 70 8b 3c
       0.0030538174 0.020282473 0.0072605843 0.017021535
000170 c6 65 02 3c ab 64 de bb 04 36 c0 bb dc 30 24 bc
       0.007958835 -0.006786903 -0.005865814 -0.010021415
000180 1d 64 ce ba d3 0f 4b bc a8 df 14 bc 87 46 95 bc
       -0.0015746389 -0.0123939095 -0.009086527 -0.018222107
000190 25 5d b7 bb 0a 37 2a 3c 9c ad 1d bc 0a e3 a4 bc
       -0.0055958205 0.010389099 -0.009623911 -0.020127792
0001a0 94 77 1b 3b b2 92 cb bb f1 e9 0a 3b cb 91 77 3b
       0.0023722397 -0.006212556 0.002119657 0.0037776108
0001b0 97 f2 4a 3c 7f 63 bf 3b 2c 13 64 bc c0 b7 6c bc
       0.0123869395 0.0058407183 -0.013920587 -0.014448106
0001c0 ce 98 d7 3a df c3 ec bb 14 69 7b b9 8f cd 36 bc
       0.0016448738 -0.007225498 -0.0002397637 -0.011157407
0001d0 60 ce de ba 5c 89 b0 bc 1a 47 92 bc 97 ba fa 3b
       -0.001699876 -0.021549873 -0.01785617 0.007651638
0001e0 e6 93 59 3c 5a e4 01 bb 75 9f 80 bb 8e 86 61 3b
       0.013279891 -0.0019819946 -0.0039252588 0.0034412476
0001f0 36 d6 34 b9 fd e8 54 bb 85 94 17 3c f1 7b 02 3c
       -0.00017245937 -0.0032487505 0.009251718 0.00796412
000200 8e d6 3e bc b8 b8 88 3c 4c a0 0b 3a a0 71 27 3c
       -0.0116478335 0.016689643 0.00053263153 0.010219961
000210 22 76 8c 3a 5e 67 9a bc 0a e6 a2 bc 5d ce 32 ba
       0.0010716359 -0.018848117 -0.019885082 -0.00068209117
000220 32 1c 91 bb a3 44 32 3b c7 45 a0 3b f4 a1 b4 3b
       -0.00442841 0.0027201555 0.0048911306 0.0055124704
000230 0f 31 18 bc b5 44 9f bb cd 88 d3 3b e5 dc 12 bc
       -0.00928904 -0.0048604854 0.006455517 -0.008963798
000240 00 40 9e 3c 65 e0 fb 3b dc 7c 90 bc d6 79 54 bc
       0.019317627 0.007686662 -0.017637663 -0.012968501
000250 5b 6e ef bb 61 f2 31 3b e6 69 a1 bb 5a f5 72 bc
       -0.0073068566 0.0027152526 -0.004925954 -0.014829004
000260 b0 4e 7d bc 24 ce 3e bc e6 33 ad 3b 81 91 1f 3c
       -0.015460655 -0.011645827 0.005285728 0.009739281
000270 ad 29 df 3b 3b 46 1b 3b 5e 6a 1c ba 6b e8 17 bc
       0.006810388 0.0023692984 -0.00059667777 -0.009271721
000280 aa 9b e2 bc 30 8d 56 3c c3 bf 7c 3c e3 f2 48 bb
       -0.027662117 0.013095185 0.015426579 -0.003066235
000290 b5 34 46 ba 75 d5 f8 ba 97 2f 45 bb 7d 79 38 bc
       -0.00075609545 -0.0018984514 -0.003008818 -0.011259434
0002a0 5d e9 be 3a 62 86 d5 3b cf 01 09 3c 1d 47 36 3c
       0.0014565397 0.006516264 0.008362248 0.011125353
0002b0 12 c0 3b bc 54 b3 ae ba e1 4b d3 3a d7 5b ed bb
       -0.011459367 -0.001332859 0.0016120636 -0.007243614
0002c0 5e ff 2a 3a 9e 90 2e 3b a3 bf 69 bc f8 39 fc 3b
       0.0006523038 0.0026636492 -0.014266881 0.00769734
0002d0 e9 d3 ae bb 25 e4 1a 39 ce 62 a6 3b 2e f2 77 3b
       -0.0053353203 0.00014771575 0.0050776964 0.003783356
0002e0 fb 8e 91 3b af 69 df 3b 07 79 0f 3c 13 fa 5a 3b
       0.0044420934 0.0068180184 0.0087568825 0.0033413216
0002f0 37 94 8c bb c4 a6 a4 bc fe f4 0f 3c 3f dc f4 3b
       -0.0042901295 -0.020099051 0.008786438 0.0074725444
000300 90 a3 87 37 39 6e 7f bc 20 f8 96 bb e3 9b ee 3b
       1.6169419e-05 -0.015590244 -0.0046072155 0.0072817667
000310 de 89 5e 3b d3 db 1a 3c 77 f6 23 bb 5a 04 83 3c
       0.0033956687 0.009451824 -0.002501873 0.015993286
000320 15 5e bd 3a 2b 0b 81 3b 95 1a 9a bc 0b d0 46 b9
       0.0014447594 0.003938099 -0.018811503 -0.00018960254
000330 74 44 45 3b 02 1e 0c 3c 71 25 cc 3b a1 3d d3 3b
       0.0030100616 0.008552076 0.0062300493 0.0064465557
000340 0c a3 d5 ba c8 4b 03 bb be ad 81 bb 23 4e b1 bb
       -0.0016299202 -0.0020034183 -0.0039574793 -0.005410926
000350 fb a4 d1 3b 4d a7 f2 bb 11 0b 87 3b 25 04 86 bc
       0.006397841 -0.0074051977 0.0041211923 -0.016359398
000360 a3 33 2f 3c ff ad 5e 3c 18 50 b5 3c 27 95 cb bb
       0.0106934635 0.013591289 0.022132918 -0.0062128487
000370 bd b7 41 ba 0f a5 92 3a f7 1a 7c bc 9e f6 6a 3b
       -0.0007389745 0.0011188107 -0.015387288 0.0035852562
000380 2d 18 b4 3b 11 62 a9 3b 0a b1 76 b8 49 1e ea ba
       0.005496046 0.005169161 -5.881585e-05 -0.0017861809
000390 19 05 39 3c 52 0a 07 bc ad 96 73 bc 59 48 9e 3b
       0.011292719 -0.008242207 -0.014867467 0.004830402
0003a0 ba 06 16 bb bc ee c5 bc 7e 4a 4a bc 34 77 e0 bb
       -0.0022892193 -0.024161689 -0.012346862 -0.0068501476
0003b0 b3 00 b6 bb a6 55 af bb 6a 5c 96 ba a7 4c fb bb
       -0.0055542826 -0.0053507863 -0.0011471633 -0.00766905
0003c0 be fa 3b 3b 31 6c 04 bb 6f 18 a0 bc 3f cd 52 3b
       0.002868339 -0.0020206089 -0.0195429 0.0032165793
0003d0 78 cb 86 bb 3f ce f0 3b be b7 97 bb aa f9 a0 3a
       -0.004113611 0.007348805 -0.004630058 0.0012281437
0003e0 f4 2a ec 3a fa ef 19 bc 07 fe 2c bc b4 93 bd bb
       0.0018018172 -0.009395594 -0.010558612 -0.00578543
0003f0 5f d2 92 3b d2 2f a8 3c 18 66 00 bc d7 e9 b8 3c
       0.0044806446 0.020530615 -0.007836841 0.022572441

theta_u2 f4 [4, 64]
000000 f9 42 b5 bc 16 c8 6a 3a e6 42 4a bc 9e 04 6f 3b
       -0.022126662 0.0008956207 -0.012345051 0.0036471258
000010 f5 b4 69 3b 33 58 7c bb 78 36 b4 bb fe 49 21 bc
       0.0035660837 -0.003850472 -0.0054996572 -0.009844301
000020 80 1e 8f bb cd 9f 9d 3a 9f 14 da bb 0b 9f e4 bb
       -0.0043676496 0.0012025774 -0.0066552903 -0.006976967
000030 eb 8d a8 bb dc 1f aa bb ba e8 0c 3c 44 99 3c 3c
       -0.005143871 -0.005191786 0.008600408 0.011511151
000040 16 b2 94 bc ec d4 3a bb 5b a4 33 3c 57 2e 42 bc
       -0.018151324 -0.002850826 0.010964478 -0.011851869
000050 76 8a 10 bb 3a f4 d1 3c 44 94 e8 3b 80 e3 8e bb
       -0.0022055185 0.025629152 0.0070977528 -0.004360616
000060 0b c7 b9 3a 3d ea 01 bc 5a b1 08 ba 5b 20 3e bc
       0.0014173699 -0.007929382 -0.0005214416 -0.011604394
000070 35 16 4d 3b e9 a2 3b 3c 90 3f 54 3c 30 15 a5 ba
       0.0031293754 0.011452415 0.012954608 -0.0012594815
000080 5f b9 9d bb 0a 73 8f bb 75 70 41 bc 86 a4 87 bb
       -0.0048133577 -0.0043777274 -0.011806597 -0.004139486
000090 98 b7 18 bb 01 92 eb 3a 81 54 02 bb aa 35 1a 3b
       -0.002330279 0.001797259 -0.0019886794 0.0023530521
0000a0 43 0f 93 bb 6a c8 31 3c df a1 55 3c 8a 4b 59 bc
       -0.0044879033 0.010851005 0.013039081 -0.013262639
0000b0 7f 39 0f 3c b0 b7 eb 3b cc 63 4c 3b a3 01 c7 bb
       0.0087417355 0.007193528 0.0031187413 -0.006073193
0000c0 44 e3 b0 bb 13 6f 1f bc 99 4f 48 3c 79 62 bf 3b
       -0.005398186 -0.009731072 0.012226009 0.0058405963
0000d0 41 39 a7 bb d1 1a aa bc 1f 27 04 bc 5c 10 3b bc
       -0.0051032607 -0.02076474 -0.008065968 -0.011417475
0000e0 e0 1c 01 bc 84 e5 9a bc e0 32 86 3b 74 f1 45 3c
       -0.0078804195 -0.01890827 0.0040954202 0.012081493
0000f0 00 58 5c bb 69 63 ad 3a 42 fb 3b 3b 03 62 e4 bb
       -0.0033621788 0.0013228479 0.0028683697 -0.0069696917
000100 be f1 8e 3b f4 d3 4d bc 07 fe 6c bb 05 25 0a bc
       0.004362314 -0.012562741 -0.0036162154 -0.008431678
000110 ae 7d ca bb 98 ee 91 bc 1c c9 97 3b cc fe b8 3b
       -0.006179533 -0.017813966 0.0046321284 0.0056456085
000120 09 8d 57 3b ce a9 54 bc e9 e7 22 3c 12 9c 25 3a
       0.003289046 -0.012979938 0.009942987 0.0006317507
000130 29 be 0c 3b 71 ce 83 bc 6c a1 07 3c b2 fb 98 bb
       0.002147565 -0.01608965 0.008278232 -0.0046686763
000140 25 aa 9b 3b 80 d1 99 bc cb 8f ea bb ab 0f 70 bb
       0.0047505074 -0.018776655 -0.0071582547 -0.0036630433
000150 2b 19 88 bb f9 61 bb 3b d2 6b 8b bc d3 fc 1a 3c
       -0.004153391 0.0057184664 -0.017019186 0.009459692
000160 7c ef 34 bc 21 40 ec bb 26 20 bc bc 08 5f 97 3b
       -0.011043426 -0.007209793 -0.022964548 0.004619483
000170 75 a5 0a bc f0 35 73 3b 18 99 a0 3b 21 be 75 3b
       -0.0084623 0.0037111007 0.0049010627 0.003749736
000180 52 f7 8c 3c 29 6e e7 ba 7f a8 ab bc 53 8a dd 3b
       0.017207775 -0.0017656732 -0.020954369 0.0067608743
000190 06 92 5b 39 97 ce 1f bb b6 d7 f9 38 f4 96 86 bc
       0.00020939865 -0.0024384612 0.000119134245 -0.016429402
0001a0 65 2d bb b8 78 00 8f bb c6 79 42 bb 89 d3 c5 3b
       -8.92531e-05 -0.0043640696 -0.0029674633 0.00603718
0001b0 61 c5 d3 39 23 82 8c bb ee a4 10 bc af 49 7b bb
       0.00040392115 -0.0042879744 -0.008828385 -0.003834348
0001c0 50 f6 0a bc ab 5e a0 bc d7 34 9b b9 10 ec 23 bc
       -0.008481577 -0.019576391 -0.00029603273 -0.010005012
0001d0 8b 39 a3 3c 3e f0 be bb 78 f0 91 bc 93 2f c1 3b
       0.0199249 -0.005826979 -0.01781486 0.005895564
0001e0 b4 67 25 bc 69 e4 d7 3a 00 3c 0d b9 44 fb de 3b
       -0.0100955255 0.001647127 -0.0001346916 0.0068048555
0001f0 98 b2 4f 3c 67 3a b6 3a 2c c8 a3 3b d3 95 9f ba
       0.012676857 0.0013902903 0.0049982276 -0.0012175388
000200 ed b2 d2 3b 73 99 2d bc 72 ca 87 3a 72 5a c6 3a
       0.006430021 -0.010595667 0.0010360016 0.0015133156
000210 a2 a3 84 bc 01 65 92 bb 44 7f a8 3c 3f 38 74 3b
       -0.016191307 -0.004467607 0.020568497 0.003726497
000220 ce 46 32 bc 9a e0 8c bb 34 77 91 3a e9 a4 b6 3a
       -0.010881139 -0.0042992355 0.0011098147 0.0013934645
000230 df 8d c4 3a e8 25 06 3b 8c 16 e2 bb 3d 79 49 bc
       0.0014995894 0.0020469371 -0.0068996605 -0.012296972
000240 f9 16 00 bc 35 89 59 bc 4a ce d1 bb 70 37 2c 3b
       -0.007817977 -0.013277342 -0.0064027654 0.002627816
000250 07 68 c9 b8 11 24 75 bb 84 f3 16 3b 32 2b 4b bb
       -9.6038035e-05 -0.003740553 0.002303333 -0.0031001088
000260 b0 58 dd ba a6 60 bf ba 74 07 4a bb ec 7c be b9
       -0.0016887393 -0.0014600947 -0.0030827196 -0.00036332698
000270 63 5a 32 bb 1f c6 8c bb e5 8a 73 bb 85 bf 53 bb
       -0.002721452 -0.004296079 -0.0037161645 -0.00323102
000280 54 93 06 bc 7f 31 ce 3c 41 7d 62 3b 10 93 44 3b
       -0.008213837 0.025170086 0.003455952 0.0029994883
000290 40 8e 8a 3c 0b 07 a7 3b a3 65 68 bc d3 e0 64 bc
       0.016913533 0.005097275 -0.014184388 -0.013969618
0002a0 b6 16 25 3b 6f d3 93 bb e2 7f 22 bb 68 46 a7 3c
       0.0025190539 -0.004511289 -0.0024795462 0.020419315
0002b0 93 df c4 bb 0d 58 05 3c 9e cf bb 3b 2e ea 81 3c
       -0.0060080974 0.008138669 0.005731537 0.015858736
0002c0 32 70 23 3c 04 3f fe bb 68 6e 9f 3c 79 b3 62 bb
       0.00997548 -0.007758977 0.019461825 -0.0034591837
0002d0 26 bd b3 bc a3 cd 11 bb a1 aa cd bb 05 ae 34 ba
       -0.021940779 -0.0022247813 -0.006276444 -0.0006892386
0002e0 61 06 9b bc 60 5a 82 3a 60 16 80 ba 8f 9e 74 bb
       -0.01892394 0.0009945147 -0.0009772293 -0.0037325954
0002f0 8a 00 7e bb 41 41 d4 3a f8 d1 3f 3b 8a a8 1a bc
       -0.0038757646 0.0016193764 0.0029269438 -0.009439597
000300 59 42 1c bc ed 2d 85 3c 89 42 42 3c 7d a4 ec bb
       -0.009537303 0.01625725 0.0118566835 -0.007221757
000310 0d 76 25 ba 2f c6 f9 3a 53 fb 91 39 8f af 08 3c
       -0.00063118414 0.0019056256 0.00027843806 0.008342638
000320 78 a1 2f bc d5 87 8f bc cd 7a d9 bb cf 3a 74 3b
       -0.0107196495 -0.017520824 -0.0066369534 0.0037266498
000330 74 04 b7 3b 17 a0 6a b9 8e ff 07 3c 98 16 08 bc
       0.0055852477 -0.00022375617 0.008300675 -0.008306168
000340 f6 27 69 3b f0 09 a3 3b ca 5c 0d 3b 64 1f 76 3b
       0.0035576797 0.00497555 0.00215702 0.0037555331
000350 b1 b8 25 3b 98 9d 36 bc eb 30 53 bb 4d e4 52 bb
       0.0025287087 -0.011145972 -0.0032225202 -0.0032179535
000360 b7 c5 00 bb 39 0d 33 3a 9b b9 51 bc 4e f8 3e bc
       -0.0019649097 0.00068302784 -0.012800599 -0.01165588
000370 6a de 58 3c 61 87 36 bb b9 82 27 bc 04 0b 2a bb
       0.013236621 -0.0027851688 -0.010224038 -0.0025946507
000380 25 a7 23 bb dd 92 20 3c 55 71 1d b9 fe 0b 8e bc
       -0.0024971452 0.00980064 -0.00015014906 -0.017339703
000390 b7 fd a5 bb ca ef 61 bb 0d ff 4a 3c d6 d4 1b 3b
       -0.0050656456 -0.00344752 0.01238991 0.0023777983
0003a0 b2 24 ff bb f7 33 36 3b 95 69 3a bc 6e 1a 95 3b
       -0.007786357 0.002780197 -0.011377712 0.00455027
0003b0 1d 04 13 bb 85 ac 01 bb ea cc 04 bc f3 8b 84 3c
       -0.0022432872 -0.0019786668 -0.008105496 0.016180014
0003c0 55 59 95 3c 36 f2 0e 3b 10 d5 f2 bb f6 46 51 bc
       0.018231073 0.002181185 -0.007410653 -0.012773266
0003d0 60 55 58 bc 50 49 fd 3b 8d dc 88 3b 92 7f 8f bb
       -0.013203949 0.007729687 0.0041766823 -0.0043792212
0003e0 96 66 2a bc 05 de 4a bc 3e 3e 16 3c 28 33 d6 bb
       -0.010400435 -0.012382035 0.009170113 -0.00653686
0003f0 a2 12 3a bc 1f de aa bb a8 ba 3b bc 17 5a 1c bc
       -0.0113569815 -0.005214467 -0.011458077 -0.0095429635

bu1 f4 [64]
000000 40 e9 e3 ba 7d 0e e4 ba ae f4 c6 ba d6 fb cb ba
       -0.001738824 -0.0017399337 -0.0015179121 -0.0015562724
000010 6f 04 e4 ba 56 04 cc ba 57 f0 e3 ba 46 ef c6 ba
       -0.0017396341 -0.0015565257 -0.0017390352 -0.001517751
000020 0b f5 e3 ba 6d fb e3 ba c3 ee e3 ba aa f9 e3 ba
       -0.0017391754 -0.0017393656 -0.0017389882 -0.0017393131
000030 6b fa e3 ba f1 fc c6 ba 9f ea c6 ba 61 01 e4 ba
       -0.0017393356 -0.0015181584 -0.0015176124 -0.001739543
000040 2a e9 c6 ba c5 f8 c6 ba fa f4 c6 ba c6 12 e7 ba
       -0.001517569 -0.001518034 -0.001517921 -0.0017629496
000050 26 fe e3 ba 6a fc e3 ba 98 05 e4 ba 70 e8 c6 ba
       -0.0017394468 -0.0017393951 -0.0017396687 -0.0015175473
000060 31 f8 c6 ba 3b 58 55 ba ec 02 e4 ba f2 1a a0 ba
       -0.0015180168 -0.00081384525 -0.001739589 -0.0012215062
000070 3c f8 c6 ba da fc e3 ba ad f8 e3 ba f5 f7 e3 ba
       -0.0015180181 -0.0017394081 -0.0017392837 -0.0017392623
000080 05 f0 e3 ba 48 f8 e3 ba 4b 02 e4 ba e1 ea c6 ba
       -0.0017390257 -0.0017392719 -0.0017395703 -0.00151762
000090 c5 c8 cb ba 06 f5 c6 ba d3 04 e4 ba 1c f7 c6 ba
       -0.0015547505 -0.0015179224 -0.0017396457 -0.0015179846
0000a0 d6 f0 c6 ba ee f3 c6 ba 7a fc e3 ba 45 f5 c6 ba
       -0.0015177976 -0.0015178898 -0.001739397 -0.0015179297
0000b0 a8 fe e3 ba ed fc e3 ba 17 fb cb ba 09 ff e3 ba
       -0.0017394619 -0.0017394103 -0.0015562502 -0.0017394732
0000c0 df 04 e4 ba b8 06 e4 ba 2f f6 e3 ba 99 fd e3 ba
       -0.0017396471 -0.0017397022 -0.0017392094 -0.0017394304
0000d0 7c e5 cb ba f7 f7 e6 ba 00 05 db ba 33 f1 e3 ba
       -0.0015556063 -0.0017621507 -0.0016709864 -0.0017390609
0000e0 86 ed c6 ba 38 ec e3 ba c7 01 e4 ba 3f eb c6 ba
       -0.0015176989 -0.0017389124 -0.0017395549 -0.001517631
0000f0 59 ed e3 ba 89 f7 e3 ba 41 f2 e3 ba f5 f6 e3 ba
       -0.0017389461 -0.0017392497 -0.0017390923 -0.0017392325

bu2 f4 [4]
000000 a3 3f af 3a 9a cd 56 bc e3 2e ef 3a b9 8c 9f 3c
       0.0013370406 -0.013110543 0.0018248226 0.019476281

sf_fc1.weight f4 [256, 5]
000000 a9 f1 4c 3e d6 3c 01 3e 86 25 a6 3d 1e 36 bc bd
       0.20014061 0.12620863 0.08112626 -0.091900095
000010 29 39 a7 bd 6f 7b d3 3d 02 73 27 3e ca 10 09 bd
       -0.08165199 0.103262775 0.16352466 -0.033463277
000020 88 1b d5 bd 3f fb 1e bc 10 50 d3 bb f8 a5 91 3d
       -0.10405642 -0.009703456 -0.006448753 0.07111734
000030 b9 1a 91 3c 0c e6 06 be 25 7a 0a 3e 2a 5d b9 3d
       0.017712938 -0.13173693 0.13523157 0.09050973
000040 c3 05 33 bc 9e 3e 04 3e 27 b6 27 3d 3e 82 b0 bd
       -0.010926667 0.12914512 0.0409452 -0.08618592
000050 73 44 07 be 83 1a 3a 3e 7c 53 35 bd cb 16 03 3e
       -0.13209705 0.18174176 -0.04426907 0.12801664
000060 6e dd c3 bc 7e 31 02 be 16 43 c4 3c d6 c2 c5 3b
       -0.023909297 -0.12714192 0.02395777 0.006035189
000070 a5 60 e3 bc d9 c3 54 bc e5 87 aa 3d f5 da f5 bd
       -0.027756045 -0.012986147 0.08326701 -0.12004653
000080 a5 c2 08 be 73 9e 8b 3d 54 a8 f7 3d 1c 10 de 3d
       -0.13355501 0.06817331 0.12092653 0.10842916
000090 a8 5d b3 3c bd f5 90 3d 91 06 15 bd 83 f7 b1 3d
       0.021895245 0.07078121 -0.036383215 0.08689787
0000a0 42 b3 8d 3d 38 d3 9c bd 3d 77 9a 3d f1 f3 69 bd
       0.06918956 -0.07657474 0.07542274 -0.057117406
0000b0 34 72 00 3e 8e cf 1f be fe 24 16 3e f2 56 31 be
       0.12543565 -0.1560652 0.14662549 -0.17318323
0000c0 1e 84 16 3b 25 8c 9c bc 17 dc b4 bd a3 fa fd bd
       0.0022966932 -0.019109795 -0.08831041 -0.12401321
0000d0 6b 0b 2c be 97 8f 08 3c 10 b6 36 3c 14 86 33 3d
       -0.1680123 0.008335016 0.0111518055 0.04382904
0000e0 10 f1 81 bd b1 8e d9 3d b8 43 d4 3d 13 70 e4 3d
       -0.06344807 0.10622919 0.10364479 0.11154189
0000f0 06 1b 44 be ac 4c 14 3e 33 cb 6c bd ec 93 aa bd
       -0.19150934 0.14482373 -0.057810973 -0.08328995
000100 97 bb 9e bb 08 01 41 3d 2b 42 b9 bc f2 c4 fd bd
       -0.00484414 0.047120124 -0.02261456 -0.1239108
000110 1f fb ff bd c3 9b cd bd 91 28 ad 3d de 60 93 bd
       -0.124990694 -0.10039475 0.08455003 -0.0719621
000120 35 1e 55 be ad d5 02 bd 9e a0 da 3d 63 90 f2 bd
       -0.20812304 -0.03194206 0.106751665 -0.11843946
000130 af 5f 22 bd 62 c4 ea 3d 35 91 80 bd 58 85 c7 bd
       -0.039642032 0.11463238 -0.06277696 -0.0974223
000140 ff 04 9e 3d 8e 7b 14 bc 7b d2 ff 3d c1 30 5b bd
       0.07715797 -0.009062661 0.12491318 -0.053513292
000150 d0 70 8a 3d cc e0 07 be e0 19 90 bc c9 87 ba 3c
       0.067597985 -0.13269347 -0.017590463 0.022769826
000160 46 ad a9 bd 01 8e bf 3d 4d 7d bb bb 9f ee 0f bd
       -0.082850024 0.09353257 -0.005721724 -0.035139676
000170 29 69 8d bd 21 3a 11 be ca 79 0e 3e 99 78 f5 3d
       -0.06904823 -0.1418233 0.13913646 0.11985893
000180 56 0b 88 3d 80 fa 2b be 44 19 fc 3d 5e 54 8e 3d
       0.06642787 -0.16794777 0.123095065 0.069496855
000190 80 61 05 bd 2e c1 d2 bd 97 82 de 3d 76 01 1a 3c
       -0.032563686 -0.10290752 0.10864752 0.009399762
0001a0 18 d7 68 3d 34 11 13 3e d5 41 9c bc 11 fe 88 bd
       0.056845754 0.14362031 -0.01907436 -0.06689084
0001b0 22 f0 01 3e da e4 2c be 3d 8c e7 bd 11 04 02 be
       0.1268926 -0.16884175 -0.11306045 -0.12696864
0001c0 d6 e5 af 3c 70 22 bd 3d a2 d8 33 3d d9 62 52 bd
       0.021471899 0.09235084 0.04390777 -0.0513638
0001d0 9b bc ac bd c9 b7 9e bd 38 c2 39 bd 0c 1e e9 ba
       -0.08434411 -0.07749898 -0.045351237 -0.0017785444
0001e0 54 63 dd 3d 77 f4 b3 bd b4 cb a7 3d ed b1 d1 3d
       0.10809961 -0.08786862 0.0819315 0.10239015
0001f0 08 5a c5 bd 9f 75 70 3c e5 bc ee bd be d8 b3 3d
       -0.09636313 0.014676481 -0.116571225 0.08781575
000200 20 ae a1 bd cf 25 47 3d 36 c7 13 3e 34 60 82 3d
       -0.0789454 0.04862004 0.14431462 0.063660055
000210 39 51 64 bb fa 88 bb bd e6 de 77 3c c8 69 19 3e
       -0.0034838452 -0.091569856 0.015128827 0.14981759
000220 e5 8d ba bb 43 aa bd bc de 49 51 bd 1f 8b 5b bd
       -0.0056931847 -0.023152476 -0.051095836 -0.053599473
000230 f6 11 ad bd e8 57 4d 3d 56 fd ef bc 49 32 2e bd
       -0.084506914 0.050132662 -0.029295605 -0.042528424
000240 8f 6b 0f be 5c 56 8b bd 8d ce 94 bc 07 c3 0d 3e
       -0.14005874 -0.06803581 -0.018164897 0.13843928
000250 0f 80 62 bd 6d c2 5d bd ec 3c f0 3d 4e e8 1f 3e
       -0.055297907 -0.054140497 0.1173037 0.15615961
000260 17 ba 12 3c 3a ad eb 3a ae 7f dd bd 99 13 70 3d
       0.0089555 0.0017980703 -0.108153686 0.05861244
000270 89 52 00 3e fd 78 61 3d fc ea 9e 3d a8 dd b0 3d
       0.12531485 0.055047024 0.077596635 0.086360276
000280 ca a6 3b be a4 58 db 3d 69 54 2a 3d 57 e0 c8 3c
       -0.18325344 0.10710266 0.041584406 0.024521036
000290 4a ea 09 be 73 77 4d 3c 71 f2 ca 3d a6 9c 62 3c
       -0.1346828 0.012540686 0.09909523 0.013831293
0002a0 78 bb 0a be a2 b8 80 bd 69 f1 e0 bc 7a 71 e5 bd
       -0.13548076 -0.06285216 -0.027458863 -0.112032846
0002b0 52 b3 f9 3c 59 88 fe 3c 5c 7c 0d be dc cb 02 be
       0.030481014 0.031070875 -0.1381697 -0.12773079
0002c0 d6 16 e0 bd 01 dd 0e 3e 9b 51 8b bd 67 8d e7 bd
       -0.109418556 0.13951494 -0.068026744 -0.11306267
0002d0 b1 1b d2 bd d3 83 db bd 6e 08 6e bd 10 72 d7 3d
       -0.10259188 -0.10718503 -0.058113508 0.105198026
0002e0 9e 6a 86 3c 0d 4c 14 be b3 0d a3 bc 93 de ea bb
       0.01640826 -0.14482136 -0.019903993 -0.007167646
0002f0 11 a1 a1 bd 3e 48 ff bc c7 3d 20 3e 48 e1 e9 3c
       -0.07892049 -0.031162377 0.15648566 0.028549805
000300 64 d8 3c 3e 7d d0 69 3d ff 39 d2 3d 35 d5 89 bd
       0.18441921 0.057083596 0.10264968 -0.06730119
000310 c1 8d af bd 51 a1 34 be 95 d5 df 3d d6 e7 b6 bd
       -0.08571959 -0.17639662 0.109294094 -0.08930938
000320 fa 1d 9c bc 7e 84 12 3e 29 de 8d bd 9b 65 8e 3d
       -0.019057263 0.14308354 -0.06927139 0.069529735
000330 93 2a 52 3d 19 e5 53 bd 9c 97 8f 3d a9 6e d2 3d
       0.051310133 -0.051732156 0.07011339 0.10275013
000340 8f 9e 05 3e f7 a8 54 3d f0 b7 44 3e ad e4 ad bd
       0.13048767 0.05191895 0.19210792 -0.08490882
000350 c8 6d 07 3e a1 42 a6 bd a9 5d 87 bd 4c 06 38 bd
       0.13225472 -0.08118177 -0.06609661 -0.04492788
000360 3d 40 d3 3d 98 06 a7 3d dc ea fd 3d aa 1e db 3c
       0.10314987 0.081555545 0.123983115 0.02674802
000370 ca f8 c0 3c 8b 65 f8 bc 3b 6d 1f 3e b4 41 d7 3d
       0.023556132 -0.030321857 0.15569012 0.10510579
000380 f2 7f 96 bd c4 ce 54 3d 0e 88 db bd 2b 6a 4f bd
       -0.073486224 0.051955 -0.1071931 -0.05063836
000390 1b 0e 86 bd a0 d6 0d 3d a1 05 85 bd a4 48 63 3d
       -0.06545659 0.03462851 -0.06495214 0.055489197
0003a0 39 48 06 bd 92 f8 ea 3b 5e d4 96 bd 67 de 6c bd
       -0.03278372 0.007170745 -0.073647246 -0.057829287
0003b0 01 d2 ce 3d 74 0a c2 bd 75 81 ac bd ea 8f 1f be
       0.10098649 -0.0947465 -0.084231295 -0.15582243
0003c0 c6 2e 1f 3d 65 3c bd 3d 79 9c 9b bd 84 66 1c 3e
       0.038862966 0.09240035 -0.07598204 0.15273482
0003d0 4f 77 8f 3d ee 68 38 3e a5 11 51 bd 56 ec 8a bd
       0.07005178 0.18008777 -0.051042218 -0.06783359
0003e0 36 89 af 3d b9 28 0a be 5d 0a 25 be 40 d5 1e 3d
       0.08571093 -0.13492097 -0.16117235 0.03877759
0003f0 59 7c 32 3e 6c 08 d8 bd 2e c4 56 bd 9f 8c f1 bd
       0.17430247 -0.10548481 -0.052433185 -0.117943995

sf_fc1.bias f4 [256]
000000 25 b8 d2 3c 88 91 4b ba d8 ff 1f 37 36 f8 2c ba
       0.025722573 -0.00077655213 9.536707e-06 -0.00065982656
000010 49 90 01 3c 28 14 4d 3c f1 3a 3c 3c bf 50 29 bc
       0.007907935 0.012517013 0.011488662 -0.010334193
000020 12 fc f0 3b 04 a9 ef 3c dd 87 71 bc af e2 0b bb
       0.007354268 0.029255398 -0.014741865 -0.002134483
000030 24 88 7c 3c bc 62 31 3c 78 ec 8f bb a0 17 8a bc
       0.015413318 0.010826763 -0.004392203 -0.016856968
000040 4b 6d b9 3b 63 cf 0d bc b4 ec fb bc 22 03 08 bc
       0.0056587807 -0.008655402 -0.030752517 -0.008301528
000050 9c 38 30 bb 33 0c c7 3b 90 58 a9 3c ec fe 89 3c
       -0.002688921 0.0060744523 0.020672113 0.016845189
000060 b6 90 b9 3c 15 e1 9c 3c 97 a7 16 bb bd 66 d7 3c
       0.022652011 0.019150296 -0.0022988075 0.026294107
000070 0a e7 6c 3b 82 6b 68 3c be 01 9c 3c cb 14 e2 3c
       0.0036148452 0.014185788 0.0190438 0.027597805
000080 9d cc ec bc 7e e7 e3 3b 3e e6 05 3c c3 7b 24 3c
       -0.028906161 0.0069550863 0.00817257 0.010039273
000090 12 b6 cd b9 db 21 7a bc 66 38 16 bb 51 9b 28 3c
       -0.000392363 -0.015266861 -0.00229218 0.010290937
0000a0 96 e2 89 bc e3 c5 23 3c a1 c0 73 bb e4 81 bb 3b
       -0.016831677 0.00999591 -0.0037193673 0.0057222713
0000b0 c9 02 ac 3c 4c d7 54 3b 15 b4 a1 3b 6c b7 7f ba
       0.020997422 0.003247696 0.0049347975 -0.000975481
0000c0 8e e6 0e bc 49 ae 41 bc 18 65 9c 3c 90 52 98 bc
       -0.008721961 -0.011821338 0.019091174 -0.018594056
0000d0 41 01 3f ba ed 7e fc bc e8 44 11 bb 66 1e 87 bc
       -0.00072862586 -0.030822242 -0.0022166315 -0.016493987
0000e0 98 b3 56 3c e8 34 49 ba a6 31 36 bc da ee 18 bd
       0.013104342 -0.0007675425 -0.011120236 -0.03733716
0000f0 29 d1 f8 bb 53 4f 07 bd ba ad 80 3c b8 47 09 3d
       -0.007593293 -0.033034634 0.01570784 0.033515662
000100 68 5e ec bc 1f 84 f5 bc ba a8 69 bc a1 3c 2c 3d
       -0.02885361 -0.029970227 -0.014261419 0.042050008
000110 36 dc 6c 39 e3 90 09 bd dd 18 8e bc 76 6a aa bc
       0.00022588749 -0.03358544 -0.01734584 -0.020802718
000120 23 f7 a2 39 ca 01 a7 bc 48 bd 38 3c 2e 8b 69 bb
       0.0003108318 -0.020386595 0.011275597 -0.0035635936
000130 28 47 a5 3c 03 03 e4 3c e6 65 3c 3c 03 6e 1f 3d
       0.020175532 0.027833467 0.011498904 0.038923275
000140 fe f0 ee ba 23 8d 1d bb dd 0b 9f 3a 4d 02 90 3b
       -0.001822978 -0.0024040423 0.0012134273 0.0043948055
000150 c8 3b 14 3d 3c 66 c5 bb 49 55 89 3c ae 06 59 bd
       0.036189824 -0.00602415 0.0167643 -0.052984886
000160 77 f8 af 3b 82 e4 67 3b 13 52 69 3c 4f 8d 8e bc
       0.0053701955 0.0035384004 0.014240759 -0.017401366
000170 46 f5 16 3c 6f fe c3 3c 94 56 34 bc 65 49 7a bc
       0.009213751 0.023925034 -0.01100697 -0.015276288
000180 37 7b 85 3c 1e 06 7c bc 83 e6 30 ba f9 75 2d bd
       0.016294105 -0.015382318 -0.0006748216 -0.042348836
000190 e2 8d ab bc 21 ad be bc a5 c7 74 bc c5 0d 39 bc
       -0.020941678 -0.023275914 -0.014940177 -0.011294787
0001a0 c9 c9 8b 3c 4d 4e 4c 3c c1 0e 29 3b e8 c2 69 3c
       0.017063992 0.01246984 0.0025796148 0.014267661
0001b0 fe 33 cb bc 1a b9 7a bb 5a e1 15 bd 7a 05 19 bb
       -0.024805065 -0.0038257302 -0.036591865 -0.0023349212
0001c0 e5 92 bc 3c cf f5 55 3c 2e e3 62 bc 5e 93 92 bc
       0.023019264 0.013059094 -0.013848109 -0.017892536
0001d0 0b 4b 07 bd 8a 34 e6 bb 90 46 3b bc 18 4b ba 3b
       -0.03303055 -0.007025306 -0.011430398 0.0056852214
0001e0 c4 1d 82 bb a6 ca 17 bb cd 7e 38 3c 43 68 f8 3b
       -0.0039708335 -0.002316156 0.0112607 0.0075807883
0001f0 e7 68 a1 3a f7 4e 25 3c 93 65 09 bd 76 70 1f bb
       0.0012314589 0.0100896275 -0.033544134 -0.0024328507
000200 bb 6c 9b bb 33 0c b3 3b f7 62 ab 3b 66 27 12 3b
       -0.0047431863 0.0054641007 0.0052303034 0.0022301315
000210 20 e1 59 b9 67 e1 48 3c 1a a8 3e 3c d5 0e 33 3d
       -0.00020778598 0.012260771 0.011636758 0.043715317
000220 61 41 21 bd c6 36 2f bc b5 d7 14 3a fc 2e fa 3a
       -0.03936899 -0.010694211 0.0005677895 0.0019087489
000230 3f cc de 3c aa 0a de 3c fa 4f 21 3d e2 66 3c b9
       0.027197002 0.027104694 0.039382912 -0.00017967404
000240 f8 98 a1 bc 77 a0 12 bc 41 b4 b8 3b cd a2 f3 3c
       -0.019726261 -0.008949391 0.0056367223 0.029740715
000250 81 d0 2e b9 91 b7 16 bc ea 75 26 3c 85 e8 8b bc
       -0.00016671607 -0.009199039 0.010159949 -0.017078647
000260 4d 63 80 bc cc f1 1e bd 4c 64 a6 3a 97 f1 9f bc
       -0.01567235 -0.038804814 0.0012694686 -0.019524379
000270 4e 2b f0 3b 78 0d 9b 3c 87 03 6f bc 24 47 01 3c
       0.007329381 0.01892732 -0.014588243 0.007890496
000280 6b 35 45 3c 8c c5 2c 3a 66 c4 e1 3a 4d 26 05 3c
       0.012036662 0.0006590716 0.0017224669 0.008126807
000290 9f 6a 97 bb e7 77 e3 b8 f2 32 bf bb e8 69 11 3b
       -0.0046208645 -0.00010846537 -0.0058349306 0.002218837
0002a0 42 27 70 bc 00 2a 92 3c b8 a8 07 bd b4 be a2 3c
       -0.014657797 0.017842293 -0.033119887 0.019866325
0002b0 c4 54 34 3d a7 8c a1 3c 75 bf d3 bb af 0a 89 3c
       0.04402615 0.019720389 -0.0064620324 0.016728727
0002c0 4c 0f e5 3b f8 c0 8c 3b 4d 84 33 bc ea ae 60 bc
       0.006990349 0.0042954646 -0.010956836 -0.013713578
0002d0 55 4f fb ba 57 af 5b 3c dc 4b 42 bc ae 48 03 3d
       -0.0019173423 0.0134085035 -0.011858907 0.032051735
0002e0 7a 58 9e 3b 08 e4 0a 3d 4b 24 49 bc 6d 19 99 3c
       0.0048323246 0.033908874 -0.012276719 0.018688882
0002f0 77 74 75 ba 75 15 b7 bc 70 58 38 3c 9a 95 ab 3b
       -0.0009363363 -0.022349099 0.011251554 0.0052363398
000300 60 5a 67 3c 85 1f a0 bc 2f 49 6c bc 2c b5 16 3d
       0.014120668 -0.01954628 -0.014421745 0.036793873
000310 56 0b d0 ba 7f 9d 92 bb 2d df 69 3c 4e 2b c6 bb
       -0.0015872519 -0.0044743414 0.014274401 -0.006047643
000320 74 75 21 bd 31 84 ef 39 e6 85 4d bd f4 fa 0d 3d
       -0.039418653 0.00045684123 -0.050176524 0.034663156
000330 05 3e c8 bb f5 44 2e 3c d6 8b 06 3d cd 62 91 3c
       -0.006110909 0.010636558 0.0328482 0.017747307
000340 89 40 52 bd 21 7f 11 bb bc 78 5f 39 77 b5 93 3c
       -0.051331077 -0.002220102 0.00021311914 0.018030865
000350 0d 32 8c 3c 3a cf 5b 3c 06 9f 1e 3d 7a 0e 90 bb
       0.01711371 0.013416106 0.038725875 -0.004396257
000360 5e 18 25 bc d5 cd a8 3b 78 d7 bb 3b 70 09 1d bc
       -0.01007661 0.00515149 0.005732473 -0.00958477
000370 c0 a1 cf 3c 72 f6 9d bc f7 3e 1d bc 2c 16 e0 3b
       0.025345683 -0.019282553 -0.0095975315 0.0068385806
000380 17 9f aa 3b 62 ed 70 bc fa b1 43 3c 2b dc 23 bb
       0.0052069533 -0.014705034 0.011944288 -0.0025003057
000390 a1 e1 bd 3c 7f 5a 04 bd a0 1f 7c 3c 73 b4 2e 3c
       0.023178877 -0.032312866 0.015388399 0.01066314
0003a0 52 b6 bf bb b0 cb ea 3b 23 3c 05 bd 2d b4 c1 bc
       -0.0058505917 0.0071653947 -0.032528054 -0.023645485
0003b0 f4 95 03 bd 6f b4 c2 bc 4e 7c 53 3c 6f c2 c5 bc
       -0.03212543 -0.023767678 0.0129080545 -0.024140565
0003c0 90 5b 0c 3c 72 e9 7c ba a4 e8 42 bc b0 32 87 bc
       0.008566752 -0.0009647823 -0.011896286 -0.016503662
0003d0 8d bc 1d bd b1 6e d7 ba b8 16 93 3c 0a 1f 78 bb
       -0.038509894 -0.0016436187 0.01795517 -0.0037860298
0003e0 ef 2e 59 bc 0b 77 a5 bb 29 15 4a bb 7f 0c af 3c
       -0.013255819 -0.0050495914 -0.0030835366 0.021368263
0003f0 69 06 50 3c fd d5 ac bc 98 53 14 bc f4 7e 4e 3b
       0.012696841 -0.021098131 -0.009053133 0.0031508775

sf_fc2.weight f4 [256, 256]
000000 a4 e0 9c bd ad d8 40 bd 48 28 81 3d d2 14 95 bd
       -0.07660034 -0.047081638 0.06306511 -0.07279362
000010 7b e3 04 3e cf ae 0f bc e3 d0 33 bd 44 5c 1d bd
       0.12977402 -0.008769705 -0.04390038 -0.03841807
000020 b9 b1 7a 3c b7 32 5d bd 59 55 7e 3d df 55 65 bd
       0.015301161 -0.054003444 0.062093113 -0.055990096
000030 71 42 05 bd 03 e2 f6 bd 18 05 4d bb e8 8a 65 bc
       -0.032534067 -0.12054827 -0.0031283554 -0.014010169
000040 7e 7a 4a bc b9 a0 4c bd 18 ca 24 3d d5 95 90 3d
       -0.012358306 -0.049957965 0.040231794 0.07059828
000050 fd 94 5e bd 3f f2 5e 3d e1 db 67 3d b3 b3 69 bd
       -0.054341305 0.054430243 0.056606177 -0.05705614
000060 6c 52 e5 bb 15 84 63 bd 90 48 d9 3c 56 34 c7 bd
       -0.006998351 -0.055545885 0.026523858 -0.09726779
000070 75 8e 10 bd 77 c0 3c bd 99 51 de 3d a6 71 4d bd
       -0.035292108 -0.046081986 0.10855407 -0.05015721
000080 a6 23 ff 3c 0a 77 1a bd cb 6b fc bc 42 55 5d 3d
       0.031144928 -0.03771118 -0.030813118 0.054036386
000090 ee 35 75 bd 8e aa 8f 3c 18 3a 5e 3d 04 39 fd 3c
       -0.059865884 0.017537382 0.05425462 0.030910976
0000a0 7e 9d b7 3d be 3e b4 3d d0 e6 b2 bd 69 30 9f bd
       0.08965586 0.088010296 -0.0873543 -0.077729054
0000b0 bc 63 af bc b9 0c 91 3d 85 7c 8e 3d b8 fc c1 3d
       -0.021409862 0.07082505 0.06957344 0.094720304
0000c0 02 42 89 3d 76 8e c0 3d 84 27 d5 3d e9 d3 92 bd
       0.06702043 0.09402172 0.10407928 -0.07169325
0000d0 b4 95 b1 3c 37 e2 7b 3c cb 1a c8 bd 3c 01 56 bd
       0.02167783 0.015373758 -0.09770735 -0.05224727
0000e0 d9 90 55 3d bf 85 1c bd d3 24 d0 3c e8 c4 ef 3d
       0.05214009 -0.038213488 0.025408184 0.11707479
0000f0 27 fe 00 be 63 89 92 bd 11 b0 8c 3d f5 e2 4b bd
       -0.12596951 -0.07155111 0.068695195 -0.04977699
000100 3e 25 8f 3d 67 19 d5 3d 6e 98 c2 3d c9 3c c8 bc
       0.06989525 0.10405236 0.0950173 -0.024443047
000110 99 61 51 3b 61 7d 9d 3c ec 34 7b 3d 70 97 b1 bd
       0.0031949042 0.019224824 0.061329767 -0.086714625
000120 87 ce 09 3e 12 f2 26 bc fa 05 d2 bb fe 00 15 bd
       0.1345769 -0.01018955 -0.006409404 -0.0363779
000130 dd e9 ba 3c 71 ae b2 3d e9 c4 e8 3d 40 3f 2d 3d
       0.022816593 0.08724678 0.11365683 0.042296648
000140 82 2a 1a 3c f0 2e 4e 3c af 2a bf 3d 12 dc 44 3d
       0.009409549 0.012584433 0.09334313 0.048061438
000150 74 6e a5 3d 84 0f e3 bc cf 11 b4 bc 9f ca 1d 3d
       0.08077708 -0.02771736 -0.021981148 0.038523313
000160 8c 08 7e bd 75 37 35 bd fd d2 42 bd 97 4c b1 3d
       -0.06201987 -0.04424234 -0.047564495 0.086571865
000170 93 3b b0 3d db 7e 36 bd cf 41 84 bd 8f 41 c0 bd
       0.08605113 -0.044554573 -0.064578645 -0.09387504
000180 25 a2 51 bd 19 3c 57 3d dc 63 97 3d bb ce d7 3d
       -0.051180024 0.052547548 0.073920935 0.105374776
000190 2d b5 bb bd 33 d7 fc bc 98 a8 2a bd 7b ad e5 3d
       -0.09165416 -0.030864334 -0.04166469 0.112147294
0001a0 a9 d6 69 bd 90 c2 12 3d 60 e1 31 bd d6 51 9c 3d
       -0.05708948 0.03583008 -0.043427825 0.076327965
0001b0 f1 8e 89 3d 5d 9b ca 3d d1 a4 cb 3d 22 f0 eb bd
       0.06716717 0.098929144 0.099435456 -0.11520411
0001c0 34 ce eb 3c ac 13 4b 3d 45 68 0a bd 85 63 01 3e
       0.028784849 0.049579307 -0.033790845 0.1263562
0001d0 08 7a a8 3d 5b 89 c3 bd 71 00 08 3d ef 12 2e bd
       0.082264006 -0.09547683 0.033203546 -0.042498525
0001e0 95 8e 7b 3d 63 85 be 3c fe 08 e8 3d 2c dd d9 3c
       0.061415274 0.023256963 0.1132984 0.02659472
0001f0 c3 19 9a 3d 1e a5 41 3d d5 1e 47 3d cb 62 7f bd
       0.07524445 0.04727661 0.048613388 -0.062350076
000200 d3 3f 0b bc 44 a6 27 3d c0 da 85 3d fe ad 96 bd
       -0.008499104 0.040930048 0.06535864 -0.07357405
000210 d9 f5 3f bd 08 33 e9 bd 7f 28 b3 bd 81 b0 d6 bd
       -0.046865318 -0.113866866 -0.087479584 -0.10482884
000220 59 c6 b7 3d 14 ba a2 3c 31 3e dd bc cf c9 a4 bd
       0.08973379 0.01986412 -0.027007194 -0.080463044
000230 56 7d 50 bc 4c 7a 0c bc 9a f0 df 3c 60 a6 54 bd
       -0.012725195 -0.00857408 0.027336407 -0.05191648
000240 f4 e7 40 3d c6 87 6e 3d 79 54 9a 3d c0 7d 1a 3e
       0.047096208 0.058234952 0.07535643 0.15087032
000250 b2 25 72 3c 21 ce e5 3d 61 01 31 bd 31 00 ea 3d
       0.014779495 0.112209566 -0.043214206 0.11425818
000260 e7 d5 6c bb 40 0d 3a 3d 34 a8 3b 3c ec dc 8f bb
       -0.0036138238 0.045422792 0.011453677 -0.0043903496
000270 52 d0 a0 bd 77 db a3 3d 78 1e bb 3d 35 df 4d 3c
       -0.07852234 0.08000844 0.09136671 0.012565424
000280 53 d9 bb 3d 29 71 89 ba ca 96 c0 3c 5f 02 2f 3d
       0.09172311 -0.0010485995 0.023509402 0.04272687
000290 4a 9a c1 bc 06 9f c7 bd 68 cd d2 3d 5f 5b b5 3c
       -0.023633141 -0.09747128 0.102930844 0.022138296
0002a0 ed a7 24 bd 88 82 f5 bd 28 13 06 bc 18 28 1e 3d
       -0.04019921 -0.119877875 -0.008183278 0.038612455
0002b0 68 6f 3a 3d 5e a9 23 bd 2f 98 22 bd 55 f1 3f bd
       0.0455164 -0.039956443 -0.039695915 -0.04686101
0002c0 f1 3b c7 bd ea 8b 8c bb a6 f5 c5 bd 0e 9b 7d 3d
       -0.0972823 -0.00428914 -0.09665994 0.06191545
0002d0 03 51 02 be cb d3 67 3c db 0c 50 bd b4 fb a8 3d
       -0.12726216 0.0141496165 -0.05079351 0.082511336
0002e0 8a 66 c6 3c e2 a1 9d bd b5 26 77 bd a4 b7 22 3d
       0.024218816 -0.07696892 -0.06033965 0.039725915
0002f0 5b 22 dd bd 19 ec bf 3d 02 c3 18 3d fd a8 aa 3b
       -0.107975684 0.09371204 0.03729535 0.0052081333
000300 62 a7 e8 3d 0d 86 be bd 13 65 1a bd 42 89 d2 bd
       0.11360051 -0.09302912 -0.037694048 -0.10280086
000310 03 8c d3 3d 63 03 0c 3e ee db 6d 3b 87 83 de bd
       0.103294395 0.13673167 0.0036294418 -0.108649306
000320 f5 d6 84 bd 83 d8 dc bd 5a e9 8e bd 1f 89 a5 bd
       -0.06486312 -0.10783484 -0.06978102 -0.080827944
000330 21 b2 6b bd 69 10 7a 3c 53 73 61 bd a6 25 3b 3d
       -0.057542924 0.015262702 -0.055041622 0.0456902
000340 52 73 dd bd b4 83 af 3d 68 6f 69 bd 29 77 66 3d
       -0.10813011 0.08570042 -0.05699101 0.056265984
000350 6f 38 b3 bd 37 30 81 3d fd a0 a4 bc 85 75 a3 3d
       -0.08750998 0.063080244 -0.020096296 0.079813994
000360 01 c6 86 bd a6 33 06 bd ad be 94 3d 54 f7 3c 3d
       -0.06580735 -0.0327641 0.07262931 0.046134308
000370 b3 63 d3 bd 34 15 ba bd 8c d8 71 3c 37 13 dd ba
       -0.103217505 -0.090860754 0.014761101 -0.0016866688
000380 92 5e af bd a4 b4 0c 3d 98 c3 04 bd 5c 28 11 3d
       -0.0856296 0.03435196 -0.032413095 0.03543888
000390 ca 39 86 bd 3b 59 aa bd 46 7b de 3d 64 82 25 bd
       -0.06553991 -0.083178006 0.10863356 -0.040407553
0003a0 86 7d 3a bd c3 49 84 bd a6 99 ea 3d 62 1e a6 3c
       -0.045529865 -0.064593814 0.11455087 0.02027816
0003b0 f3 d1 0b 3d 37 a9 8c bd f0 9d cd bd 37 fd a1 bd
       0.03413577 -0.06868213 -0.1003989 -0.07909625
0003c0 88 17 7c 3d a5 a1 11 bd 84 37 c2 bd fa 64 c1 3c
       0.06154588 -0.035554547 -0.09483245 0.02360772
0003d0 ba 08 48 bd 9e 65 5e bd 94 f6 ac 3d dd 67 71 bd
       -0.048836447 -0.05429613 0.084454685 -0.058936942
0003e0 5d 95 da 3c 27 14 ec 3c d5 47 f2 3d bb 07 a6 3c
       0.02668255 0.028818203 0.11830107 0.020267358
0003f0 bc 70 20 3d a9 21 15 ba 94 38 2d 3d f4 43 ba 3d
       0.039170012 -0.00056889147 0.042290285 0.09094992

sf_fc2.bias f4 [256]
000000 5d 52 f3 3b 5a b5 16 bc 3b d8 00 bc 93 42 b2 3c
       0.00742559 -0.009198511 -0.007864053 0.02176026
000010 52 44 58 3c 40 56 47 bb e7 b6 49 bc 23 c2 74 3c
       0.013199883 -0.00304164 -0.012311674 0.014938864
000020 0e d6 27 bc d0 07 21 3c 68 7b a7 3c 7e 4a 90 bc
       -0.010243906 0.009828523 0.020444587 -0.017613646
000030 e3 7a a5 3b 57 c5 30 bc 5a ab 35 3c 00 27 85 bb
       0.0050500496 -0.010789237 0.011088217 -0.004063487
000040 a2 16 42 3c 48 d7 ed 3c 95 22 bc 3b a3 d9 2f bc
       0.011846216 0.029033318 0.005741427 -0.010733041
000050 f2 e7 0a bc 5c f1 9a 3c cd 90 a2 bb ac 7a 56 3c
       -0.008478152 0.018913917 -0.0049611093 0.013090771
000060 f1 71 33 bb a2 31 12 bb 3d 08 5b bc 24 ca c3 3c
       -0.0027381147 -0.0022307415 -0.013368663 0.0239001
000070 a3 c6 bd 3b c1 9f eb bb 49 8f 8b bc 64 c8 fa 3b
       0.0057915016 -0.007190675 -0.017036097 0.007653283
000080 71 16 b9 3c 40 7a da 39 55 3e 78 3c f5 4f 5b ba
       0.022593709 0.00041671284 0.01515158 -0.00083661015
000090 c3 63 99 3c 6a 60 26 3c 8b 4b 25 3c 51 8a 18 3a
       0.018724328 0.010154823 0.010088812 0.00058189506
0000a0 f8 92 89 3c bb 1f b7 bc a6 e8 bd 3c 7c c7 2c 3c
       0.016793713 -0.022353997 0.023182224 0.010545608
0000b0 8a 7f f0 bc 28 aa bb b9 5b 08 5a 3c fb 0f 99 3a
       -0.02935769 -0.00035794196 0.013307656 0.0011677736
0000c0 88 aa ee 3b 68 91 35 bb cc 5c 1c 3d 04 dc db 3c
       0.0072835125 -0.0027705077 0.038174435 0.02683831
0000d0 5d 0b 5a 3c 14 05 f7 bc 80 7b 06 3c 3c a5 a7 3c
       0.013308373 -0.030153789 0.008208156 0.020464532
0000e0 a0 bc 77 3b 23 01 c3 3c dd c0 36 bc 74 7e dc 3c
       0.0037801638 0.023804253 -0.011154381 0.026915766
0000f0 71 ff 21 3c bc 10 09 3b ff 39 6e ba 92 f4 20 3c
       0.009887562 0.0020914515 -0.00090876216 0.009823935
000100 38 9f 97 3c 30 b9 fd 3c 3c 79 9d 3b ea 77 4f bc
       0.018508539 0.030972093 0.004805712 -0.012662867
000110 54 9e eb ba b3 ed e4 bb 59 1a a9 3c ee d0 43 bc
       -0.0017976263 -0.006986344 0.020642446 -0.011951668
000120 bd 5a a3 3c 62 02 5c 3c bd 0d 7a 3c f6 0d c1 bb
       0.019940728 0.0134283025 0.0152620645 -0.005891557
000130 7d 6c c9 3c 88 8e f8 bb 58 03 3e bc 89 fb 86 3c
       0.024587864 -0.0075853504 -0.011597477 0.016477363
000140 ad 26 f4 bb 1a 1c 13 3c 1d 17 77 3b 02 e0 fa bb
       -0.0074508996 0.008978868 0.0037702986 -0.0076560983
000150 09 18 05 3c e8 54 1b 3c e6 21 05 3c c5 f2 8b bc
       0.008123406 0.009480692 0.008125758 -0.017083535
000160 6b 53 f5 bb 68 b2 34 bc 22 18 11 3c fa be ba bb
       -0.007486751 -0.0110288635 0.008855851 -0.0056990357
000170 25 24 80 3c 4d 8c 54 3c a8 8c ab 3c 34 3e fb 3c
       0.015642235 0.012972903 0.020941094 0.03066931
000180 45 8d 82 3b cf 6a 05 bc f2 16 ec 3c 21 4b 6e bc
       0.003984126 -0.008143141 0.028819535 -0.014544279
000190 93 48 5c bc fd ff 82 3b 3c ed c4 39 5b 5c dd 3c
       -0.013445037 0.0039978013 0.00037560787 0.027021578
0001a0 07 e7 b2 bb 1c 57 55 bc 31 b0 8c bb 1f 21 a0 3c
       -0.0054596695 -0.013021257 -0.0042934646 0.019547043
0001b0 75 2a b4 3c 50 1d 93 bc bf d2 47 3c 7a da 29 bc
       0.021992901 -0.017958313 0.012196242 -0.01036703
0001c0 0f 6c 8c bc 6e 13 cc 3c 93 ba da 3c ce 64 af bb
       -0.01714137 0.024911609 0.026700294 -0.005352593
0001d0 81 4c 33 bb 41 91 b0 3c 7f 5f 7c 3c 0f d4 9e 3b
       -0.0027358832 0.021553637 0.015403627 0.0048470567
0001e0 ef a3 47 3c 7c e3 96 bc 0f 18 e4 ba 5b 86 4b bc
       0.012185081 -0.01841902 -0.001740219 -0.01242217
0001f0 c4 9d 33 ba 4f a5 f1 3b 57 8f 92 3c c4 32 05 3d
       -0.0006851817 0.0073744426 0.017890615 0.032519117
000200 4c 68 22 3c 39 a2 63 3c dc 30 fa 3c c1 a6 5e 3a
       0.009912562 0.013893657 0.030540876 0.0008493476
000210 6f ff 45 bc 2a 8c 8b 3c ec e0 e7 3c 6c aa 4f bc
       -0.012084826 0.017034609 0.028305493 -0.012674909
000220 ff e5 4f bb 4a c3 47 bc 74 e1 d6 3c ea ae 28 bc
       -0.0031722782 -0.012192557 0.026230551 -0.010295609
000230 bd ff 5f bb 49 63 2b 3c 88 37 d9 3c ac 44 05 3c
       -0.0034179532 0.010460683 0.026515737 0.008134048
000240 cb 4a 43 3c 2f 30 b8 3c 4c f9 83 3b 2b d4 61 bb
       0.0119196875 0.022483913 0.0040275212 -0.0034458737
000250 16 1c f6 bb 6e c0 84 bc 45 02 a1 3c 55 e6 f2 ba
       -0.0075106723 -0.016205039 0.019654403 -0.0018531779
000260 ff 4b 40 ba b1 a0 d0 3c 3b a1 ea 3c dc dc 64 3c
       -0.0007335543 0.025467249 0.028641334 0.013968673
000270 88 79 b9 bb 31 12 b4 3c a8 39 3c 3c c9 c9 4e 3c
       -0.0056602396 0.02198133 0.011488356 0.0126213515
000280 99 82 81 bc 3e a2 f5 3a 14 9a a4 3c 90 09 d2 3c
       -0.015809344 0.0018740369 0.020093001 0.025639325
000290 36 3a 0e bc e8 bf fd ba 7d 67 df 3c 26 4a 2a bc
       -0.008680871 -0.0019359561 0.027271027 -0.010393655
0002a0 4f 87 a7 bb d3 ff 00 bb 65 c9 80 bc 77 10 97 bc
       -0.0051125656 -0.0019683733 -0.015721032 -0.018440468
0002b0 44 18 cc 3c 5d 93 ea bb 18 18 34 3c a9 08 cc 3c
       0.024913915 -0.0071586804 0.0109920725 0.024906473
0002c0 af 2e 54 bc f1 60 eb bb 19 7e 38 bb dc 39 a9 3c
       -0.012950583 -0.007183187 -0.0028151332 0.020657472
0002d0 b4 85 3c 3b d9 c8 2d bc 92 d5 91 3c a9 ca b6 ba
       0.0028766217 -0.010606968 0.017802034 -0.0013945895
0002e0 0f 0b 1a bc 0c a9 29 3c 08 21 13 3c 83 77 44 3c
       -0.009402051 0.010355245 0.008980043 0.011991384
0002f0 49 cc 7a 3b 7a ab 5c bc 45 21 9d 3b 49 3a b3 3b
       0.0038268736 -0.013468618 0.004795226 0.0054695946
000300 5f 4d bd 3c bf 17 76 bc 1f 31 56 bb 98 86 2d bc
       0.023108182 -0.01502031 -0.0032683087 -0.010591172
000310 7c 12 b6 3b 54 5e 29 bc 5f 90 16 3c 10 41 b1 bc
       0.0055564027 -0.010337431 0.009189694 -0.02163747
000320 f0 e3 35 3b 06 4f 14 3c 4e 4d 87 3c 25 25 94 bc
       0.002775427 0.009052044 0.016516354 -0.018084118
000330 ac 48 84 3a 1a c9 af bb ae 2e 4c bc 01 83 c6 3c
       0.0010092459 -0.0053645493 -0.012462301 0.02423239
000340 8d 53 72 bb e5 68 9a 3c ee 6b 48 3c f9 62 af 3b
       -0.003697607 0.018848846 0.012232764 0.0053523746
000350 38 1f c1 3c e7 11 08 3c 08 7a dd 3b b0 9e dc bc
       0.023574457 0.0083050495 0.006758932 -0.026931137
000360 e8 25 ce bc 6b d0 2e bc 8b 87 3d bc aa 02 67 3b
       -0.02516456 -0.010669808 -0.0115679605 0.003524939
000370 bc 77 2f bc a4 7c c8 bb c2 43 9a 3c 56 89 d2 3c
       -0.010709699 -0.006118374 0.018831138 0.025700253
000380 2d 98 56 bc 63 ef da 3c 8d c8 40 bc 0c 29 6a 3c
       -0.013097805 0.026725477 -0.011766565 0.014292013
000390 60 62 f5 bb 0f 2a 9c 3c 0e c0 cd bc 1a c6 84 3c
       -0.007488534 0.019063024 -0.025115993 0.016207743
0003a0 d2 d9 2e 3c 57 2f 34 3c 4c ef 13 3d c0 83 2d bb
       0.01067205 0.010997615 0.036116883 -0.0026476234
0003b0 86 07 18 bc e1 1b 53 3c c7 7f 83 bb 50 56 10 3b
       -0.0092791375 0.012885065 -0.004013035 0.0022024103
0003c0 f9 9b 42 bc 10 d2 79 bb f5 f2 bd 3c e8 23 b6 bb
       -0.011878007 -0.0038119592 0.02318714 -0.0055584796
0003d0 32 f8 4e bb 32 b6 84 39 9c 95 c4 3c 88 be 38 bc
       -0.0031581041 0.00025312748 0.02399712 -0.011275895
0003e0 6a b1 69 bc 43 de 53 3c c0 b2 b2 3c 2f 18 94 3c
       -0.01426349 0.012931409 0.02181375 0.018077938
0003f0 7a c9 ee 3c 82 5c c6 3c df 69 00 bc 72 71 1b 3d
       0.029148806 0.024214033 -0.007837742 0.037949987
