results/cartpole/sac/20251207-223656/actor.pt (torch, 273521 bytes, 6 tensors)

fc1.weight f4 [256, 4]
000000 e8 77 30 bd 25 cf 9b 3e b7 cd c1 be 30 57 ef be
       -0.0430831 0.30431476 -0.3785226 -0.46746206
000010 eb 77 87 be 13 47 63 3c 27 02 a2 3d b0 27 e2 3e
       -0.26458678 0.013871926 0.07910567 0.44170904
000020 9f fd 8f bd a2 fc a0 3d 8b 18 83 be de 6f d8 bd
       -0.07030796 0.07860686 -0.25604662 -0.10568212
000030 98 5f f7 be f9 fc 8e be 92 58 1e be 65 a8 38 3d
       -0.4831512 -0.27927378 -0.15463474 0.04508247
000040 43 fb 79 3e 4e f8 c3 3e 1a 8d ab be f3 45 83 be
       0.24412255 0.3827538 -0.3350609 -0.25639305
000050 aa 12 3c 3e 26 21 ee 3e f2 44 9e bd d8 7f e1 3e
       0.18366495 0.46509665 -0.07727994 0.4404285
000060 17 f9 e8 bd 1b d7 89 3c 42 6a f1 3e cd b6 e3 be
       -0.11375635 0.016826203 0.4715138 -0.44475403
000070 fc e4 a2 be e5 c1 16 be c9 c8 47 be 3d 16 f3 3e
       -0.31815326 -0.14722402 -0.19510187 0.47477904
000080 bd b6 98 be 9e 3b 72 be 1d dd da be bb b9 13 bf
       -0.29826918 -0.23655555 -0.4274682 -0.5770528
000090 dd d6 95 be 20 2a 01 3f 5c a2 82 3e 84 c7 94 3e
       -0.2926549 0.504549 0.25514495 0.29058468
0000a0 73 bb 2f 3e 8a 7e 90 be 3a 41 41 3d fb e8 17 bf
       0.1716135 -0.28221542 0.047181346 -0.59339875
0000b0 79 a1 d5 be 27 7d 50 be a3 05 a7 3e b1 ae 87 3e
       -0.41724756 -0.20360242 0.32621488 0.26500466
0000c0 e7 49 80 be da c0 af bd 0a 86 c5 3e fe 6b 0a 3f
       -0.25056383 -0.085817054 0.38578826 0.54071033
0000d0 0b eb 86 3e 0f c8 98 bc 60 d7 a3 3e d5 32 bf be
       0.263512 -0.018650083 0.32000256 -0.3734347
0000e0 10 a1 ed 3c 92 c9 c6 be 3e 17 f7 be 10 7f 94 be
       0.029007465 -0.3882566 -0.4825992 -0.2900319
0000f0 99 75 86 3e 06 79 74 3e 97 c8 35 be 5e 27 6e 3e
       0.26261595 0.23874292 -0.177523 0.23257205
000100 15 55 b8 3e 37 8c 57 be 5f 8a 02 bd 2a 6a 6b 3e
       0.36002412 -0.21049581 -0.031870242 0.22989717
000110 7d 44 63 3e ca d1 fd 3e a2 63 b8 be c3 bc 89 be
       0.22194095 0.4957412 -0.36013514 -0.26901826
000120 ba f7 33 3e da 10 d3 3e b1 81 ff 3e 05 d7 e6 3e
       0.17574969 0.41223794 0.49903634 0.45085922
000130 0b 66 18 3e c5 7b 14 bf 60 54 1b 3e 1b a6 9e be
       0.14882676 -0.5800136 0.15168905 -0.30986103
000140 6d 41 14 bf 53 da 85 3e 33 c5 e5 3e 76 03 e5 be
       -0.5791233 0.2614313 0.44877014 -0.44729203
000150 5b 2d cf 3d 00 9b fa bd ea cc b9 bd 5e c9 90 be
       0.10116073 -0.12236595 -0.090722874 -0.2827863
000160 dd 19 58 3e 6f 39 80 be 2e 27 8b 3e db cc 7e 3e
       0.21103616 -0.25043818 0.2717833 0.24882834
000170 77 97 89 3e 1f 74 0b 3e ba ee 07 bf d2 f8 d6 be
       0.2687337 0.13618515 -0.5309864 -0.4198671
000180 f4 01 29 3e 91 58 76 3d 57 07 fa be e0 4f 8e be
       0.16504651 0.060143057 -0.48833725 -0.27795315
000190 11 86 eb 3e e9 06 ad 3e c0 8a 8d be cb 45 42 be
       0.46000722 0.33794335 -0.2764492 -0.18971936
0001a0 c4 40 04 bf f4 f2 f0 3b ff 75 cf be 33 e5 f8 be
       -0.51661325 0.007353181 -0.4051971 -0.48612365
0001b0 c6 00 26 bd e9 96 e7 3d 6a e3 9f be 39 1a 75 3e
       -0.04052808 0.11308081 -0.3122819 0.23935784
0001c0 c5 07 b0 be 57 af b4 3e 96 29 d7 3e 03 19 ab be
       -0.34380928 0.35290024 0.42023915 -0.3341752
0001d0 b3 00 22 be e5 5a cc 3d 9f 40 eb 3d 40 5f e8 3d
       -0.15820579 0.09978274 0.11486935 0.113462925
0001e0 8f 3c 3f 3e 48 0d d2 bc ca e6 cc be 15 1d 2f 3e
       0.18675445 -0.025641099 -0.40019828 0.17100938
0001f0 21 a8 0a bf c3 5c a5 be ad 80 13 be 75 e3 97 be
       -0.54162794 -0.32297334 -0.14404555 -0.29665723
000200 d5 ee 4a be 3a 3c d1 be 9b ef 1d be 50 ef 00 3e
       -0.1981767 -0.40866262 -0.15423433 0.1259129
000210 89 35 bb be 6e 0e 98 bc dc 00 d1 3e 23 02 c6 bc
       -0.36564282 -0.018561568 0.40820968 -0.02417094
000220 e9 d6 86 ba 10 fd 27 3c 6f 66 1e 3e ff 23 bf 3e
       -0.0010287437 0.010253206 0.15468763 0.3733215
000230 26 9b 0b 3f 0d f3 92 3e 96 16 e9 3e fb e6 96 bd
       0.5453361 0.28701058 0.45525044 -0.07368275
000240 2e b1 00 bf 9c 57 ca be 26 aa b3 3e 00 93 f3 3b
       -0.50270355 -0.39519966 0.3509075 0.0074332952
000250 c0 8a 43 be 3b d7 b8 be fc c5 f5 be 5c 40 04 bf
       -0.19095898 -0.36101708 -0.48002613 -0.51660705
000260 e0 85 8f bd f0 b9 83 3e cc 6e 8b 3e 98 d4 12 bf
       -0.070079565 0.25727797 0.2723297 -0.5735564
000270 a0 00 a0 3e 8d 44 ba be d4 89 13 be 15 18 83 be
       0.31250477 -0.36380425 -0.14408046 -0.2560431
000280 ce 68 01 be 07 6e 2a be b2 b1 fb be 37 b7 0e bf
       -0.12637636 -0.16643535 -0.49159008 -0.55748314
000290 9f 5b ac bd f8 55 a1 3d 47 22 a1 be 07 1c 87 3d
       -0.08415913 0.07877725 -0.31471464 0.06597143
0002a0 77 71 f5 be 39 f6 d3 bd 55 bb d4 3e d9 ae 90 be
       -0.4793813 -0.103496976 0.41549173 -0.28258398
0002b0 17 b8 b9 3e bc df e6 3d f3 68 17 bf c8 7c 88 3e
       0.36273262 0.11273143 -0.59144515 0.266577
0002c0 b8 8c 01 bd c8 62 77 be 1e 97 e3 3e 46 34 cd be
       -0.03162834 -0.24158776 0.4445123 -0.40078944
0002d0 c6 70 ab 3d 8d 82 ae bd 69 4f b4 3e 5f b4 27 3e
       0.08371119 -0.08520994 0.35216835 0.163774
0002e0 dd 51 58 3e a5 fd 32 3e cd 03 dd bd 53 98 e5 bd
       0.21124978 0.1747957 -0.107917406 -0.11210694
0002f0 e4 f6 ff be a2 26 57 3e ad 2d f3 3e 42 ed af 3e
       -0.4999305 0.21010831 0.47495785 0.343607
000300 aa 0e b3 be d2 56 e8 3d 37 ea c5 be f7 61 ba be
       -0.34972125 0.11344685 -0.38655254 -0.36402866
000310 42 db 8a be 53 7b 02 3e 07 22 c3 be 93 3d d6 bc
       -0.27120405 0.12742357 -0.38111898 -0.026152408
000320 e4 05 df 3c 9b 7a a5 3e e3 2e d5 be f5 10 bf be
       0.027224489 0.32320103 -0.41637334 -0.37317625
000330 31 fe ad be ba cf d4 3e cf 4a 28 be d2 c6 19 3f
       -0.33982995 0.41564733 -0.16434787 0.60069
000340 c4 0a 4c 3e 0a 4e 44 3d b3 8b 14 bd 18 db 2d be
       0.19925982 0.047925986 -0.03626604 -0.16978109
000350 ed 70 0d 3e f6 49 11 be 2c 19 3b 3a f4 00 1e 3e
       0.13812609 -0.1418837 0.0007137235 0.15430051
000360 be b0 eb be 66 41 9a be 22 00 c1 3e 11 18 cd be
       -0.4603328 -0.3012802 0.37695414 -0.40057424
000370 4a 57 a5 bc 42 0f 0c 3f f2 4d 34 3e fc 65 c8 3d
       -0.020183224 0.5471078 0.17607859 0.09785077
000380 a3 0a c4 be 72 0c ab 3e 2a 7b ca be 19 56 9a be
       -0.38289365 0.33407933 -0.39547092 -0.30143812
000390 2c d0 74 be fd 1f 20 be 55 5f f2 bd 63 73 d7 3e
       -0.23907536 -0.15637203 -0.118345894 0.4208022
0003a0 55 e3 d1 3d 2d fc 01 3f 3a 95 a9 3e d9 0f b9 be
       0.10248438 0.50775415 0.33121663 -0.36144903
0003b0 81 f2 cb 3e 69 ca be be c1 22 99 be cf 6a 03 3e
       0.39833453 -0.37263802 -0.29909328 0.12833713
0003c0 b9 30 15 3e ff 54 d8 3e 0f 8c 28 be a1 cb 59 bd
       0.14569367 0.42252347 -0.16459678 -0.05317271
0003d0 1a 24 6f 3e 87 ff fb be b3 65 a1 3e 4e 2e eb be
       0.23353615 -0.4921839 0.31522903 -0.45933765
0003e0 ed ed a2 3c bc e7 97 bd 20 a7 a2 be bc b3 c9 3d
       0.019888842 -0.07417247 -0.3176813 0.09848735
0003f0 e0 73 c8 3e 1e 56 8d be 64 7a b4 be 94 cb be bd
       0.39150906 -0.27604765 -0.35249627 -0.09316173

fc1.bias f4 [256]
000000 76 3f 8b 3b 13 02 0b bf 88 5f b6 be de 62 82 3e
       0.0042495085 -0.5430004 -0.3561976 0.25466055
000010 63 f7 73 be 08 76 a5 3e 63 9d e0 3e dc 92 c0 3d
       -0.2382484 0.32316613 0.43870077 0.09403011
000020 9d 1c 92 bd 1f fb 2b be 16 f6 b8 3c 8e 7e a5 3b
       -0.07134364 -0.16795014 0.02257828 0.005050487
000030 0d 23 ca be ee 76 23 be 95 67 d9 be 04 91 a3 3e
       -0.39479867 -0.15963337 -0.4246184 0.31946576
000040 5e d0 6f be e0 22 f8 3e 9b 68 1b be 93 f2 20 be
       -0.2341933 0.48464108 -0.15176623 -0.15717535
000050 fc dc 8b 3e 4c 4f cf 3d 07 ef dc 3e 8f eb 5b 3e
       0.27317035 0.101225466 0.43151113 0.21476577
000060 5b 4b 0b bf 27 7d 93 3e 6f 48 11 be b7 98 87 be
       -0.5441186 0.2880642 -0.14187787 -0.264837
000070 a9 f9 e7 3e 8a bf c1 3e 0f 7e c1 be 46 eb f0 bd
       0.45307663 0.37841445 -0.37791488 -0.11763625
000080 ff 3d bd 3e d9 7d 4c 3e cf 95 ec 3e 6b 25 02 be
       0.36961362 0.19969882 0.46208045 -0.12709586
000090 13 45 88 be 10 03 f6 3e ef 44 56 3e 78 fd fe 3e
       -0.266152 0.48049212 0.20924734 0.49802756
0000a0 ef 8c 68 be 78 29 c2 be eb 72 f8 bd f5 39 e9 be
       -0.22710012 -0.37922263 -0.12131294 -0.4555203
0000b0 5a d8 6d 3e e8 4c ee 3e 02 82 1f 3c 8d 65 fc bb
       0.23227063 0.4654305 0.009735586 -0.0077025355
0000c0 f0 98 92 3e 30 76 d8 be 2b a7 ff 3e 8e b7 f5 be
       0.28632307 -0.4227767 0.49932227 -0.47991604
0000d0 c3 c6 06 bf 09 67 f3 bd 12 45 03 3f 6a 50 e3 3d
       -0.52647036 -0.11884887 0.5127727 0.11099322
0000e0 05 a9 41 3e e6 85 e8 be 5b 58 1a 3e d9 d7 0f bd
       0.18912132 -0.45414656 0.15072767 -0.035117958
0000f0 6e c3 66 3e 58 0e e2 3e 6a 1e 6a 3e c8 36 8a 3c
       0.22535488 0.44151568 0.22863165 0.016871825
000100 64 77 c3 bc 3d 4f 96 be a5 6b 19 be dc 5b c6 3e
       -0.02386064 -0.2935733 -0.1498247 0.38741958
000110 c5 f7 24 be e2 9a aa 3e 6c 39 15 be ca 9c 35 be
       -0.16110142 0.3332129 -0.14572686 -0.17735592
000120 05 ad dc 39 63 47 08 bf 7c c6 98 3d 8f 78 1d be
       0.0004209058 -0.5323393 0.07459733 -0.1537802
000130 7f 36 b6 bd b9 00 e0 3a c0 0e e1 3e 47 35 cc 3e
       -0.08897113 0.0017090059 0.43956566 0.39884397
000140 e8 12 ff be 3a be 84 3e 38 29 f2 be e3 88 9d be
       -0.49819112 0.2592638 -0.47297072 -0.307685
000150 86 f7 84 3e ea c5 52 bd f3 e2 6e be b1 62 03 bf
       0.25970095 -0.051458277 -0.23328762 -0.51322466
000160 2b 12 1e be 67 c7 50 3e 41 a1 ef be f8 18 06 bf
       -0.15436618 0.20388566 -0.46802714 -0.5238185
000170 ba 2e 41 3d a0 d7 f5 be b2 4b eb be 6c b1 44 be
       0.047163703 -0.4801607 -0.45956188 -0.19208306
000180 96 b2 bd bd d3 70 02 bf 27 cd 88 be 00 72 80 3c
       -0.09262578 -0.50953406 -0.2671902 0.01567936
000190 60 62 d1 be c3 5e 09 bc cb fb d7 be ac 60 e9 be
       -0.40895367 -0.008384409 -0.4218429 -0.45581567
0001a0 90 9c 65 3e 28 4c b1 be 56 71 e8 be 98 83 ac 3e
       0.22423005 -0.34628415 -0.45398968 0.33694148
0001b0 b7 f3 0e 3e db de f8 3e 6e a4 d0 bd 50 d4 b4 be
       0.13960157 0.48607525 -0.101876125 -0.35318232
0001c0 27 4c 1d bd 75 0c c3 3c e0 de d9 3e fd f0 e3 be
       -0.038402703 0.02380965 0.42552853 -0.44519797
0001d0 f8 e3 35 3c 30 04 5f 3e e2 74 7b be 77 73 b7 be
       0.011101715 0.21778941 -0.24556306 -0.3583028
0001e0 79 61 8b 3e d6 07 dd be ae 06 e3 3d d1 05 df be
       0.27222803 -0.4317004 0.110852584 -0.43559125
0001f0 2f c3 78 3e d1 66 c0 be cc 17 c6 3e 7c b9 e2 be
       0.24293207 -0.37578443 0.3869003 -0.44282138
000200 7a 13 03 bf d1 f7 9e 3d ab 6a d3 3e 7f 0d c0 be
       -0.51201594 0.07762111 0.4129232 -0.37510297
000210 1a 95 b3 be 5a 01 f3 3e b4 a3 d3 bd 7c 81 56 3e
       -0.35074693 0.4746197 -0.10333958 0.20947832
000220 dc 8e 08 bf b0 a5 06 be 03 0f 1b be 9d 70 fd 3e
       -0.53342986 -0.13149142 -0.15142445 0.4949998
000230 9a bb 3f 3e fa 2b b5 be e2 05 50 3e 74 f0 9c bd
       0.18723908 -0.35385114 0.20314744 -0.0766305
000240 5a 3d 80 be 2b 61 b7 be 8d 6f 2f be 13 80 e6 3e
       -0.25046808 -0.3581632 -0.17132397 0.45019588
000250 ed c5 b7 be 9c 9b 80 be 7f 84 3a be 07 3a 4b 3d
       -0.35893193 -0.2511872 -0.18214606 0.049615886
000260 f5 43 ab 3d 31 29 3b bc 98 97 2d be 8a 77 99 be
       0.08362571 -0.011423395 -0.1695236 -0.29974014
000270 f4 1d 20 be ac 91 27 be 9e 16 f0 3e 68 b1 f4 be
       -0.15636426 -0.16364163 0.46892256 -0.477916
000280 af be ad be f7 73 ef be 3b 91 e6 3a 2b 97 cb 3e
       -0.33934543 -0.46768162 0.001759089 0.3976377
000290 75 5b e6 3e 89 03 d0 be 65 02 80 3d ac 12 a2 3e
       0.4499165 -0.40627697 0.06250457 0.3165487
0002a0 9f 0f 97 3e cb 0d fb 3e c0 64 84 3c fd 8d ba be
       0.29504105 0.4903396 0.016161323 -0.36436453
0002b0 10 85 9a 3e 19 b3 24 be c7 0c b2 3e e5 13 5b be
       0.30179644 -0.16083945 0.34775373 -0.21394308
0002c0 e4 ac 5d 3e a2 ac de 3e fe 68 20 3f 06 bd 08 bf
       0.21647984 0.43491083 0.62660205 -0.53413427
0002d0 f7 52 a1 be 2f 1b 26 be ba c1 9f be 50 bc 00 3f
       -0.3150861 -0.16221307 -0.3120249 0.5028734
0002e0 79 d1 a3 bd c7 dd b0 be 0c b0 b4 be 33 b9 dc be
       -0.07998938 -0.34544203 -0.35290563 -0.43110046
0002f0 eb bb 85 3e 26 4b ec be 67 0b fe be a0 58 eb be
       0.26119933 -0.46151084 -0.49618074 -0.45966053
000300 5a 3e 8a 3e 9f 12 a5 3e c5 d2 88 be 5f 3c 6c 3e
       0.27000695 0.3224077 -0.26723304 0.23069905
000310 cd a9 c0 3e e4 15 a7 3d c3 8a 8e bd 0e c7 b6 3d
       0.37629548 0.08158472 -0.069600604 0.089246854
000320 2f 1c 27 bd d9 8e aa 3e c4 b8 d4 be dc 82 02 3e
       -0.040798362 0.3331211 -0.41547215 0.12745231
000330 78 ec ac 3e e5 28 85 be b5 34 c6 3e 38 77 0b 3f
       0.3377416 -0.26007763 0.38712087 0.5447879
000340 a3 57 58 be dc 2a 3b be 48 5c 7c 3e 86 e6 ed be
       -0.21127181 -0.18278068 0.24644578 -0.46464938
000350 9f 10 6e 3e 00 6a fe 3d 59 fe c8 3e 41 32 e2 be
       0.23248528 0.12422562 0.39256552 -0.44178966
000360 bc 2c d1 be 17 f0 6b 3e 89 dc 2c 3e 58 53 d1 be
       -0.40854442 0.23040806 0.16881002 -0.408839
000370 af 73 81 be 5b f7 e7 be de 11 a7 be 30 ac 83 be
       -0.25283572 -0.45305905 -0.3263082 -0.25717306
000380 0e 2f e7 3e 3d 23 24 bd ff 02 a4 3e 14 14 02 3f
       0.45153087 -0.04007267 0.32033536 0.50811887
000390 8a 7f bd 3e 0e 53 e1 be 5e ce 79 3e c1 f3 6d 3e
       0.37011367 -0.44008678 0.24395129 0.23237516
0003a0 8e 29 c3 3e fa 23 01 bf d7 8d d2 3e 56 8c c1 3e
       0.3811764 -0.5044552 0.4112384 0.3780238
0003b0 b4 63 1b bf 2d 73 e8 3d 4c 0d fe 3e 9b fe c4 be
       -0.6069901 0.11350093 0.4961952 -0.384755
0003c0 a1 62 22 3e b3 1e 8c 3e e1 70 4c 3e 40 e9 ec 3e
       0.15857936 0.27367172 0.19964935 0.46271706
0003d0 a2 e6 c7 3e 38 73 c3 3e 01 1e c1 bd 5a 88 c4 3e
       0.39043146 0.38173842 -0.09429551 0.38385278
0003e0 09 08 00 bf 3c 44 a3 be a0 2c 3f 3d ce fe 4d be
       -0.5001226 -0.31887996 0.046673417 -0.20116732
0003f0 a9 60 f8 3e 32 cb 31 3e 26 43 c1 3e d4 e0 a8 3e
       0.48511246 0.17362669 0.37746543 0.3298403

fc2.weight f4 [256, 256]
000000 54 ad 7f bd 09 3a 1f 3e 9b 95 24 bc 60 2d df bc
       -0.062421158 0.15549482 -0.010045434 -0.027243316
000010 28 d8 11 3d d9 15 e0 3b 27 4c 44 be 79 03 7a 3d
       0.035606533 0.006838542 -0.19169675 0.061038468
000020 80 4f bb be 25 b9 1c 3c 95 1b 2c bd de de f9 3c
       -0.3658409 0.009565626 -0.04201849 0.03050178
000030 02 c5 09 3d bf 50 8b bd fc cc cb be 0a df 82 bc
       0.033635147 -0.068025105 -0.39804828 -0.015975494
000040 52 0c 17 3e de 17 85 3b 24 94 85 3d 59 c4 07 bc
       0.14750794 0.004061683 0.06522396 -0.008286559
000050 c8 79 b1 bd e6 3d fe 3c 93 fd 6a 3d c2 4c b5 3d
       -0.08665806 0.031035375 0.057370733 0.08852531
000060 77 72 b0 bd 5a 68 a6 3d c6 b4 12 be 48 a6 f4 bd
       -0.086155824 0.08125372 -0.14326772 -0.11945778
000070 4a 04 f3 bd aa 2e 2f bd da 24 be 3b 6f 54 a0 bd
       -0.118660524 -0.04276911 0.005802733 -0.078286044
000080 6f 4e ff 3b 67 12 08 be e4 1d 05 3d 13 ea 1b 3d
       0.0077913324 -0.1328827 0.03249921 0.038065027
000090 55 31 67 bd 78 fa 14 be a5 60 e5 3b 7a 3a 23 3d
       -0.05644353 -0.14548671 0.0070000463 0.03985069
0000a0 65 13 91 be be 53 ac bd 23 d4 35 be a8 2a 5f bd
       -0.2833511 -0.0841441 -0.17756705 -0.05448404
0000b0 34 87 38 be 04 03 35 3d ae ba 87 3c d8 cf 38 bd
       -0.18020326 0.04419233 0.016568508 -0.04512009
0000c0 8a 8b fc bd 0c 68 22 be 1b a5 22 bc f8 09 17 3e
       -0.123313025 -0.15860003 -0.0099270595 0.14749897
0000d0 3d a1 95 bd b7 e6 da 3d 96 da 6a be 39 4e fb bc
       -0.073061444 0.106885366 -0.22934946 -0.030676948
0000e0 71 33 4a bd 9b 2d e5 3d 2c 8e 9e bc 9c e4 c0 3d
       -0.049365465 0.11190339 -0.019354902 0.09418604
0000f0 67 73 67 bc d5 95 ec b7 26 d7 0a 3d 71 9e c1 3d
       -0.014126635 -2.8203163e-05 0.033896588 0.094540484
000100 08 e5 b3 bd 87 9f 5f bd 39 b5 18 3e db 71 b2 bb
       -0.087839186 -0.054595497 0.14912881 -0.0054457015
000110 c8 5a 36 bd 80 33 e2 3d 29 92 c7 3c 28 e0 81 3d
       -0.04452017 0.11044979 0.024361687 0.063415825
000120 1c 91 7d 3d b4 28 af bd a9 02 f2 3c 36 a3 32 bd
       0.061905965 -0.085526854 0.029542284 -0.04361268
000130 4a 96 96 3c f2 c4 f5 bc 6f d4 4d 3d 54 26 b4 bd
       0.01838221 -0.030001137 0.05025142 -0.08796373
000140 f8 30 81 bd 9e 31 bc 3d 29 a3 6f be 2c 15 36 3d
       -0.06308168 0.09189151 -0.23402084 0.044453785
000150 9e ac 08 3d f2 31 3f 3d 78 80 bb 3d cf 54 bd 3d
       0.033367746 0.04667849 0.09155363 0.092446916
000160 62 c3 2a 3d f6 80 4c bb 81 5e b3 3c 05 99 55 3d
       0.041690238 -0.0031204796 0.021895649 0.052147884
000170 65 b9 59 bd d9 04 9e be 41 da 1b 3d cd d8 bb 3d
       -0.05315532 -0.30863073 0.03804994 0.09172211
000180 25 c6 ff 3c d1 52 d6 bc 14 d9 71 bc 10 0d cc 3d
       0.031222412 -0.026162537 -0.014761228 0.09963429
000190 d8 9e 4e 3e ed bd 39 bc 51 20 c3 bc 06 5b 05 bd
       0.20177782 -0.011336786 -0.02381912 -0.03255751
0001a0 8a 67 7f 3d b4 6c d4 3d 7b 81 0f be af ca b6 bd
       0.062354602 0.10372296 -0.14014237 -0.089253776
0001b0 63 29 44 3a a0 61 ff 3b 6d b7 37 3c b6 c8 7d bd
       0.0007482974 0.00779362 0.011213166 -0.06195899
0001c0 e7 f3 57 3d 18 82 07 3e 39 aa cf 3c 5d 4c 2e bd
       0.052722838 0.1323322 0.025349723 -0.042553294
0001d0 fc 23 14 3c 80 69 19 bd fc d0 67 bc 3a 9b e0 bd
       0.0090417825 -0.03745413 -0.014148947 -0.10967107
0001e0 d0 fc cd bb 6f f2 61 3d 2c a7 34 bc ac 9c cf 3c
       -0.006286241 0.055162843 -0.011026185 0.025343262
0001f0 0f dc 9a 3b ad 5c c6 3d a5 f0 a2 3d 07 7a a5 3d
       0.00472594 0.09685645 0.079560556 0.080799155
000200 d3 ed bb 3d 78 8c 18 be 4d dd c6 bb 6b 68 10 be
       0.09176221 -0.14897335 -0.0060688616 -0.14102332
000210 03 da b7 3d e5 36 63 3d 7f 76 87 3d 08 40 97 bd
       0.08977129 0.055472273 0.06614398 -0.0738526
000220 b3 79 97 3c f1 f6 38 bd 9f 5d 34 3d c6 9a 89 bc
       0.018490648 -0.045157377 0.044034597 -0.016797435
000230 48 e2 dd bc 96 b5 46 bd 7e 0c 21 bb f1 c9 20 bc
       -0.027085438 -0.048513018 -0.0024574096 -0.009813772
000240 2e ee 24 bd 60 6b c2 bd 46 42 9b 3d 74 fd 95 3d
       -0.04026621 -0.094931364 0.07581 0.07323733
000250 88 c7 dc bd 30 ef b9 bd b4 f2 2c bc 12 fb db bd
       -0.10780245 -0.090788245 -0.010555912 -0.10741247
000260 34 e9 c8 3c 4a 79 23 3d 2b df 82 bd 68 4a 6d bc
       0.024525262 0.039910592 -0.06390222 -0.014483072
000270 72 dc a4 bc e9 97 78 bd e4 b6 76 bd a0 6b 4e 3c
       -0.020124648 -0.060691748 -0.06023301 0.012598902
000280 fd b8 8d bd b3 7f 15 be 2b 59 94 bd 90 7f 07 bd
       -0.06920049 -0.14599495 -0.0724357 -0.033080637
000290 f1 e3 11 b9 52 66 81 3e 99 34 92 3c 0c e5 56 bc
       -0.00013913192 0.25273377 0.017847346 -0.0131161325
0002a0 a7 2a ed 3b be dd e3 bd fe a8 ee 3d 68 04 53 3d
       0.0072377506 -0.11126278 0.116533265 0.051517874
0002b0 b0 4f a1 3d ae b3 28 bd eb 9d 8f 3d 3e 80 43 be
       0.07876527 -0.04118698 0.07012542 -0.1909189
0002c0 f9 f3 04 bd 5b 64 8c bd 89 22 a2 bd 2c c3 bb 3a
       -0.032459233 -0.06855079 -0.07916743 0.0014325134
0002d0 8d 63 f3 bc 50 5c c5 3d 2d 5c 95 3d f7 a0 18 bd
       -0.029710555 0.09636748 0.07292972 -0.037262883
0002e0 32 33 ab bc 6e 56 d1 bd 33 47 1d 3d d9 e2 6f be
       -0.020898435 -0.10221563 0.03839798 -0.2342638
0002f0 d8 19 e6 3d 55 fb c2 bd 06 45 92 ba b1 37 a4 3d
       0.11235398 -0.09520594 -0.0011159487 0.08018435
000300 9b 41 2b be 79 45 bf 3d 73 78 b5 bd 28 ff f6 bd
       -0.16724245 0.09339423 -0.088608645 -0.12060386
000310 8c 58 82 be 27 75 ca 3b ab ad e3 3d d7 09 0b bc
       -0.2545818 0.0061785164 0.11117109 -0.008486233
000320 89 aa 10 bd 61 c2 3e bc de e4 b8 bd 50 58 14 3b
       -0.035318885 -0.011643023 -0.09028028 0.0022635646
000330 0b 8a 4c 3c 1b 6c 99 3d 34 25 84 bc 49 45 3e bd
       0.012484084 0.074913226 -0.016131021 -0.046452794
000340 22 74 af 3d 39 19 a0 3d ec 2c 24 3c 04 1e aa 3d
       0.085670725 0.07817311 0.010020476 0.08306506
000350 05 b8 7e 3d 75 a1 3a be f4 77 15 be 85 4c 94 3d
       0.062187213 -0.18225653 -0.1459654 0.072411574
000360 02 78 76 bc 06 9f 0e be 3b 06 6a 3c da b7 8d 38
       -0.0150432605 -0.1392785 0.014283712 6.757649e-05
000370 52 cf ab 3d 37 dc 57 bd f9 3e e2 3c dd 0b af bc
       0.083891526 -0.052700248 0.027617918 -0.021367962
000380 a4 62 e9 bd e0 23 9b bc 31 0f 52 bc c4 42 07 3d
       -0.11395767 -0.018938005 -0.012821005 0.033022657
000390 ce 06 33 bc 2e 43 c1 3d 8d ff 8e 3d 98 8c 8e 3b
       -0.010926915 0.09436642 0.06982336 0.004350256
0003a0 77 5a 07 bd 67 84 90 bc cc 90 a2 bc ed 78 e7 bc
       -0.03304526 -0.01764126 -0.019844435 -0.028255904
0003b0 3c d2 e4 bc cd 67 14 bd 7e b9 c8 bc a6 09 a3 3c
       -0.027932279 -0.036231805 -0.024502512 0.019902062
0003c0 e4 84 5d bd e6 49 4e be fb bf a1 bc 6e 58 a7 3b
       -0.054081813 -0.20145378 -0.019744864 0.005106977
0003d0 c2 e3 5d 3d 87 f6 6d 3c 27 56 93 bd 34 40 15 bd
       0.054172285 0.014524109 -0.07194167 -0.036438182
0003e0 52 89 9e bd 74 83 8a be ac 44 27 3d 3a b6 ac 3b
       -0.077410355 -0.27053416 0.040836975 0.0052707465
0003f0 c5 24 ce 3c 63 7a 49 3d 3a 3c 4c 3d 60 89 4f 3c
       0.025164017 0.049188983 0.049862124 0.01266703

fc2.bias f4 [256]
000000 13 ea 6d bd 29 71 44 bc e8 d6 c5 bd a4 cf 43 3d
       -0.05808456 -0.01198987 -0.09660131 0.047805443
000010 8d d1 01 3d 75 5c 8a bd 66 81 af 3d b8 e3 8f bd
       0.031693984 -0.06755916 0.08569603 -0.07025856
000020 74 11 79 bd ed 5e d4 bc 7a 75 99 bd f3 5b 9c 3d
       -0.06080766 -0.02592417 -0.0749311 0.076347254
000030 04 2a b0 b6 92 b4 2e 3d 43 f0 81 3c 3f 79 bc 3d
       -5.2501e-06 0.042652674 0.015861636 0.09202813
000040 9e 70 68 bd 60 66 0f bc 14 5f 89 bd fc 8c 9c 3b
       -0.056748025 -0.008752435 -0.06707588 0.004777549
000050 55 fa 02 bd 91 fb 97 bd e5 c6 a6 3c 83 16 00 3d
       -0.031977016 -0.07421029 0.020358512 0.03127147
000060 48 43 57 bd 13 1d 9d 3c ef 98 ca 3b 98 db a3 3d
       -0.0525544 0.019178903 0.006182782 0.080008686
000070 af b7 82 3d c2 c1 12 3d 0d c2 e1 bc f1 6e 2f 3d
       0.06382691 0.035829313 -0.027558351 0.04283041
000080 84 f8 3f bc 34 05 83 3c 29 a0 e7 bc ba 47 f6 bc
       -0.011716966 0.015993692 -0.028274613 -0.030063499
000090 b9 b6 ab 3b 1c 8b 1e bd 9a 47 0b bd 4a 02 56 bd
       0.005240288 -0.038706884 -0.03400383 -0.052248277
0000a0 c7 c4 aa 3c 7a fb 0f 3d 9a d2 9d 3d b2 90 06 3d
       0.020845784 0.035151936 0.07706185 0.032852836
0000b0 18 8a c0 bc 04 56 a0 bd 3a 40 5f bc 59 18 54 3c
       -0.023503348 -0.07828906 -0.013626153 0.012945258
0000c0 49 42 ba 3c dd a9 38 bc 43 77 96 bc a4 a4 bd 3b
       0.022736685 -0.011270967 -0.018367415 0.005787449
0000d0 7a 93 e6 ba 42 94 41 3c 77 c2 a4 3c 4a ca b4 bc
       -0.0017591559 0.011815133 0.02011226 -0.022069115
0000e0 5a 4f 34 bd cb a1 a2 3c 92 68 40 bc 9e d2 05 3d
       -0.044020988 0.01985254 -0.0117436815 0.032671563
0000f0 40 3a 8a 3c d0 1a 68 bd 4b dd 6e bc 60 da 68 bc
       0.016873479 -0.056666195 -0.014579128 -0.014212221
000100 71 59 50 bc fa 32 0e 3c 1f fe eb bc 36 04 ca bd
       -0.012716637 0.008679146 -0.028807698 -0.098640844
000110 91 4f 2f bd 85 98 c5 bd 40 91 c2 3c 88 1f ef 3c
       -0.04280049 -0.096482314 0.023750901 0.02918984
000120 94 68 f2 3c e8 fc 35 3d 7e eb b6 bc 1c 89 98 bd
       0.029590882 0.044430643 -0.022329088 -0.074480265
000130 c1 fa 95 3d 49 4c 95 bd ad 4b c5 3d 71 93 1b 3d
       0.07323218 -0.07289941 0.09633575 0.037982408
000140 09 ce 03 3c 78 da 43 3d d4 54 33 3d fb b1 64 bd
       0.008044728 0.04781577 0.04378207 -0.055833798
000150 8f e9 e2 bd 15 01 fe 3c 7b f4 84 bd 1e 92 77 3d
       -0.11079704 0.031006375 -0.064919434 0.060442083
000160 f9 c4 26 3c 39 86 91 bc 79 a9 82 3d e7 a4 d2 3c
       0.010178798 -0.017764198 0.063799806 0.025713397
000170 96 42 ac 3c 0d 19 3c 3d 45 6c 25 bc ad 6d a0 bc
       0.021027844 0.045922328 -0.010096614 -0.019583547
000180 ef ad 8f bb 1b 7d 8f 3c 2b 8e 6f bc 1b 5e 1f 3d
       -0.004384748 0.01751571 -0.014621298 0.038908105
000190 4c e8 a0 bc b7 86 63 bd ba ea f6 3a 32 af 37 3d
       -0.019642018 -0.055548396 0.0018838265 0.044844814
0001a0 43 fd 15 3d 60 31 23 bc bb ef d5 bb 95 c8 3e 3d
       0.036618482 -0.009960502 -0.0065288222 0.04657801
0001b0 81 17 9d bc 50 8a 19 3c 32 0c 05 3d 97 22 b4 3c
       -0.019176247 0.009371355 0.032482333 0.02198915
0001c0 5f da 3e 3d 3a 09 7b bc 3f c1 3a 3d 4a 07 08 bc
       0.046594974 -0.015322024 0.04559445 -0.008302519
0001d0 51 79 ff 3a fb 49 29 bd 61 90 f0 3b 50 75 89 3d
       0.0019491111 -0.04133032 0.00734143 0.06711829
0001e0 e8 bb 99 3d f2 b9 b1 bc d4 7b 57 3c 9f f7 2a 3c
       0.075065434 -0.021695111 0.0131520815 0.010435014
0001f0 09 5b 35 bd 66 6e 95 bd 35 16 36 3d f1 ef a7 3c
       -0.04427627 -0.072964475 0.044454772 0.020500155
000200 df 23 9f bc 86 f5 bd 3d b6 97 94 3c 97 3e 3a bd
       -0.019426284 0.092753455 0.018138748 -0.045469847
000210 57 ea b4 bc 54 b2 cc 3b 52 b5 b2 bc e1 e9 75 bd
       -0.022084398 0.0062468443 -0.021814976 -0.060037497
000220 9f 0a 4c 3d 13 cf 93 3c 02 59 f2 bc 7a 8b 6e bd
       0.049814817 0.018043077 -0.029583458 -0.058238484
000230 17 99 91 bd 59 b1 b4 3d 5c d7 a3 3a ed d2 b1 bc
       -0.07109278 0.08822889 0.0012500095 -0.021707023
000240 9e e9 8a 3d eb 6c fc bd 63 d5 68 3c fd 1d a6 bd
       0.0678284 -0.12325462 0.014211032 -0.081111886
000250 06 c2 a0 3d 2c 00 d7 3c 13 aa e4 bc 6b bc a9 bd
       0.07849507 0.0262452 -0.027913129 -0.08287891
000260 cb 88 94 bc e9 0d 2b 3c d0 52 26 3c 7d c7 1f 3d
       -0.018131634 0.010440328 0.01015158 0.039008606
000270 4c d7 e0 3c 86 9d ad 3c 8c bf d4 bc d4 ab 32 bd
       0.027446412 0.021193277 -0.025970243 -0.0436209
000280 fb 32 3d 3c 02 e4 2a bd 9f f0 9c bd 3a 40 0e be
       0.011547799 -0.04172135 -0.07663082 -0.13891688
000290 ce 19 dd 3b dc 7c 23 bd 80 d0 40 bc 7e 48 33 be
       0.006747461 -0.039913997 -0.01176846 -0.17508122
0002a0 0a da b2 3b 32 eb 29 bd 31 2a 65 3d a2 0e 06 3d
       0.005458121 -0.041484065 0.05594844 0.0327288
0002b0 2f 35 67 3d ff 3c 6f 3d 5d 47 d4 bc 64 68 25 be
       0.056447204 0.05840778 -0.025912935 -0.16153103
0002c0 61 54 5f bc 7d 93 b0 3c 36 9d 85 3d eb b1 a6 3b
       -0.013630957 0.021554703 0.06524126 0.0050871274
0002d0 09 b3 81 3c 4a f3 35 bd 79 a0 6e bc 93 af 6d 3d
       0.01583244 -0.04442147 -0.014564627 0.05802877
0002e0 e8 5b 6a bc fc 1c 52 bd 25 94 3a 3d 9e f6 94 bc
       -0.014304139 -0.051297173 0.045551438 -0.018184002
0002f0 7e 7b 3b 3c aa 69 87 bd 5c a3 81 ba 88 b8 d5 3d
       0.011443017 -0.06611951 -0.0009890604 0.10435587
000300 70 87 d6 bc 1d f2 6c 3b 0b 95 05 3d fa 77 a1 3c
       -0.026187629 0.0036155053 0.03261284 0.01971053
000310 1d f6 9b 3d 9f 40 9c 3c 8e 69 de bc 08 a5 16 3d
       0.07615302 0.019073782 -0.027149942 0.03677848
000320 a2 a3 b7 3d b3 e7 5f 3d a6 ee a3 bc 39 91 cd bc
       0.08966757 0.054664325 -0.020011257 -0.025093662
000330 15 c3 82 3d f3 f6 2a bb 0e b6 31 3d ef 04 b5 bd
       0.06384865 -0.0026087135 0.04338651 -0.08838832
000340 80 f0 00 bd 57 b2 56 bd 1d 25 a1 bc 43 b7 80 bc
       -0.03147936 -0.052416172 -0.019671017 -0.015712386
000350 86 49 50 3d 41 09 b3 bd 8c 39 d1 bd 09 10 24 bd
       0.050851367 -0.087419994 -0.10216054 -0.040054355
000360 45 5a ba 3d 37 8e 0e 3d 61 45 30 bd 14 c3 7d bd
       0.09099249 0.034803595 -0.043034915 -0.06195362
000370 96 8b 52 bc 0c c8 62 bd be 9f 27 bd 81 85 2c bd
       -0.012850663 -0.05536656 -0.040923826 -0.042119507
000380 d5 9c a2 3c d5 ae f5 3c c6 f7 76 bd ae cf 2b bd
       0.019850174 0.029990593 -0.06029489 -0.041946106
000390 ba 30 20 bc 8f af 99 bc a4 12 20 3d ea 06 18 bc
       -0.009777242 -0.01876047 0.039080277 -0.009278992
0003a0 47 44 7f 3d 45 5c 3d bd b9 14 0e 3d 06 c1 a4 3d
       0.062320974 -0.046230573 0.03468773 0.08044629
0003b0 6f 1b 40 bd ff 1d 09 3d 90 2b 38 3d ae b1 82 3d
       -0.046901163 0.033475872 0.04496342 0.06381546
0003c0 c2 72 a0 3d 8f 61 3c 3b 52 cc ca 3d 97 ec 10 3d
       0.07834388 0.0028744673 0.09902252 0.03538188
0003d0 d3 44 d2 3c 55 be 7f bd 92 08 14 bd 06 f1 35 3d
       0.025667584 -0.062437374 -0.036140986 0.04441931
0003e0 3a e9 09 bd 2f 52 83 bd f1 20 d3 3d 17 c6 84 3d
       -0.033669688 -0.0641216 0.103090174 0.06483095
0003f0 a1 72 13 3d 9c 37 84 3c 14 f2 a0 3d cb 77 d5 3b
       0.03599799 0.016139798 0.07858673 0.0065145246

mean.weight f4 [1, 256]
000000 8c 5e 33 3e ce 12 c2 bd fb b5 63 3e 57 f3 01 bb
       0.17516536 -0.09476243 0.22237389 -0.001982888
000010 47 e2 ad be 36 bf f6 be 14 76 a4 3d 65 ae 8b 3e
       -0.33961698 -0.48192757 0.08030334 0.2728149
000020 fc 85 9a bc ae 51 b2 3c 57 51 61 bd e9 b1 e9 bd
       -0.018862717 0.021767464 -0.055009212 -0.11410887
000030 dc 29 d5 3c 61 67 9f 3d db 5c 06 3e 98 a9 a8 3d
       0.026020937 0.0778339 0.13121359 0.082354724
000040 60 ac 75 3c f0 41 9c bd 39 9a 78 bd 87 a4 e0 be
       0.014994711 -0.07629764 -0.060693953 -0.43875524
000050 1b 15 f4 3d 33 b3 c6 3d 95 f5 22 3e 22 b3 d0 bd
       0.11918088 0.09702148 0.15913995 -0.10190417
000060 fc 6d 3e 3d 7e 83 ff 3d 41 7e 4a bd 94 4a 3c 3d
       0.046491608 0.12476252 -0.04943681 0.04596956
000070 cf 2f 1f 3d e6 38 c3 bd d3 e5 26 3e 71 a3 0f be
       0.038863953 -0.09532337 0.16298608 -0.14027192
000080 fd 66 0d 3e e5 3e 8e bc cb 60 66 3c 55 c4 f2 bc
       0.13808818 -0.017363975 0.014061163 -0.029634634
000090 1b c7 87 3e 96 04 ea 3e f8 c7 f0 3c 8a 41 ce be
       0.26519093 0.45706624 0.029392228 -0.40284377
0000a0 a6 d4 26 3e 74 e2 79 3d 12 2c ca bd 75 01 22 bd
       0.16292056 0.06100698 -0.09871687 -0.03955217
0000b0 4b e8 19 be 90 7d 0a be 0a 2a cc bd 3f 9b f5 3d
       -0.15030019 -0.13524461 -0.09968956 0.119925015
0000c0 7c 28 b1 3e 96 38 f2 bd b0 a9 87 bd a1 fa 12 3e
       0.346012 -0.11827199 -0.06624162 0.1435342
0000d0 3f 99 6a 3d ce e9 a5 bc 08 6c 6f bd 38 fb 5b 3e
       0.057275053 -0.020253088 -0.058452636 0.21482551
0000e0 ac 4f 2a be fc b1 e4 3e b9 13 cf bd aa af 94 3d
       -0.16631955 0.4466704 -0.10111184 0.07260068
0000f0 dd 37 1b be 22 32 5b bd 6c 4e 39 be 02 c1 8d 3c
       -0.15158029 -0.053514607 -0.18096322 0.017303947
000100 7f e5 ac bb 0e a8 0f be e0 26 56 be 27 58 85 3c
       -0.0052763815 -0.14028952 -0.20913267 0.016277386
000110 32 5e 44 bc e6 40 dd 3c e3 d9 18 3e bd 49 28 bd
       -0.011985349 0.027008485 0.14926867 -0.041085947
000120 53 e5 04 3e 77 1b 7f 3c 4c e5 1e 3e ff 76 4d bd
       0.12978105 0.015570513 0.15517157 -0.05016231
000130 15 2c fb bd a1 7c 40 3e a8 54 19 be 3e 90 87 3a
       -0.12264267 0.18797542 -0.149737 0.001034267
000140 7a a4 2a 3d 9c 4a 8f 3d d1 da 9f bd 5d 35 96 bc
       0.041660763 0.069966525 -0.07805408 -0.018335992
000150 41 4a e0 3d cc 8c d6 bc 6f 81 82 bc 64 ee e8 bd
       0.10951663 -0.026190184 -0.01593086 -0.113735944
000160 f0 b0 be bd 09 09 aa be a1 ce 02 be 21 b1 98 bc
       -0.09311092 -0.33210018 -0.12774135 -0.01863915
000170 e2 ec 13 be 56 bf 39 3d 59 9a d0 bd 29 93 2b be
       -0.14445832 0.045348488 -0.101856895 -0.16755356
000180 82 cd de bd 3f 8e fe 3d c7 70 24 bd 31 e1 bf 3e
       -0.10879041 0.12429475 -0.040146615 0.37476495
000190 76 52 96 3d c0 a8 d9 bb 8a 35 3c 3e 7a 39 08 be
       0.07339947 -0.006642431 0.18379799 -0.13303176
0001a0 74 3d 35 3d 48 fc 8b 3d 8f 04 8f bd 1d a7 30 3d
       0.04424806 0.06835228 -0.06983291 0.04312812
0001b0 94 e3 2f 3e 25 43 d8 3d 98 62 30 3e 08 5d c0 3d
       0.17176658 0.10559682 0.1722511 0.09392744
0001c0 07 20 81 3e 83 e6 f7 bd 76 48 9d bc 03 8e ef 3d
       0.25219747 -0.121045135 -0.019199591 0.116970085
0001d0 d8 31 ad 3d 25 5f 46 3a 0a 70 27 3e b9 e2 3f 3e
       0.084567726 0.0007567278 0.16351333 0.18738832
0001e0 92 ca 1b be 7f 01 88 3e 91 26 e3 3d cb 7c 01 3d
       -0.15213993 0.2656364 0.1109134 0.031613152
0001f0 82 d2 58 3b 0d 18 65 3d 0a e5 20 be 7b 2e 71 3e
       0.0033084457 0.05593114 -0.15712371 0.23552887
000200 86 04 b5 3d 3e 61 6a be 43 fd 0b 3d 9f 60 4b be
       0.088387534 -0.22888657 0.034177076 -0.19861077
000210 7a 77 29 bd 37 eb 71 bd f6 e8 db bc 61 6d 45 bc
       -0.041373707 -0.05906221 -0.026844483 -0.012050004
000220 06 24 b5 3c f7 c4 d1 bb 29 50 91 3e d9 70 ed bd
       0.022111904 -0.006401654 0.2838147 -0.115937896
000230 d1 cf 72 be e4 6d bc 3d 0f d4 c5 3d 85 56 0e 3e
       -0.23712088 0.092006475 0.096595876 0.13900192
000240 07 07 0e be 8f f4 80 bd b2 15 4b be 74 da 1f 3e
       -0.13869868 -0.06296646 -0.19832495 0.15610677
000250 1a 42 09 3e 7e b2 ea 3d 24 c8 7c bd 3b 81 f8 3d
       0.13404122 0.11459826 -0.061714306 0.12134024
000260 a6 7a f1 3d 61 99 bc bd 30 7d ec 3c 69 27 cc 3e
       0.117909715 -0.09208942 0.028868288 0.39873818
000270 f2 ea c8 be 68 97 4c 3e 51 cf 14 3e 83 5d 8d 3d
       -0.3924175 0.19979632 0.1453221 0.069026016
000280 04 7f 00 be 9b ab 30 be f9 35 0d be 8a 7a 79 3e
       -0.12548453 -0.17252962 -0.1379012 0.24363151
000290 d0 07 3b bc 18 5b 5d bd 1b 23 7f bd e1 52 98 3e
       -0.011415437 -0.054041952 -0.06228934 0.29750732
0002a0 bf 09 97 bd a4 78 0d 3e b2 2f 88 3c 91 b8 ae 3e
       -0.07374906 0.13815552 0.016624305 0.34125188
0002b0 5d 1c 2b 3e 19 f0 11 be 1c 53 d9 3d 84 3f a7 3e
       0.16710038 -0.14251746 0.10611555 0.32665646
0002c0 d9 56 ce 3d 61 39 38 3e 17 d0 31 3e 7a 51 d4 39
       0.100751586 0.17990638 0.17364536 0.00040496496
0002d0 e4 e6 55 3c 56 b8 4f 3c 88 c6 2e be 7a 7d 90 bd
       0.013055537 0.012678226 -0.17067921 -0.07055183
0002e0 04 e6 f3 bc 98 1b 6c 3e 6c 71 63 be 41 81 70 bd
       -0.029772766 0.23057401 -0.22211236 -0.058717016
0002f0 3b 52 55 3c 0f 75 f7 bd 4e b5 90 bd d5 bc 17 3d
       0.013020094 -0.12082874 -0.07065831 0.03704532
000300 d5 3f 0b be 60 bd 35 3e 6b 8a 27 bd df fd 1a be
       -0.13598569 0.17748022 -0.04090349 -0.15135907
000310 15 ab 83 be 72 6b 51 3d e4 46 80 be 60 69 af 3d
       -0.25716463 0.05112786 -0.25054085 0.085650206
000320 50 da e9 3d 2f ba 66 bd f6 a0 16 be 9d 70 d2 bc
       0.11418593 -0.056329902 -0.14709839 -0.025688464
000330 79 ea a2 be df 57 c8 bc 36 38 2c be df 96 50 3e
       -0.31819513 -0.024455963 -0.16818318 0.20370053
000340 7f 0e 85 bc 71 33 b6 3c 3e 18 53 3e 44 42 61 3d
       -0.016242264 0.022241326 0.20614716 0.054994836
000350 2e 8f a9 3c 5d 93 3c 3e 7f 6d 52 3e 33 fb 35 3d
       0.020698156 0.1841559 0.20549582 0.044429015
000360 70 9c 78 3e b9 3c f1 bd d9 4f e9 bd 04 88 a0 bc
       0.24278426 -0.1177916 -0.11392183 -0.019596107
000370 f4 88 56 3e 7c 8a bc bc 03 ff 02 be 95 b6 09 bd
       0.20950681 -0.023015253 -0.12792592 -0.03362139
000380 8c ad a0 bd b5 a9 fb 3e f1 96 6b bd 0d 4c 94 be
       -0.078456014 0.49152914 -0.057516996 -0.28964272
000390 69 51 20 be 5c 96 8d be f3 8c cc bd c3 3a 97 bb
       -0.15656056 -0.27653778 -0.099878214 -0.0046151592
0003a0 6d 6a 18 be 3d 6b 48 3e 58 e4 2b 3b 02 ec 67 3e
       -0.14884348 0.19572158 0.0026228633 0.22648624
0003b0 04 29 bd 3c 43 96 85 3e 98 4c 25 bd 67 ef c3 3c
       0.023090847 0.26091203 -0.04035625 0.023917867
0003c0 d3 1e 2c be 52 65 6e be 7f bb 49 be 74 09 8e 3d
       -0.16808634 -0.23280838 -0.1970043 0.06935397
0003d0 d6 33 26 be 9b df 1d 3d ba 67 13 3e 9b 97 17 bd
       -0.16230711 0.038543325 0.14395037 -0.037009817
0003e0 50 34 f3 bd d2 ea ac bd 1a 40 1d be 2f fe 32 3e
       -0.11875212 -0.08443226 -0.15356484 0.17479776
0003f0 b4 8b 31 be bb 43 18 be 19 04 c9 3d 11 a7 2a bd
       -0.17338449 -0.14869587 0.09815235 -0.041663233

log_std.weight f4 [1, 256]
000000 6e db 3f 3c 78 41 e3 bc 79 33 9c bd b2 6b c1 bb
       0.011710031 -0.027741179 -0.07627005 -0.005902731
000010 fc 55 a8 bd 39 7a 12 be 03 f0 13 bd 3a 28 0c 3e
       -0.08219525 -0.14304437 -0.036117565 0.1368722
000020 bc e9 bf bc a9 dc e5 bc 51 b1 07 3d 50 45 61 bb
       -0.023426883 -0.02805932 0.033128086 -0.003437359
000030 9b 71 5c 3d 15 b6 8c 3c 87 0a 1a 3d 1f d2 56 bd
       0.05381928 0.017176667 0.037607696 -0.05244648
000040 c8 ca 9c bc 20 c7 fc bc b7 07 1a be 42 4d 48 be
       -0.019139662 -0.030856669 -0.15042005 -0.19560722
000050 cf ff 84 bd cf 76 70 3d 1b 8d 4b 3d 10 33 47 3c
       -0.06494104 0.058707055 0.049695116 0.01215817
000060 3e 93 2f 3d bd 60 76 bd bd 3f e3 bc 5b 1e bf bd
       0.04286503 -0.06015085 -0.027740354 -0.09331962
000070 ca 3f 13 bd f1 0e 5a 3c 5e ef ee bc be 9f 85 bd
       -0.035949506 0.013309226 -0.029166874 -0.06524609
000080 2c 76 e6 3b 3b 8e d4 3c 92 72 c0 3c af e5 7b 3c
       0.00703313 0.025946727 0.023492131 0.015374585
000090 25 78 89 3c 78 72 0a bc 60 14 ff bc 08 c5 1d be
       0.016780922 -0.008450143 -0.031137645 -0.15407193
0000a0 74 60 97 bd bb 6a e8 3c b4 5f b1 3c 15 97 81 bc
       -0.07391444 0.028371206 0.02165208 -0.015819112
0000b0 a5 49 90 bc b5 85 51 3d 93 c0 d4 3b 6e 42 cb bd
       -0.017613241 0.051152904 0.006492683 -0.0992478
0000c0 f2 d7 5e bd 8e de f3 ba 75 c6 22 bd 0f a6 ba 3d
       -0.05440516 -0.0018605755 -0.039740045 0.091137044
0000d0 cf 9a 38 3c 6d e1 46 3d 2c 79 32 be 32 22 a7 3d
       0.011267378 0.048554827 -0.17429036 0.08160819
0000e0 c3 56 5a 3d 64 d3 16 bd 32 4e 3e 3c 26 2c 5f 3c
       0.0533054 -0.03682269 0.011615323 0.013621366
0000f0 ab 0d c6 3b 3e fe 96 3c 62 ff 1b bd 42 9a 23 bd
       0.00604411 0.018431779 -0.03808535 -0.039942034
000100 99 42 45 3d ee 81 99 3d 37 ba 56 bd 75 57 19 3e
       0.048159216 0.07495485 -0.052423682 0.14974768
000110 85 0d 13 3d eb bd 15 3e ff c4 b8 bc 00 f2 f7 3c
       0.035901565 0.14623229 -0.022554873 0.030266762
000120 29 9e 6f bb 05 93 52 bd 95 f4 06 3e 7e ae 97 3c
       -0.0036562777 -0.05140974 0.13179238 0.018515822
000130 1f 01 97 bd f5 f7 a7 bd a9 65 09 3d 5b 8a c1 3c
       -0.07373261 -0.08201591 0.033544216 0.023625543
000140 f8 fa 51 bd 53 aa ef ba 9c fb d3 bd aa 81 03 bd
       -0.051264733 -0.0018285014 -0.10350725 -0.03210608
000150 61 56 04 3e 98 38 22 be 85 38 0b 3d ca a6 7e 3a
       0.12923576 -0.15841901 0.033989448 0.00097141846
000160 ef a2 c9 bc 03 3a 2a be 03 5f f0 bc 8f b4 54 3b
       -0.024613826 -0.16623692 -0.02934218 0.0032456254
000170 f8 34 79 bd ac aa c3 3c d7 8e 32 3b 65 6a 57 bc
       -0.06084153 0.023885094 0.0027245784 -0.013147925
000180 3d 90 cf bd 0a 9b 98 bc fd 39 c2 bd ac 4b bf bd
       -0.10134933 -0.018628616 -0.09483717 -0.09340605
000190 3d ee 08 bd 69 c4 55 3d f9 52 db 3c e8 08 c3 3c
       -0.033430327 0.052189264 0.026772963 0.023807958
0001a0 85 66 5b 3d 44 12 bf 3c be 0b fd bc f3 91 86 39
       0.053564567 0.02332414 -0.030889388 0.00025667212
0001b0 3d bb 7f bd 91 b3 2b bc dd 4c 80 bd f1 a6 88 bd
       -0.062434424 -0.010479824 -0.062646605 -0.066724665
0001c0 6c 37 0b 3e e1 4e 00 3e 3f 58 6e 3d c6 01 86 bd
       0.1359536 0.1253009 0.058189627 -0.06543307
0001d0 4a fc 00 3e 69 43 82 bd 75 de 52 3b 94 65 f3 bc
       0.1259624 -0.06360514 0.0032176052 -0.029711522
0001e0 80 35 cd bd 89 a4 1d 3e b4 75 04 3d 92 57 82 bd
       -0.1001997 0.15394796 0.032338813 -0.06364359
0001f0 05 96 5b 3d 2f 52 ed 3c 60 b1 6f 3c 72 1b 2d bc
       0.053609867 0.028969852 0.014629692 -0.0105656255
000200 d6 ce bb 3b cb d2 3b bd bd 91 27 bc 67 98 f3 bc
       0.005731444 -0.045855325 -0.010227618 -0.029735757
000210 4e df 25 bc ab 80 74 bd 6b 7d 98 3b 3d 0d 4a bd
       -0.010124041 -0.05969302 0.004653623 -0.04932903
000220 67 51 69 3d 03 83 75 3b bb 32 54 3e f8 51 f2 bd
       0.056962397 0.0037462122 0.20722477 -0.118320405
000230 ec 46 87 3d 25 f3 80 bc 4b 8c 80 bd dc 17 65 bb
       0.06605324 -0.01574094 -0.06276759 -0.0034956848
000240 54 a3 1d 3d c4 98 27 3e 4b f7 31 bc 9c 00 5d 3d
       0.03848584 0.16366869 -0.010862182 0.05395566
000250 36 a4 e5 3c 06 38 17 bd 14 02 a7 bd b6 f7 b1 3d
       0.028032403 -0.036918662 -0.08154693 0.08689825
000260 be 76 ed bd d2 05 c6 bd c8 f3 37 bd c1 39 4a 3c
       -0.11594914 -0.09669079 -0.044910222 0.012342871
000270 34 ab cd bd 03 4f 85 3d eb e9 31 bd ca cd 8f 3d
       -0.1004242 0.06509211 -0.043435972 0.07021673
000280 2d 45 4b be f9 3e 9f bd 98 7f 80 3d 03 bc 69 be
       -0.19850607 -0.07775683 0.062743366 -0.22825627
000290 76 c2 26 be dc 1f 36 bd 49 dd 0c 3d 10 3e ae be
       -0.16285118 -0.044463977 0.03439072 -0.34031725
0002a0 5a 68 50 3e 7d cd b0 bd 08 b1 f3 bc ff 59 86 bc
       0.20352307 -0.08632944 -0.029747501 -0.016400335
0002b0 08 27 e0 bc 33 0b 82 3d 87 e1 96 bd 11 dd 92 be
       -0.027362362 0.06349792 -0.07367235 -0.28684285
0002c0 94 25 b0 bc e5 6b 1e 3d 82 52 e9 3c b5 3a c2 3c
       -0.021502294 0.038677115 0.028481726 0.023709634
0002d0 f3 b4 ae 3c 7c 5d 3f bd 70 60 4b bd 29 93 c1 3c
       0.021326518 -0.046720013 -0.049652517 0.023629742
0002e0 00 68 38 ba 0b b3 f9 bd 36 07 f5 3d 34 09 31 bd
       -0.000703454 -0.12192353 0.11964266 -0.043221667
0002f0 06 7a 43 3d e0 89 ae 3d 28 e8 4e bd ff 57 a6 bd
       0.047723792 0.08522391 -0.05051437 -0.08122253
000300 54 1b a6 3c e5 6d 4d be 04 13 2b bd ff 0d 1a bd
       0.020276703 -0.20061453 -0.04176618 -0.037611004
000310 ee 3c b2 3b 0b 33 3a bd 9a 1a f9 3c dd d2 ce 3d
       0.0054393923 -0.045458835 0.030408192 0.10098813
000320 1d dd 20 3d b5 47 f8 bc 55 74 13 bd b6 cf a5 bc
       0.03927337 -0.03030763 -0.035999615 -0.020240646
000330 9f a5 de 3d dd 8e 82 bd 55 b6 00 3c 07 7c e8 bd
       0.108714335 -0.06374905 0.007855971 -0.11351781
000340 77 0a 3b 3d f8 fa 18 3d 81 3b 49 3d d2 7a ac 3d
       0.045664277 0.037348717 0.049129013 0.084218636
000350 53 b3 54 3d 15 ad fa bd 5d 7d 2d bd 39 c2 2b bd
       0.05192883 -0.12240044 -0.042355884 -0.041933272
000360 67 f7 55 bd 10 df f4 bc 4e 30 34 bd c8 60 23 bd
       -0.052237894 -0.02989152 -0.04399138 -0.03988722
000370 3b c7 8a 3d e3 94 e9 bc b9 c3 5f bc 3a ce 4d 3d
       0.067762814 -0.028513378 -0.013657504 0.0502455
000380 4e 07 7d bd 1f 1a a6 bd aa 8c 2d bd 0b 30 94 3c
       -0.061774544 -0.08110451 -0.042370476 0.018089315
000390 c5 38 7e 3d 2c dd 2f bd 88 19 84 3d 6a f7 4e bd
       0.06206586 -0.042935535 0.06450182 -0.05052892
0003a0 73 f6 19 bc e4 14 e6 bc ba e7 ed bc 45 b5 5c bd
       -0.009397137 -0.028086133 -0.02904116 -0.05388381
0003b0 53 ab 50 3d 51 e7 82 3c d9 4b b0 3b 52 ed e7 3d
       0.050944638 0.01597944 0.0053801355 0.11324562
0003c0 31 02 f4 bc 1b 0e 2e 3e c0 be dc 3a 38 52 fe bb
       -0.029786201 0.16997568 0.0016841516 -0.007761266
0003d0 67 c8 82 3b 38 d4 ec 3d b8 6e 1c bd ba e6 02 3d
       0.003991175 0.11563915 -0.038191527 0.03195832
0003e0 82 e6 01 bd 8f 5f 9b 3c 87 c8 d6 3c e0 cc fc 3c
       -0.03171397 0.018966464 0.026218666 0.03085941
0003f0 6a 34 cc bc 1a bd 02 be b7 5c 8b bd 5d f2 f5 3c
       -0.024927337 -0.12767449 -0.06804793 0.030022794
