results/cartpole/sac/20251207-223656/critic_target.pt (torch, 545643 bytes, 10 tensors)

q1.0.weight f4 [256, 5]
000000 61 55 69 3e 31 e8 c3 3e 66 e5 c5 3e a4 30 95 bd
       0.22786476 0.38263085 0.3865158 -0.07284668
000010 a1 a0 43 be 27 96 1e 3e b1 da 38 be b9 f0 d1 be
       -0.19104244 0.15486966 -0.18052174 -0.4100397
000020 a7 a1 77 be 7c 70 44 3d 21 06 7a be 2a 00 8e 3e
       -0.24182759 0.047958836 -0.244164 0.277345
000030 ec a8 d9 be cf 74 87 bd 75 0b 2a be 2e ae 43 bd
       -0.4251169 -0.06614076 -0.16605933 -0.047773533
000040 fd b5 91 be 66 bd a5 be 0f b2 83 be 18 48 ce bc
       -0.2845916 -0.32371062 -0.25721785 -0.025180861
000050 82 ba cf bc ad 28 10 3e d0 7b 84 3e 44 06 06 3e
       -0.025357489 0.14078017 0.2587571 0.13088328
000060 51 65 02 be 78 b9 d5 3e 6c a2 3c be 0a bd ad 3e
       -0.12733962 0.41743064 -0.18421334 0.33933288
000070 f4 f2 a2 3e 06 87 10 be ae 3d 65 3e 68 5f ba be
       0.31825984 -0.14114007 0.2238681 -0.36400914
000080 d6 1b 79 be dd 2a 8e 3e 67 c7 96 3e 8a 0d bd be
       -0.24327025 0.27767077 0.29449007 -0.36924392
000090 76 9b d4 3e 48 4c 9f be dc 89 e8 be 90 ab b0 3e
       0.41524857 -0.31112885 -0.45417678 0.34505892
0000a0 1f 78 15 3e d6 e8 a6 3d f8 f3 22 3e 05 47 1d 3d
       0.14596604 0.08149879 0.15913379 0.038397808
0000b0 82 a9 ee 3d e3 44 08 3e f3 40 07 bd f9 9d e3 3e
       0.11653425 0.13307528 -0.033020925 0.4445646
0000c0 03 a8 a0 3e 52 24 0c bf fa fb 1d be 9a af ca be
       0.31378183 -0.5474292 -0.15428153 -0.39587098
0000d0 d9 db 75 3e a5 d4 e9 3e bb ba 00 bf 99 b4 99 be
       0.24009646 0.45670047 -0.5028493 -0.30020598
0000e0 2e b8 93 3d 0d a3 ec be 70 10 5b be d8 c1 b9 3e
       0.07212864 -0.46218148 -0.21392989 0.36280704
0000f0 0b 1b 98 3e bb c2 5a be 9d f3 c2 be d2 e4 ed be
       0.29708132 -0.21363346 -0.38076487 -0.4646364
000100 82 bf 11 3e 58 be d7 3e df 74 79 3e 75 e3 e4 3c
       0.1423321 0.42137408 0.24360989 0.027940491
000110 81 e5 bd 3e b8 24 b8 be 07 b8 c7 3e ca 6f fe bc
       0.3708916 -0.35965514 0.3900759 -0.031059165
000120 cc 81 f1 be 87 d0 3a 3e fb b6 74 be 2d 34 fe 3e
       -0.4716934 0.1824361 -0.23897927 0.49649182
000130 60 7e 1a be 11 36 8c be c0 b8 af 3e f2 96 b7 3e
       -0.1508727 -0.27385 0.3432064 0.3585735
000140 b6 b5 70 bc 06 5e 28 3e a7 0a 2b 3e 66 da b8 be
       -0.014691761 0.16442117 0.16703282 -0.36104125
000150 a1 21 23 3e a2 71 fb 3e 85 f0 a8 3e f3 b3 ba be
       0.15930797 0.49110132 0.32996002 -0.36465415
000160 6e 7f 9b 3e 06 86 6b bc 91 6a af 3d e3 b2 c5 bd
       0.3037066 -0.014375215 0.08565248 -0.096532606
000170 75 8f b3 be 0e 5a 86 3e 32 e2 99 be 51 a6 25 3e
       -0.35070387 0.2624058 -0.30055386 0.16176726
000180 e7 3e e9 3d e7 6e d2 be 99 a0 7f be e2 c4 d8 3e
       0.11388951 -0.41100237 -0.24963607 0.4233771
000190 36 4f e1 bb c3 a3 e8 be 8e 4e 32 3e f0 1c 73 be
       -0.0068758978 -0.4543744 0.17412779 -0.23741508
0001a0 52 7f 12 3f 36 2f 2f be db 31 f7 3d c9 e1 cd be
       0.57225525 -0.17107853 0.12070056 -0.40211323
0001b0 73 97 b7 be bc ed 9a be 47 9e 7e bd 27 65 3f be
       -0.35857734 -0.30259502 -0.062162664 -0.1869093
0001c0 f3 49 c4 3d fe b0 9a 3e 87 88 27 3e 49 d0 f7 3b
       0.09584417 0.3021316 0.16360675 0.0075626713
0001d0 56 a6 3d 3d c1 72 6f bd df 49 d1 be 4d d8 e4 3e
       0.04630121 -0.058459047 -0.40876672 0.44696274
0001e0 14 ec 88 be 68 26 3c 3d fd 6d 38 3e db b3 2d be
       -0.26742613 0.045935065 0.18010707 -0.1696314
0001f0 94 d8 f5 3e 6d 51 8a 3e 0b 98 eb 3e 7a af 2b bb
       0.48016798 0.27015248 0.46014437 -0.0026197121
000200 98 6f 36 be 24 65 f6 bd 49 cb da be 2e cb af be
       -0.17816007 -0.1203101 -0.4273322 -0.343347
000210 80 d5 7d bc 92 b4 09 be 1e 61 48 be e5 94 b1 3e
       -0.015492797 -0.13447788 -0.19568297 0.3468391
000220 32 45 5e be b5 ef bb be 58 23 a1 3e 50 a8 eb bd
       -0.21706083 -0.3670632 0.31472278 -0.115067124
000230 ac 76 20 3e f6 73 01 3e 9c 69 a1 3e 78 90 05 3f
       0.1567027 0.12641892 0.31525886 0.52173567
000240 4a 87 9e bd 3a 0f a4 be 9a 80 91 3e c4 35 76 be
       -0.07740648 -0.32042867 0.28418428 -0.24043947
000250 36 6f 7c be bb eb cb 3e b5 23 da be 6e 32 91 3d
       -0.24651799 0.39828286 -0.42605367 0.07089697
000260 e2 76 ef 3e 2a 80 a1 be 4d 7f af be 00 2d dc 3e
       0.46770388 -0.31543094 -0.3427681 0.43003082
000270 c1 d2 f7 be 61 74 47 3e c2 53 b7 3d fd 7c c8 3e
       -0.4840298 0.19477989 0.089515224 0.39157858
000280 59 6a 0d 3e 20 0d 6f be 80 dd eb be 2f 49 ac 3e
       0.138101 -0.2334485 -0.4606743 0.33649585
000290 e0 d9 56 bd 62 b4 7a bd 25 c4 3d 3e 97 47 e0 3e
       -0.052453876 -0.061207183 0.18531854 0.4380462
0002a0 87 b8 90 3d 9d 5f d6 3e 7b df 06 3e 09 f8 2e be
       0.07066446 0.41869822 0.13171189 -0.17086805
0002b0 22 5f 6e 3d 6e 53 ec bd 30 66 16 bd 55 63 92 3d
       0.058196194 -0.115393505 -0.036718547 0.07147852
0002c0 c3 9d 21 be 00 89 80 3c 63 11 ae be 71 81 3c bf
       -0.15782838 0.015690327 -0.3399764 -0.7363501
0002d0 8e 8b 4f be 18 37 68 3e 5d 2d 8b be 41 e6 5f be
       -0.2026808 0.22677267 -0.27183047 -0.21865179
0002e0 68 b8 24 3d 8f b5 8e 3e 34 19 e5 3e 15 61 a2 3d
       0.040214926 0.27872893 0.4474579 0.07928673
0002f0 6c bf 7c 3e d4 e2 a4 be 5f 04 13 bd e4 54 9e 39
       0.24682397 -0.32204306 -0.03589284 0.00030199357
000300 7e fd c1 3e 26 f7 14 3e ae 91 1e be a8 3e e4 3e
       0.37888712 0.14547405 -0.1548526 0.44579053
000310 67 c6 8f 3b 8c 1a 36 3e fa 85 61 3e bd c4 5b be
       0.004387665 0.17783564 0.22023764 -0.21461768
000320 f1 04 92 3e 42 bf 89 bd e1 6f e4 be fa 5b 8a be
       0.28519395 -0.06725933 -0.44616607 -0.27023298
000330 48 30 4e 3e c7 1f 86 3e 0e 52 22 be a8 9e 8d bd
       0.20135605 0.2619612 -0.15851614 -0.06915027
000340 83 7d a8 3e 2d 39 8b bd f8 08 f5 3d 6d 45 6e bd
       0.32908258 -0.06798015 0.11964601 -0.05817168
000350 34 a9 a8 be 29 a0 5d be 46 91 85 3e 95 13 a0 3d
       -0.32941592 -0.21643128 0.26087397 0.07816235
000360 df 14 f6 bd 3a 2a 53 bd 8e c0 19 3e 1b 5a f5 3e
       -0.120156996 -0.051553942 0.1501486 0.47920308
000370 e0 43 c8 bd 70 8e 90 be 39 8f 8e be bb 32 e7 3c
       -0.09778571 -0.2823367 -0.27843645 0.028222432
000380 90 f3 9b 3e dd 40 03 3e f9 d4 e3 be aa e3 43 be
       0.3045926 0.12817712 -0.44498423 -0.19129816
000390 82 92 df be 86 02 09 3e 96 03 7b 3e ed 18 d2 3e
       -0.43666464 0.13379869 0.24513087 0.41034642
0003a0 95 ef 0d be be 9e 22 3e 40 8b b1 3c 97 fc e3 be
       -0.13860925 0.15880868 0.021672845 -0.44528648
0003b0 42 ce dd 3e 04 00 9a 3e 0a 4d dc be b9 16 be 3e
       0.43321425 0.30078137 -0.43027526 0.3712671
0003c0 8c 1e 8d 3e 55 53 c1 be 56 0f a5 3e 51 6a db be
       0.27562368 -0.3775889 0.32238263 -0.4285455
0003d0 ee 1f bd 3e 40 21 36 3c df 91 5d be e3 c1 6b 3e
       0.36938423 0.011116326 -0.21637677 0.2302318
0003e0 5c 9b a2 3e 15 64 11 bf 40 ee 62 3e 63 e6 0a 3d
       0.31759155 -0.5679334 0.22161198 0.03391112
0003f0 61 dd c1 3e 37 0a 01 3f 8e 2c 06 3f b6 fd 5c 3e
       0.3786421 0.5040621 0.52411735 0.21581158

q1.0.bias f4 [256]
000000 fe 85 9f be 90 69 8f be ff 6a 84 be c4 6d a2 be
       -0.31156915 -0.28010225 -0.25862882 -0.3172437
000010 66 50 02 3f 73 97 f6 3e ac 5d 04 be 23 89 a5 3e
       0.5090393 0.48162422 -0.12926358 0.3233119
000020 2e f9 c3 3e 81 bc 81 3e eb 7f 69 bc 85 95 be be
       0.38276047 0.2533913 -0.014251689 -0.3722345
000030 7a e4 c6 3e ed 64 1a 3e 55 7d ae be 83 81 8d be
       0.3884619 0.15077563 -0.34079996 -0.27637872
000040 b9 ed 02 be c6 59 d9 bc a1 ce cf 3e 91 10 83 3e
       -0.12785996 -0.026532065 0.40587333 0.25598577
000050 d1 39 55 be d8 fc 74 bd 5b 46 97 be 9c d8 eb be
       -0.20822836 -0.059811443 -0.29545864 -0.46063697
000060 68 11 91 3e 6f ab e7 3e 0c 4f de 3e f4 3d 54 be
       0.28333592 0.4524798 0.43419683 -0.20726758
000070 42 e6 3b be 77 3f b2 be a7 ac 5e 3e a8 11 d7 3e
       -0.18349555 -0.34814045 0.21745549 0.42005658
000080 c2 36 a9 be e4 64 dc bd f8 e5 9c 3e e9 7c 44 3d
       -0.3304959 -0.10761431 0.30644202 0.047970686
000090 42 a0 c5 3e 6a d0 c7 be 1f 72 76 be 50 9b a6 3e
       0.3859883 -0.39026195 -0.24066971 0.3254037
0000a0 7d 24 4d be d3 f8 bf 3e b4 a5 c1 be 44 29 98 3c
       -0.2003345 0.37494525 -0.37821734 0.018574364
0000b0 95 00 99 bd a0 f0 96 3b 93 f2 14 bc 51 ad 9d 3d
       -0.07470814 0.0046063215 -0.009091037 0.07699073
0000c0 40 2f 54 be c1 58 64 3d 4a 62 8e 3e 55 1e 88 bd
       -0.2072115 0.055748705 0.27809364 -0.066464104
0000d0 7c d8 a3 be a5 b7 cf bd 30 ac a8 be 35 e0 38 be
       -0.32001102 -0.10142449 -0.3294387 -0.18054278
0000e0 99 98 85 be 83 38 9e 3d 87 b5 80 3d 30 4f 81 be
       -0.26092985 0.077256225 0.062846236 -0.25255728
0000f0 17 7c ef 3e 06 86 4d 3b c3 db 3d bc 8e 13 94 be
       0.4677436 0.0031360402 -0.01158804 -0.2892117
000100 bd fe be 3e f6 0e 96 be 8b 79 cf 3e 00 d0 d7 3e
       0.37303725 -0.2930829 0.40522417 0.4215088
000110 d2 f6 ce 3d 2b 01 67 bc 81 8e f2 3e bf 7f 97 3d
       0.10105671 -0.0140994 0.47374347 0.073974125
000120 da 67 cf 3e d6 18 aa bb 4d 65 6f 3e ab 1d 04 3e
       0.4050892 -0.005190949 0.23378487 0.12901942
000130 ca c0 9d be e4 44 7f be be c1 a6 be ea 7e 9a 3e
       -0.3081115 -0.24928623 -0.3256969 0.30174953
000140 62 bb 30 be e2 1b 23 bd db 6c cb 3e 74 8e b2 be
       -0.17258981 -0.039821513 0.39731488 -0.34874308
000150 5c 68 cd be da 9a d0 be f2 89 93 be 9f e6 d5 be
       -0.40118682 -0.40743142 -0.2881618 -0.41777512
000160 c7 a2 37 be af 28 8a 3e 69 f8 39 3e 1d 86 16 be
       -0.17933188 0.26984164 0.18161167 -0.14699598
000170 3d d1 0e 3d 55 e0 86 be 63 be 79 3e f3 89 44 3e
       0.034867514 -0.26343027 0.24389033 0.19193248
000180 83 e0 e6 bd 28 79 31 3c d1 f7 44 3e 12 3a b4 3e
       -0.11273291 0.010832109 0.1923516 0.35200554
000190 ed 37 ea be e0 23 54 3e db 69 3f be ca 91 91 3e
       -0.45745793 0.2071681 -0.18692724 0.2843154
0001a0 ac 5c 74 be 9a 2c dc 3e c0 5b c9 be a1 3f b0 be
       -0.23863477 0.43002778 -0.39327812 -0.34423545
0001b0 82 02 d0 3e 8e 4f 1f be f9 9b 5b be eb e1 93 be
       0.40626913 -0.15557691 -0.21446218 -0.288833
0001c0 5e 61 cd be ae da c3 3e cb 72 3d 3e 9a 55 2c be
       -0.40113348 0.38252777 0.18500821 -0.1682953
0001d0 b3 9d aa be 8c 1b c7 bd 93 07 9a be 2d ff 6b 3e
       -0.3332344 -0.09722051 -0.30083904 0.2304656
0001e0 09 1c 3e be 51 65 2d 3e 8e 95 1f be 21 72 be be
       -0.18565382 0.1693318 -0.15584394 -0.37196448
0001f0 51 39 bc 3e 7b 24 50 be 43 13 69 bd 6b c9 15 bc
       0.3676248 -0.20326416 -0.056903135 -0.00914226
000200 55 4d 55 be 34 57 bd be 57 98 49 3e 9e 80 df 3e
       -0.20830281 -0.36980593 0.1968702 0.43652815
000210 72 2c 06 3f a3 39 95 be 56 46 d3 3e 14 8e c9 be
       0.5241157 -0.29145536 0.412646 -0.3936621
000220 31 8d d6 3e bf f9 70 bd 91 5b b3 be 3e b2 ab 3e
       0.41904595 -0.058831926 -0.35030797 0.33534425
000230 4a 7f 72 be 6a 0c 0a be 29 1b c2 bd dc 9a 94 be
       -0.2368137 -0.13481298 -0.09477837 -0.29024398
000240 09 ea 9a 3d e3 61 9f 3e d4 fd b9 be 46 a5 dd be
       0.0756417 0.3112937 -0.36326468 -0.43290156
000250 73 d6 f5 be 12 54 87 3b ed 45 82 be 7b 38 13 be
       -0.48015174 0.004129895 -0.25443974 -0.14377014
000260 33 10 be 3d 0f 47 91 3e 38 51 6d 3e 02 fb 1c bf
       0.092804335 0.28374526 0.23175514 -0.6132051
000270 2c ab 7f be ba dc 09 3f d0 73 2c be 2d 00 ba be
       -0.2496764 0.53852427 -0.16841054 -0.3632826
000280 62 53 fa 3e 85 97 3f be 8b ad 34 be 4b 1e ce 3e
       0.4889174 -0.18710144 -0.17644326 0.40257487
000290 6e 25 e1 bc 9a 6a 81 bc a9 d8 5a 3d 98 c8 e5 be
       -0.027483668 -0.015797902 0.05342928 -0.44879603
0002a0 4d 33 82 3e 8c b0 00 bf e5 51 ca 3e b1 8d d2 3e
       0.25429764 -0.5026939 0.39515606 0.41123727
0002b0 e4 41 ab be e5 64 86 be 59 74 7b 3e 9b 5e de 3e
       -0.33448708 -0.2624885 0.24556102 0.43431553
0002c0 69 df df 3e 7a 4e 18 be 63 91 bf be 93 04 a5 be
       0.43725136 -0.14873686 -0.3741561 -0.32230052
0002d0 22 1b 9e bc 03 1c ad 3e 7b 36 2e bd 7a b3 f9 3e
       -0.019300047 0.33810434 -0.042532425 0.48769742
0002e0 f3 31 58 be b1 02 cd be 05 ec b8 be 6b 9c 3c 3e
       -0.21112804 -0.40041116 -0.3611757 0.18419044
0002f0 f5 e3 83 3e d2 4a 5a be c4 23 29 3d 3e 07 f4 bd
       0.25759855 -0.21317604 0.041293874 -0.11915444
000300 72 80 a1 be e5 10 9d 3e d2 81 f8 be c6 9b 37 3e
       -0.31543308 0.30676952 -0.48536545 0.17930517
000310 98 ea b0 3e be f9 f4 3e f1 61 02 3f 43 86 b5 3e
       0.3455398 0.47846788 0.50930697 0.35453996
000320 8b c2 ff 3e 89 27 fc 3d b7 71 5a 3e ad a6 60 3e
       0.49953112 0.12312228 0.21332441 0.21938582
000330 9f d0 b6 be ef 5e 1d be 67 32 c0 be 7b de 54 3e
       -0.3570604 -0.15368246 -0.37538454 0.20787995
000340 d0 d4 a8 be 0b f2 33 bd 27 90 98 3e 59 bf 9d be
       -0.32974863 -0.043932002 0.2979748 -0.3081005
000350 f4 5f 97 be 66 b7 b1 be 31 c8 8e 3e 6f ad ba 3e
       -0.29565394 -0.34710234 0.2788711 0.36460444
000360 61 6c f4 3e 70 d3 be 3e 2f 7f 99 3e 9f a1 c2 3e
       0.47738937 0.3727069 0.29979846 0.38013932
000370 26 da 42 3e 7f 93 57 be de de cf bd c8 62 fd 3d
       0.1902853 -0.21052359 -0.101499304 0.12372357
000380 cd 5b a2 3e a9 02 95 3e 21 c4 d1 3e 3d cc be 3e
       0.31710663 0.29103592 0.40969947 0.37265196
000390 cd 73 51 3e 2c 26 92 be d1 7e 8d be 64 fe 4f 3e
       0.2045433 -0.28544748 -0.27635816 0.20311886
0003a0 62 82 aa be b0 e2 7c 3e d4 f8 e1 bd 57 4f ca 3d
       -0.333026 0.2469585 -0.11033788 0.09878414
0003b0 c6 05 c5 3e af 22 6c 3e a0 e5 73 3e 0b 59 1d 3e
       0.38480967 0.23060106 0.23818064 0.15365998
0003c0 66 68 cb be f8 36 18 be 3b 93 cb 3e dc d8 46 3e
       -0.39728087 -0.14864719 0.39760765 0.19418663
0003d0 08 17 7f be f4 0a cf 3e 7e 8a 94 3e 22 f0 65 be
       -0.2491113 0.40438044 0.2901191 -0.22454885
0003e0 fa ed 85 be ae 3e 9d be 01 cd a9 bb d5 d0 5a 3e
       -0.26158124 -0.30711883 -0.005181909 0.21368726
0003f0 ef e5 85 bc 81 03 96 be e6 57 be bd 9d 77 4a 3d
       -0.016344992 -0.29299548 -0.09294109 0.04943048

q1.2.weight f4 [256, 256]
000000 3e 05 b8 3c 12 25 d3 bd 11 93 2d be c3 95 21 be
       0.022463437 -0.10309805 -0.16950633 -0.15779786
000010 81 34 6d 3d 39 f1 7c 3d 91 b4 cf bd 65 9f a1 bc
       0.0579114 0.061753485 -0.10141862 -0.019729326
000020 fd cf 06 3d 5a 8d 0d bc 48 7f f5 bb 80 4c 77 bd
       0.032913197 -0.008639658 -0.0074919797 -0.06037569
000030 d9 76 6c 3d fb 3c 1d 3e ff 26 3c be b6 d6 82 bd
       0.05773053 0.15355293 -0.18374251 -0.06388609
000040 1c b9 df bd 94 e7 11 3d 2d 1f ec 3d 4d cd 74 3c
       -0.10923979 0.03562124 0.11529384 0.014941526
000050 f8 60 08 be d2 47 34 bd 7f 06 f9 3a 19 35 83 be
       -0.1331824 -0.044013806 0.0018999128 -0.25626448
000060 82 c9 d3 3c 02 bf a4 3d 96 7d dc 3d 60 d7 2f be
       0.025852922 0.08044244 0.10766141 -0.17172003
000070 d7 96 e5 bd 24 f0 93 bd 8a 92 aa 3d 68 84 ae 3c
       -0.11210411 -0.072235376 0.08328731 0.02130337
000080 a2 8b 02 be b2 e9 ad bb 54 51 09 3d c7 03 af 3e
       -0.12748578 -0.0053073997 0.033524826 0.3418257
000090 33 92 bd 3d d2 20 6f bc 74 cf 6d bc 4c 4e 8e 3d
       0.09256401 -0.014595227 -0.014514793 0.06948528
0000a0 7b ca 0d be bd 72 12 3d 95 18 24 be 91 00 56 3d
       -0.13846771 0.035753954 -0.16025002 0.052246634
0000b0 c6 2b c5 bb 7c 14 e2 bc eb e3 21 bd 5e de 47 3d
       -0.006017181 -0.027597658 -0.039524 0.04879605
0000c0 af 9f 5b bb ba e8 f8 3b 3e a2 15 3d 06 7e c0 bd
       -0.0033511927 0.0075961025 0.03653168 -0.09399037
0000d0 65 d2 5e 3d d2 6e 32 3d ce b5 2b be 43 fa 4e bd
       0.054399867 0.043562718 -0.16768572 -0.050531637
0000e0 ba df da bd 22 fc 8f 3c 41 41 e0 bc 78 69 00 bc
       -0.10687204 0.017576281 -0.027374865 -0.007837646
0000f0 ca e9 aa 3d 15 6c 0c 3d 84 c2 20 3d a9 9d 2c bd
       0.08345373 0.034282763 0.039248005 -0.042142544
000100 c6 b8 5a 3c 27 b1 73 bc ed a7 20 3d 20 ca af 3d
       0.0133497175 -0.014873779 0.039222647 0.08583474
000110 3c 44 a6 3d c2 d0 9c bd f5 20 ec 3d 7d 65 63 3d
       0.081184834 -0.07657005 0.115297236 0.05551671
000120 7e a6 f2 3d 81 37 11 bd 3d 74 ed 3a 03 9d 48 3e
       0.11848162 -0.035453323 0.0018116307 0.19591145
000130 ef c2 e1 bd 2e 4f f1 bd fa 02 1e be f2 82 87 3d
       -0.11023509 -0.117826805 -0.15430823 0.06616773
000140 0e fd ba bd 9f a3 49 bd ce 1a da 3d f0 61 41 bd
       -0.091302976 -0.049228307 0.10649644 -0.04721254
000150 12 f6 a3 3d ac 90 95 bd 6f 60 20 be c3 a9 64 3c
       0.080059186 -0.073029846 -0.15661786 0.01395649
000160 f0 ad 47 bb 1f 1d ab 3b 50 98 ed 3c 4b 86 da bb
       -0.0030468665 0.0052219774 0.029003292 -0.006668841
000170 14 b0 06 bc ec 0e 11 bc c5 fe 05 bc 42 c5 97 3c
       -0.008220691 -0.008853655 -0.008178418 0.018526677
000180 ab 22 3f bd fa f6 c3 bc 1b 6b c8 bc 6b c5 44 3d
       -0.04666392 -0.023921479 -0.024465134 0.048039835
000190 32 5e 85 3c 6d bf c4 3d d8 6c e1 bb 4b 24 6c 3d
       0.016280267 0.09606824 -0.0068794303 0.0576518
0001a0 1d 30 97 be 1c c9 02 3d fd b5 9b bd ff 20 8a be
       -0.29528895 0.031930074 -0.07603071 -0.269783
0001b0 fc 6d 00 3b 79 59 27 be a4 36 5b 3d 71 a9 a3 be
       0.0019596806 -0.16342725 0.053518906 -0.3196521
0001c0 ac 7f c3 3c c0 35 16 bc 25 07 ad 3d 00 42 d9 bd
       0.02386459 -0.009168088 0.08448628 -0.106082916
0001d0 82 42 62 bd a2 6b cc 3c 50 94 0f be 90 02 cc 3d
       -0.055239208 0.024953667 -0.1402142 0.09961426
0001e0 6c 25 16 be ff 0f 9e 3d 0a 45 07 be 44 72 1b bd
       -0.14662713 0.07717895 -0.1320993 -0.03795077
0001f0 1a 43 b2 bc c8 81 fe bd 9d 0b 28 3d 5a f2 34 bd
       -0.021760512 -0.124270976 0.0410267 -0.044176437
000200 0b b3 a4 bd ce 10 21 be f6 b3 11 3e a7 03 cb bb
       -0.08041962 -0.15729067 0.14228806 -0.0061955038
000210 d2 03 be 3d 45 cc 33 3c 35 26 e3 3d db 57 04 bc
       0.092780724 0.010973995 0.11091272 -0.008077587
000220 72 2d 52 3d 73 2c 9d bd aa 80 99 bb 3b c2 85 3d
       0.05131287 -0.07674494 -0.0046845274 0.06531187
000230 a0 e6 1c 3d d0 60 05 bd e8 06 00 3e 8e 9d 3a bd
       0.03830588 -0.03256303 0.12502635 -0.045560412
000240 a8 b7 74 bc 79 a4 c7 3d 0b b4 1b be 09 11 e6 3d
       -0.014936365 0.097481675 -0.152054 0.11233718
000250 0a 99 b6 3c 0d d4 c8 3d f1 bc f8 bd 91 ab aa bc
       0.022289772 0.098060705 -0.12145413 -0.020833762
000260 80 54 e6 bc fd 12 91 3d 28 10 de 3c 09 3c 9b bd
       -0.028116465 0.070837 0.027107313 -0.0757981
000270 2b a9 fd bd 7a 1e e4 3c f3 3c 55 bd 51 f4 87 be
       -0.12385782 0.027846564 -0.05206008 -0.26553586
000280 34 1a d5 3a 2f b1 5e 3d e9 71 2a bd e5 b7 35 3d
       0.001625842 0.054368194 -0.04161254 0.04436483
000290 97 ea 7d 3d 20 c4 b1 3c 34 b9 5d 3d c5 c4 78 be
       0.0619913 0.021699965 0.0541317 -0.24293812
0002a0 68 25 4a 3c af e8 2f be 09 d6 85 3d f3 c4 1e 3b
       0.01233802 -0.17178605 0.065349646 0.0024226278
0002b0 56 b9 15 be 07 11 61 3d 33 f3 04 3d 3f 3d 59 3d
       -0.14621481 0.05494788 0.032458495 0.053036924
0002c0 d9 c0 92 bb 84 4e 11 3c d5 72 bd bd 21 25 47 3d
       -0.0044785556 0.008868817 -0.09250418 0.048619393
0002d0 1f d3 0c 3c f5 98 0f 3e 36 42 bd 3c de f0 57 3c
       0.008595257 0.14023192 0.02310286 0.013179986
0002e0 df d9 24 bd cb e6 88 3b 53 65 77 3c 85 88 11 bb
       -0.04024684 0.0041779033 0.015099841 -0.0022206616
0002f0 ac e2 85 3d 92 3e 74 bd 71 b0 f0 bc 64 2b 14 bd
       0.06537375 -0.059629984 -0.029381009 -0.036174193
000300 43 6f af 3c 07 0b c3 3c c4 e9 16 be 02 d9 d2 3d
       0.021415358 0.02380897 -0.14737612 0.10295297
000310 f6 6b 40 3d 6b a3 89 3c 36 e6 d4 bc fb 93 ce 3d
       0.04697796 0.016801557 -0.02598868 0.10086819
000320 2e 77 81 3d 95 3d 2e ba 6e 1e 39 3c 63 4f 93 3d
       0.0632156 -0.00066467497 0.011298759 0.07192876
000330 c8 75 01 be df f6 be bd 16 85 a6 bd 7e c2 be bb
       -0.12642586 -0.09324431 -0.08130853 -0.005821525
000340 6e 31 e9 bd b7 29 0d bb 6a db 98 3b c3 fb 89 bd
       -0.11386381 -0.0021539757 0.004664828 -0.06737473
000350 1b c0 8a bd f7 40 25 be ab 1a 94 b9 24 91 d0 3d
       -0.067749225 -0.16138063 -0.0002824863 0.101839334
000360 5f 3c a7 3d cc 73 7b 3c cf 00 c7 3d bd e7 bd 3c
       0.08165812 0.015347432 0.09716951 0.02318179
000370 ce 47 7b 3d 5a c4 a2 bd e6 e5 80 bb d2 cd 2f 3d
       0.061347775 -0.07947607 -0.003933656 0.042920895
000380 de c0 96 3a 35 c2 c1 3d b8 c3 91 3d 79 9f e2 3d
       0.0011501571 0.0946087 0.071174085 0.11065573
000390 32 af 30 3d 8a 22 0a bd 69 3f 42 bd c7 29 d5 3d
       0.04313583 -0.033724345 -0.047423754 0.10408359
0003a0 d7 66 80 be e2 b5 c5 3d 18 08 ab 3c cd ce 55 bb
       -0.2507846 0.09653832 0.020877883 -0.0032624484
0003b0 9b 66 7c 3c 3d 0a b8 3c 14 fa 70 3d 48 61 03 3d
       0.015405322 0.02246582 0.058832243 0.032075197
0003c0 dc e5 d1 bd f5 56 f8 bd 9f 97 7d 3b bc 70 8f 3d
       -0.1024892 -0.12125961 0.003869511 0.07003924
0003d0 25 8b d5 bd 65 e8 0b 3d af 04 a3 3d d7 37 9c bc
       -0.1042693 0.034157176 0.07959878 -0.019069595
0003e0 ba 21 01 be 50 f4 6e ba b9 44 ab bd d9 ff 2a bb
       -0.12610522 -0.0009115385 -0.08362717 -0.0026092438
0003f0 49 cb 2e 3e 27 37 dd bc dc 16 f8 bd 9e b0 bd 3c
       0.17069735 -0.027003838 -0.12113735 0.023155507

q1.2.bias f4 [256]
000000 a9 81 de 3d b5 9f 1f 3b ed 7f 07 bc c6 63 a1 3c
       0.108645745 0.0024356667 -0.008270246 0.019700896
000010 0c 76 7f 3d 66 5e 09 bd e0 14 55 3d b9 5e c8 3d
       0.062368438 -0.03353729 0.05202186 0.09783692
000020 50 56 f7 3c a9 01 e8 bc 76 ec b3 3d fc 82 5a bc
       0.030192524 -0.028321104 0.08785336 -0.013336893
000030 21 d9 dc 3c 06 db 3b bd 64 36 81 3d e0 90 08 bd
       0.026959004 -0.045863174 0.06309202 -0.03334129
000040 f2 42 4f bd f6 70 7d 3c 96 80 9c 3d ee 40 d2 bd
       -0.050600953 0.0154688265 0.07641713 -0.102662906
000050 28 97 9e ba e6 66 a3 3c 50 db a4 bc d4 84 72 bd
       -0.0012099491 0.019946527 -0.020124108 -0.059208706
000060 1e ee 7c bc be 18 91 bc f4 7a c0 b7 d5 97 41 bc
       -0.015437631 -0.017711993 -2.2945438e-05 -0.011815985
000070 91 4e 54 bd 40 27 3b 3c ae 38 52 3c f5 cc 0c bd
       -0.05183274 0.011422932 0.012830896 -0.03437515
000080 bc 43 a5 bd b9 25 8d 3c 15 c1 12 3d 02 20 5c bd
       -0.0806956 0.017229902 0.03582867 -0.053741463
000090 24 d7 7f bd 30 4c d0 3c 0b 7d fc 3a f9 fa 71 bc
       -0.062461033 0.025426954 0.001926334 -0.014769309
0000a0 1d ab 8b bc 1d d6 7f b7 1d ee 04 bd b1 bd 85 3d
       -0.017049367 -1.5249037e-05 -0.032453645 0.065303214
0000b0 1e a1 c7 bc 9d 15 97 3c 6d 15 15 3c 1b 73 f3 3c
       -0.024368819 0.018442923 0.009099347 0.029717973
0000c0 81 d5 10 bd 32 db 28 3d 63 03 7d 3d a6 2e 1c bc
       -0.035359863 0.041224666 0.061770808 -0.009532606
0000d0 5c 50 36 bd f2 1e fc 3c 55 0f 10 3d f2 73 c0 3c
       -0.04451023 0.030776475 0.03517087 0.023492787
0000e0 f9 b7 9a 3d 99 f8 85 3d 20 ca 32 3d 74 86 a9 bd
       0.07554621 0.06541557 0.043649793 -0.08277598
0000f0 fb 98 cb bd 0b 15 91 bd 38 d5 d4 bc 5a d8 96 3d
       -0.09941288 -0.07084092 -0.025980577 0.073654845
000100 98 70 f9 3c 14 7d 4c 3c 60 6e 91 3d 00 15 dd bc
       0.030449197 0.012480993 0.071011305 -0.026987553
000110 c1 79 d9 3c 08 38 aa 3d e7 08 4e bd 79 80 94 3b
       0.026547315 0.08311468 -0.05030146 0.0045319167
000120 f3 d8 d4 3d 6f 78 34 3d f8 f8 d5 3d 05 e7 23 3d
       0.10392942 0.044060167 0.10447878 0.04001524
000130 8c 64 90 3c f5 ac 2a 3c 6d 43 90 3d 45 1b 20 3d
       0.01762607 0.010417213 0.070441104 0.039088506
000140 14 6b a8 3d 9d 3e db 3d e9 92 d6 3a 89 33 a7 3d
       0.082235485 0.10705302 0.0016370687 0.081641264
000150 75 df 90 bc 96 43 ac bc 3e f9 86 3d fa e0 06 3b
       -0.017684678 -0.021028321 0.06590508 0.0020580874
000160 aa b7 b4 3c ae 66 8f 3d 0b b8 bb bd ae 4d 96 bd
       0.022060234 0.070020065 -0.09165963 -0.07339035
000170 72 da 73 3d fb 9e f2 bb 56 23 4a 3d cb d6 78 3c
       0.059534498 -0.007404206 0.049350105 0.015187929
000180 c2 82 f0 3c 4f ff af 3d 38 60 54 3d 26 8e 11 bd
       0.029359225 0.08593618 0.051849574 -0.035535954
000190 02 a4 f5 bb 7f a0 38 3d ff 87 63 3d f5 15 1f 3d
       -0.007496358 0.045074936 0.055549618 0.0388393
0001a0 ad 20 47 bc 97 13 a3 3c 7f 5f 2e bd 9c 08 a6 bb
       -0.012153787 0.019906802 -0.04257154 -0.0050669443
0001b0 09 9f c8 bc 18 cf b5 3c 32 9b 6e 3d 3c e4 44 3d
       -0.024489896 0.022193477 0.058253475 0.048069224
0001c0 b8 1b 25 3d c4 fc 7d bd 34 d1 dd bc 17 11 6d 3d
       0.040309638 -0.062008634 -0.027077295 0.057877626
0001d0 c9 61 c9 bc df 72 bd 3d b6 42 b8 3d 6b 09 eb 3b
       -0.02458276 0.092504255 0.08997099 0.0071727536
0001e0 75 ee c2 bc 81 54 d4 3c 2e ef 61 3d 6b 46 a1 3d
       -0.023795346 0.0259192 0.05515974 0.07874759
0001f0 ea a4 53 bd d5 8b 0e bb c5 a6 83 bd fe e6 8a bb
       -0.051670946 -0.0021750827 -0.06428293 -0.004238962
000200 50 77 25 bc 4b 28 c9 3c 7f b1 cc bc a3 84 7f bc
       -0.010099247 0.024555346 -0.02498698 -0.015595588
000210 f9 f3 4b 3d bf c2 68 3c a2 fa 5f b7 c1 c5 bf 3b
       0.049793217 0.014206587 -1.3350191e-05 0.0058524315
000220 b9 00 5f 3d 49 35 8a 3c d6 45 72 3d be d0 4d 3c
       0.05444405 0.016871111 0.059148632 0.012561975
000230 62 5e 0c 3d 29 72 bf 3d 91 53 c3 bc 9b 1b 9d 3d
       0.034269698 0.09347946 -0.023843559 0.07671281
000240 25 4d 87 bd 43 a6 a4 bd 3c 32 0f 3c 27 62 fe 3d
       -0.06606511 -0.080395244 0.008740004 0.12421065
000250 db 41 f6 3c 2f a5 ac bb 77 df 9a 3d 63 a6 41 bd
       0.0300607 -0.005268715 0.07562154 -0.04727782
000260 27 ac 8c 3d da 3f 9e 3d ba da 49 bb 14 5d 04 3d
       0.06868773 0.077270225 -0.0030800537 0.03231533
000270 6e 8d 4b bd 14 cc 2f bc 75 c4 59 3c fe ab 56 bd
       -0.049695425 -0.010729808 0.013291468 -0.05241012
000280 10 af f4 bb e9 7a 20 3d cb 64 09 3d 64 3e 0c bb
       -0.007467158 0.039179716 0.03354339 -0.0021399492
000290 8a 4d 3e 3d f6 f3 65 bd 3e 58 9a bd 16 b1 96 bd
       0.046460666 -0.056140862 -0.07536362 -0.07357995
0002a0 34 8f f6 bc 89 99 27 3d 72 6f b3 3d d1 f7 a2 bc
       -0.030097581 0.040917907 0.08761491 -0.019893559
0002b0 e8 d4 42 3d bc ef fe bc 9d 5a 87 bc 86 7d 71 bc
       0.047566324 -0.031120174 -0.0165227 -0.0147394
0002c0 6a 71 b4 3c 39 96 44 bd 38 ec 34 3c 78 5a bd bc
       0.022026736 -0.047994826 0.011042647 -0.023114428
0002d0 b5 56 0e bd 21 89 10 3d 7b 1d 6e bd e1 f1 45 bd
       -0.03475066 0.035287026 -0.058133584 -0.048326377
0002e0 c3 4a 41 3d c3 9c f7 3c 47 1a 29 bd 57 72 53 3c
       0.04719044 0.030226117 -0.041284826 0.012905679
0002f0 83 17 e9 bc d2 ce 2c 3d 7e ba 08 3d 14 22 24 bc
       -0.028453594 0.042189427 0.033380978 -0.0100178905
000300 c1 d2 07 3b eb 71 53 3c ae d9 00 3e dc 88 37 3d
       0.0020724984 0.012905578 0.12583038 0.044808254
000310 26 19 33 bc 92 5a c0 3d 66 64 74 bb 77 0f a1 3c
       -0.010931289 0.09392275 -0.0037291287 0.019660695
000320 b1 23 19 bd 22 d9 ec 3d a0 43 c7 3d 7e bf ed 3c
       -0.037387554 0.11564852 0.09729695 0.029021975
000330 ec fa 00 3a a6 43 ea 3a 3a 7b be bc a3 c7 3e 3d
       0.0004920203 0.0017872944 -0.023252118 0.046577107
000340 29 a1 5d 3c 2e d7 86 bd be d6 b8 3a 1d d0 fb 3c
       0.013527193 -0.06584011 0.0014102084 0.030738885
000350 09 0a d1 3c fe 65 8b bc 69 86 70 3b 4f d6 83 3d
       0.02551748 -0.017016407 0.0036701208 0.064373605
000360 b2 e6 5d bd a3 2a 4e bd 1d 05 16 3b 38 01 9b bb
       -0.054175086 -0.05033363 0.0022891231 -0.00473037
000370 a8 cc 1e 3d 40 ff a6 bb d6 1f 92 3d 3f e9 0c 3d
       0.038769394 -0.005096346 0.071349785 0.03440213
000380 9a e2 e7 3b df f8 af 3d 79 6e 9d bb 2e 23 f2 bc
       0.0070765736 0.0859239 -0.004804429 -0.02955779
000390 8d 3d 84 bd 16 f5 23 3d 9b 68 95 3d b1 27 8a bd
       -0.064570524 0.040028654 0.072953425 -0.06745852
0003a0 b6 27 9a bc 44 44 0b 3d 05 9d db 3c 23 21 82 bc
       -0.018817764 0.03400065 0.026808271 -0.015884941
0003b0 9c 58 67 3d 50 d8 68 bd 30 f9 43 3d 87 2c 90 3c
       0.05648099 -0.056846917 0.047845066 0.017599357
0003c0 d3 6c bb bd de 2a 33 bb de 90 f8 3c 8b 9e 98 3c
       -0.09151616 -0.0027338783 0.030342516 0.018630287
0003d0 07 d5 3b 3b 8a df 69 3c 47 a8 75 3d 89 b6 23 bd
       0.002866091 0.014274487 0.059974935 -0.039969
0003e0 db b8 1b 3d c9 50 de 38 54 05 63 3d 30 dc 8a 3d
       0.03801809 0.00010600832 0.055425003 0.06780279
0003f0 e0 91 57 3d 57 ca 8d 3d fd e8 6b bd d1 ca a1 3c
       0.05262935 0.06923359 -0.05759524 0.01975003

q1.4.weight f4 [1, 256]
000000 ad 79 68 3e 15 e5 15 bc 7d d1 1b bd 4b 59 e2 3d
       0.22702666 -0.009148856 -0.03804158 0.110521875
000010 4e 4f 2a 3e 16 28 b0 3d 2d 72 9b bc 57 ed 81 3e
       0.16631815 0.08601396 -0.018975342 0.25376388
000020 b0 5f 43 3d 6d f2 bd 3d a9 d4 f8 be 5f 90 2f 3e
       0.047698677 0.09274755 -0.48599747 0.17144917
000030 54 bc 6f be 79 fb b4 3e 3d 29 03 3e b8 0c 86 be
       -0.23411685 0.35348108 0.128087 -0.2618158
000040 de bc bc be a2 b0 22 3e a0 00 16 3e c7 22 f7 be
       -0.36862844 0.15887693 0.14648676 -0.4826872
000050 cd 88 86 be 2d aa 1a bc 24 1a 72 bd a4 2f 0e bd
       -0.26276246 -0.009439987 -0.05910696 -0.034713402
000060 56 7c af be 65 81 10 3e 57 9d 9d be 14 28 3f 3e
       -0.34274548 0.1411186 -0.30784103 0.18667632
000070 f3 28 97 be 31 08 da 3d 61 4f d5 3d c1 e6 d7 ba
       -0.2952343 0.10646094 0.10415531 -0.0016471968
000080 94 d1 92 be 8e a9 82 3d ba 0c 99 be a7 4c b7 3b
       -0.2867552 0.06379996 -0.29892522 0.0055938545
000090 f6 bf 72 bd ec d8 50 3e 60 ea b8 3d 93 6e 93 be
       -0.0592651 0.20395249 0.090290785 -0.287953
0000a0 d6 d5 a3 bc 0a 83 b1 be b4 50 0f bd b6 24 ad 3d
       -0.019999426 -0.34670287 -0.034989074 0.08454268
0000b0 ba ad 9a be 28 13 a6 3d 9a cb a3 be 4f 25 39 bd
       -0.30210668 0.081091225 -0.31991273 -0.045201596
0000c0 e3 d9 9d 3d de 47 5e be ae 55 4b be b4 b6 aa 3d
       0.07707574 -0.21707103 -0.19856903 0.08335629
0000d0 64 8a d2 bc 0b 82 c0 3d fd 92 1b bd c1 cd c2 be
       -0.025700755 0.09399804 -0.037981976 -0.38047603
0000e0 3b 30 cc 3d ca 65 6f 3e da 91 60 3e cf b4 91 be
       0.09970137 0.23378673 0.21930638 -0.28458259
0000f0 76 74 c0 be 69 1f 01 bf 0f 8f 1a bf bf da 76 3e
       -0.37588853 -0.50438553 -0.6037454 0.24106883
000100 e1 a7 34 3e 53 51 72 3e dc 92 db be 9b 41 9f be
       0.17642166 0.23663835 -0.42885482 -0.3110474
000110 d6 ae 21 be 1f 51 1d bf f6 68 f6 be 3c 2e bd 3d
       -0.15789351 -0.61451906 -0.48126954 0.09237334
000120 9b 7f 2c 3e 9b eb fa bc bb 6f 4b 3e ad fa f3 3d
       0.16845553 -0.030629924 0.1986684 0.11913047
000130 1f cd b8 3d 98 62 be 3d 20 b6 ef 3d 42 b7 89 3d
       0.09023499 0.09296149 0.117046595 0.06724407
000140 f8 97 dd 3d 4c 94 49 3e e7 6d 3f bb c3 4a b3 3d
       0.10820001 0.19685477 -0.0029209794 0.08754494
000150 d3 63 93 be e0 db bf 3d fe 65 90 be 5e a4 00 3e
       -0.28787097 0.0936811 -0.28202814 0.12562701
000160 bb 9b d9 3d ed 95 87 3d e7 dd 03 bf 74 c7 be be
       0.10625406 0.06620393 -0.5151047 -0.37261546
000170 a9 66 3d 3e b5 17 fc 3d 4a d9 10 3e 29 43 5c bc
       0.18496193 0.12309209 0.14145389 -0.013443747
000180 5a 76 67 bd 7d 8e 13 3e 25 2b 16 3e 9c 4d 0c 3c
       -0.056509353 0.14409824 0.14664896 0.008563425
000190 a7 ae 20 bf 41 11 53 bd 8a 6f 66 be e9 56 b4 be
       -0.627665 -0.051530126 -0.22503486 -0.35222557
0001a0 52 51 54 be 94 6f d5 3e 82 53 e2 bc c6 95 55 bd
       -0.20734146 0.4168669 -0.02762771 -0.05214479
0001b0 d9 58 d5 bb 4d e7 73 be 85 3d ce 3d 68 d7 db 3d
       -0.0065108356 -0.23818703 0.10070328 0.10734445
0001c0 d6 73 3a 3e d0 ef 43 bc 12 8f fb be d8 ff 4d 3e
       0.1820825 -0.011959031 -0.4913259 0.20117128
0001d0 13 f5 20 3e d0 89 62 3e 37 59 26 3e 27 87 3a 3e
       0.15718488 0.22122884 0.1624497 0.18215619
0001e0 38 65 04 3e e6 4c 10 bf a1 c6 85 be 8d b7 31 3e
       0.12929237 -0.5636734 -0.26128104 0.17355175
0001f0 8c a7 83 bc ab 69 f9 bc 81 9a 52 bd 4a d8 8b be
       -0.016071104 -0.030445894 -0.051416878 -0.27313453
000200 e0 27 ef 3d dd 63 5a 3e 1f e8 0f bf 19 2f d2 be
       0.116775274 0.21327157 -0.56213564 -0.41051558
000210 45 54 79 be b8 0f eb 3d 4c f6 10 3e 61 90 b6 3d
       -0.24348553 0.114776075 0.14156455 0.08914257
000220 a9 34 54 bd 4f 64 90 be 7f a8 01 3e 9f fe 12 3e
       -0.051808033 -0.2820153 0.12661932 0.14354943
000230 33 60 83 be 82 0c 8d 3e 71 6d d3 bc dd f4 45 3e
       -0.25659332 0.27548605 -0.025809022 0.19331689
000240 88 98 47 bd e9 eb 1a 3f 93 5b fc bc 56 79 89 3e
       -0.04872945 0.6051622 -0.030805385 0.26850384
000250 4c e2 0d bc a1 7d 40 3e c9 3e d2 3d 82 41 9a be
       -0.00865991 0.18797924 0.102658816 -0.30128103
000260 98 29 c0 3d 90 82 a3 3d 35 8d 3a be a8 31 43 be
       0.093829334 0.07983887 -0.18217929 -0.19061911
000270 fc 2a f2 bc 5f 41 04 bf 1f 4a 1e be 1f 47 93 be
       -0.029561512 -0.5166225 -0.15457962 -0.287652
000280 25 4c 33 bf b7 53 30 3e 74 57 88 be 12 8e 96 3d
       -0.7003806 0.17219435 -0.2662922 0.073513165
000290 f4 9f 1e 3e 8e be 37 bd 78 14 9a be c1 b9 ea be
       0.15490705 -0.04485946 -0.3009374 -0.45844844
0002a0 f0 6b 4d bd 26 eb 08 3e 3b 11 28 3e 2d b9 a2 be
       -0.050151765 0.13370952 0.16412823 -0.31781903
0002b0 4e f4 f2 be e7 aa b9 bc 20 39 1c 3e 30 02 da 3d
       -0.47452015 -0.0226645 0.15256166 0.106449485
0002c0 7c 34 b3 3d fc ac 06 bb 54 5d 96 be fb 53 b2 3d
       0.08750245 -0.0020549884 -0.2936808 0.08707424
0002d0 00 07 43 bd 7d b6 20 3e a2 44 65 3c 82 9e 62 bd
       -0.047614098 0.15694614 0.013993414 -0.055326946
0002e0 de 69 17 3e 30 5b fd 3d b4 1d 8b bc 32 42 d7 3d
       0.14786479 0.12370908 -0.016981937 0.10510673
0002f0 f7 cd 0e 3e 80 c1 ec 3d cd bd ae be ba 9e 3b 3e
       0.13945757 0.11560345 -0.34129182 0.18322268
000300 03 f2 61 be 1a a5 0c 3e 2a 12 22 3e cf 26 dd 3d
       -0.22064976 0.13734856 0.15827242 0.10798418
000310 ae 7a b7 be ea 00 2f 3e 01 67 ca be 2c 13 0d 3e
       -0.35835785 0.17090192 -0.3953171 0.13776845
000320 ed 75 54 be 3d 3d 39 3e 5b c1 70 3e 98 e0 06 bf
       -0.2074811 0.18089767 0.2351126 -0.5268645
000330 37 57 eb be 16 92 8b be 2c 77 f5 be 5d ba 83 be
       -0.45964977 -0.27259892 -0.47942483 -0.2572812
000340 3e e8 2b bd b2 89 60 bd 24 ca f1 3d b3 0f 56 be
       -0.04196953 -0.054818816 0.118061334 -0.20904426
000350 34 3c 07 3e 12 73 d2 3d 34 51 8a 3e 33 63 c6 be
       0.1320656 0.10275854 0.27015078 -0.38747558
000360 ba a3 61 bc c7 a7 b3 be 84 a7 06 3d f0 42 38 3e
       -0.013771946 -0.3508894 0.0328746 0.17994285
000370 06 5b f2 3d 3b 0f b1 be 36 93 b7 3d 67 e8 40 be
       0.118337676 -0.34581932 0.08963625 -0.18838654
000380 c5 28 19 bf 47 72 c1 3d 4d 2d 07 3e 8f ea 99 3d
       -0.59827834 0.09445625 0.13200875 0.075154416
000390 30 7f 4f bc a8 82 c7 bc f7 73 94 3d ae e3 b8 be
       -0.012664601 -0.024354294 0.07248681 -0.36111206
0003a0 e8 09 cb bc 5f f4 11 3e 0e cc 86 3d a0 b5 ae 3d
       -0.024784997 0.14253376 0.06581889 0.08530736
0003b0 50 0c 42 3e 03 2c a2 be 71 5c 5a bd 50 c3 5b be
       0.1895001 -0.31674203 -0.053310815 -0.21461225
0003c0 77 b9 d9 be 74 06 82 be 85 62 26 3e 20 78 31 bf
       -0.4252431 -0.25395548 0.1624852 -0.6932392
0003d0 3b 9c 68 be 38 c7 40 bd a3 94 a1 3d b2 32 b7 be
       -0.22715847 -0.04706499 0.07889678 -0.35780865
0003e0 30 f2 31 be 44 64 3e 3e f1 3f 95 3e 80 1b b8 be
       -0.17377543 0.18592936 0.29150346 -0.3595848
0003f0 ca 4a 6d be 59 25 cf 3d c7 7b 38 bc 9f 86 09 3e
       -0.23173061 0.101145454 -0.01125998 0.1343026

q2.0.weight f4 [256, 5]
000000 d9 db c5 bd c3 b0 14 3c 0e 78 dd bd e5 87 e5 be
       -0.09661073 0.009075346 -0.10813914 -0.44830242
000010 ca be 95 be 2e e5 a0 3d ea a5 ff bd 16 25 36 3e
       -0.29247123 0.078562126 -0.124828175 0.17787585
000020 ff da b3 be 2e f7 aa 3e 0b c5 4e be a0 14 35 3e
       -0.35128018 0.33391708 -0.20192353 0.17683649
000030 08 4a c8 be 55 0d e5 3e d3 a6 e3 3e 3d a9 43 3e
       -0.3911898 0.44736734 0.44463214 0.19107528
000040 52 87 a7 3e 33 ba fa be e0 83 0e bf 77 75 0f 3d
       0.3272043 -0.48970184 -0.55669975 0.035024133
000050 53 74 10 3e 48 52 44 be 68 75 8a be ab 4e 31 be
       0.14106874 -0.19172013 -0.270427 -0.17315166
000060 4a ff c6 3e 84 f9 3d be 36 56 ca be 35 a4 78 3e
       0.38866645 -0.18552214 -0.395189 0.2428139
000070 6e 8d a0 be 9b a4 bc be ea 87 eb 3e ce 67 65 be
       -0.31357902 -0.36844334 0.46002132 -0.2240288
000080 32 87 d4 3e 3d da fd 3d 5f 61 ad be df c6 06 bc
       0.41509396 0.12395141 -0.3386335 -0.0082261255
000090 78 65 6d be 4d 0c ca be 0c c9 58 be bb 96 99 be
       -0.23183239 -0.3946251 -0.21170443 -0.2999781
0000a0 e4 71 c2 bd c7 1d fd be b5 a5 e5 be 3c d7 86 3d
       -0.09494379 -0.4943678 -0.44852987 0.065840214
0000b0 34 47 a3 be 95 be 29 3e 25 02 83 3e 7a 1f c4 be
       -0.3189026 0.16576608 0.25587574 -0.38305265
0000c0 e9 81 45 3e 9d 18 64 3e 15 ed e2 be 4a 8a 9b be
       0.19287838 0.22275014 -0.44321504 -0.30378944
0000d0 48 3e 14 be 0a c5 00 3e 09 5d cd bc dc 2e 02 be
       -0.14476883 0.12575164 -0.025068777 -0.12713188
0000e0 5e b5 6f be 4b 3e c6 3e 90 fa 6a be 8c 7b 89 be
       -0.2340903 0.387194 -0.22947145 -0.2685207
0000f0 b0 01 b1 3d e9 18 05 bd 18 0f 0a be 0e 29 93 3c
       0.086429 -0.03249446 -0.1348232 0.017963912
000100 30 63 de 3e 7e 3a 93 be fd 37 ce 3e 38 04 27 3d
       0.4343505 -0.28755563 0.4027709 0.040775508
000110 53 3f a3 be 3e 78 bc 3e 5f 5a 68 3e e7 46 1b 3b
       -0.3188425 0.36810488 0.22690724 0.0023693384
000120 e9 ad 95 3e 1d 73 4c bc f8 10 d2 3e 40 c9 a3 3e
       0.29234245 -0.012478617 0.4102857 0.3198948
000130 6e 67 65 3e 6c 7c 87 3e 7b a4 1c be d9 0f 03 bf
       0.22402737 0.26462114 -0.1529712 -0.51196057
000140 35 e0 9b bc 83 40 c5 3e b5 5e d5 bd e8 18 0f 3f
       -0.019027809 0.3852578 -0.104184546 0.5589738
000150 03 62 05 3e 28 4d a3 be a0 09 5a be 0b e5 f1 3d
       0.1302567 -0.31894803 -0.21292734 0.118112646
000160 58 ba 8f 3e 7d de 7f be 24 f2 66 be 88 d0 0c 3c
       0.28071856 -0.24987216 -0.22553307 0.00859464
000170 7b af 10 3e 3e b9 12 bf c3 a1 3c be 3e 81 cd be
       0.1412944 -0.5731391 -0.18421082 -0.40137666
000180 da 8d 29 be 59 84 29 3e 00 ba 3d bd 80 25 f7 be
       -0.16558018 0.16554393 -0.04631996 -0.48270798
000190 e5 83 b7 be 56 0f c3 be fb dd cc 3e 49 68 81 be
       -0.35842815 -0.38097638 0.40013108 -0.25274876
0001a0 95 d8 57 be 78 d0 ea be 28 c5 d5 3d ca 44 ba 3e
       -0.21078713 -0.45862174 0.10437995 0.36380607
0001b0 33 bc 1f 3e 5e 8f 07 3e 77 73 25 be 0b d2 e5 be
       0.15599136 0.13238284 -0.16157328 -0.44886813
0001c0 81 1e 55 3e 90 47 6f bd 8d 39 18 be 85 d4 08 3f
       0.20812418 -0.058417857 -0.14865704 0.5344928
0001d0 c7 82 55 bd 3e 8f b9 be c7 67 ae 3e 13 10 85 3d
       -0.052126672 -0.36242098 0.3406355 0.064972065
0001e0 fb ae c9 be c7 2a 88 3d 55 5c b4 3e 33 db 92 3e
       -0.39391312 0.06648784 0.35226694 0.2868286
0001f0 8e 9d 44 3e 5f bd 2c 3e d7 16 3f be f4 54 e8 3e
       0.19200727 0.16869114 -0.18661056 0.45377314
000200 fa a7 78 3e be 57 f5 bd 30 89 ea be 8d fb 1d bd
       0.24282828 -0.11979626 -0.4580779 -0.038569976
000210 fa 6b e9 3d 07 a8 da bd 8f ce 84 3e 54 92 f0 be
       0.11397548 -0.1067658 0.25938842 -0.4698664
000220 b2 79 a7 3d 28 fd 44 3e 18 a0 39 3c 75 84 0b 3e
       0.081775084 0.19237196 0.011329673 0.13624747
000230 0a 7e bd 3e 79 b3 39 3e a9 cb 62 be a9 6b 12 3f
       0.37010223 0.1813487 -0.22148003 0.57195526
000240 a5 13 d1 be 2b d3 2b be 70 3a 2b be 2d 84 83 3d
       -0.408353 -0.16779773 -0.16721511 0.06421695
000250 a6 ba b6 bc b1 fd 9d 3e 3f 11 be 3e b1 f8 33 3e
       -0.022305798 0.30857614 0.37122533 0.17575337
000260 22 97 75 be 6c e5 b9 be f1 ed 10 3f cb fa e6 be
       -0.23983434 -0.36307847 0.5661307 -0.45113215
000270 91 4a ad 3e 29 e2 ea be 08 ad b8 3e 60 e1 be 3d
       0.33845952 -0.45875672 0.36069512 0.093203306
000280 75 47 d4 be 5c d3 f3 be d9 db 06 3e 8b bb cf be
       -0.41460767 -0.47622192 0.13169803 -0.4057277
000290 4e 8f b7 be 6c 8d a2 be c8 d3 4b be 65 b8 a7 3e
       -0.3585152 -0.3174852 -0.19905007 0.3275787
0002a0 2f d3 ea be 54 7f c3 be 59 05 82 3d 92 f5 47 be
       -0.45864245 -0.3818308 0.06348676 -0.19527271
0002b0 8f c8 09 bd 37 32 0a 3b 45 ab 98 3e 03 26 b0 be
       -0.033638533 0.002108706 0.29818168 -0.34404
0002c0 75 65 2c ba e3 4b 90 be 09 0c ca be 48 d8 da 3e
       -0.00065763976 -0.28182897 -0.39462307 0.42743134
0002d0 3a 08 d7 bc fa 15 8f 3e 1c 92 a0 3e a1 97 05 bf
       -0.02624904 0.27946454 0.31361473 -0.5218449
0002e0 36 6c f4 3d bd 17 ed 3e 60 73 0c 3d 01 72 ac 3e
       0.11934702 0.46307173 0.034289718 0.33680728
0002f0 7c 8f e2 3e 88 3e a5 3e 78 e8 b3 be 29 89 e7 bd
       0.44250095 0.3227427 -0.35138297 -0.11305458
000300 02 d4 c1 be 5b 80 46 3d 41 26 db bc ee 9a d1 bd
       -0.37857062 0.048462253 -0.02675164 -0.102346286
000310 51 22 6f 3e 53 54 e6 bd 9c 6a de be 6b 23 3a be
       0.23352934 -0.11246552 -0.43440711 -0.18177573
000320 b0 27 3f be 2c 15 a4 be f4 98 16 bd 1b 38 46 3e
       -0.18667483 -0.32047403 -0.03676696 0.1935734
000330 c1 19 3b be 40 c1 e1 bd 82 82 28 3e 47 15 30 be
       -0.18271543 -0.11023188 0.16456035 -0.17195617
000340 8b bc d9 be 95 fa a7 3e 2b 4b 2d bc 58 58 0a 3f
       -0.4252666 0.32808366 -0.0105770035 0.5404105
000350 cf f5 bd be 61 ca a0 3e a0 e2 80 be d5 f2 c5 3e
       -0.371016 0.31404403 -0.251729 0.3866183
000360 16 ed d0 be 99 58 85 3e 1e 37 23 3c 72 d7 ce bb
       -0.40805882 0.26044157 0.009961871 -0.006312304
000370 0e 52 f0 3a 6b b8 f3 be 76 78 12 3e 59 49 d4 be
       0.0018335001 -0.47601637 0.14303765 -0.4146221
000380 5e 82 c5 be d5 89 50 3e 61 be b4 be 70 60 98 3d
       -0.38576025 0.20365079 -0.35301498 0.07440269
000390 6b 87 cb be e8 3c 7f 3e 2a 6a a0 be 59 83 d0 3e
       -0.39751753 0.24925578 -0.31330997 0.4072521
0003a0 e8 e1 86 3e fb 42 6d bd b9 51 20 3c 4e 0a 3f be
       0.26344228 -0.057925206 0.009785109 -0.18656275
0003b0 b4 18 d4 3d b7 39 06 be 88 60 b4 be af 19 88 3e
       0.10356274 -0.13107954 -0.35229897 0.26582095
0003c0 16 a1 6a 3e b4 26 b0 be 47 e1 8f bd 88 78 d9 3e
       0.22913012 -0.34404528 -0.0702539 0.4247477
0003d0 7b 99 bc 3e 37 3b c5 3d 9e ac f2 bd ba 72 9c 3e
       0.36835846 0.09630435 -0.1184933 0.3055628
0003e0 a8 b0 72 3e 4a 8a 79 bd ef 8f a5 be 6c 47 0c be
       0.23700202 -0.0609229 -0.32336375 -0.1369912
0003f0 5a da ce 3d 95 f6 aa 3d c0 52 65 be 8b 52 e0 be
       0.10100241 0.08347813 -0.22394848 -0.43812975

q2.0.bias f4 [256]
000000 a1 ca aa be 6e 4f d6 3e 88 7c b6 be 80 90 60 3d
       -0.3335772 0.41857475 -0.35641885 0.054825306
000010 9b 24 83 be d4 52 8e be d5 05 9a be 4d e1 10 be
       -0.25613865 -0.27797568 -0.30082574 -0.14148445
000020 5f b6 80 3e 0a 28 8b 3d 14 39 c4 be 00 48 cc 3d
       0.25139138 0.06794746 -0.38324797 0.099746704
000030 8d 11 ba 3e 44 23 c1 3e ea 77 47 3e 92 5a 1a be
       0.36341515 0.37722218 0.19479337 -0.15073612
000040 b0 85 16 be e8 ea ab 3e 1e 82 82 be 4c 20 10 3d
       -0.14699435 0.33577657 -0.25489897 0.03518705
000050 6e 39 73 3e f9 52 d4 be 9e 81 ee 3e 4e 9c 99 3e
       0.23752376 -0.41469553 0.46583265 0.30002064
000060 32 88 e7 be 4d fe a7 bd 6c 83 71 3e 00 30 fe be
       -0.45221096 -0.08202801 0.2358529 -0.49645996
000070 db d0 e2 3d 77 d5 80 be f1 5b c7 be 37 e0 68 be
       0.11074992 -0.2516286 -0.38937333 -0.22741781
000080 e8 1f 6e 3d ca d9 94 be 94 58 85 3d f6 21 94 3e
       0.058135897 -0.2907241 0.065110356 0.2893216
000090 90 ba 0c 3d 93 1d 4a be 2d 7c 73 be db 49 cc be
       0.034357607 -0.19737844 -0.23777838 -0.39900097
0000a0 a0 1b af be 53 ff 11 3e ff 26 54 be c3 a8 45 be
       -0.34200764 0.14257555 -0.20718001 -0.19302659
0000b0 c4 2d 92 3e 53 6b 9f be c5 ed 8f be 9a 1f 35 be
       0.2855054 -0.3113657 -0.2811109 -0.17687836
0000c0 9d d9 c2 3e 90 55 5f be 0b 2c d6 3e d2 4d 4a 3e
       0.3805665 -0.21809983 0.41830477 0.19756249
0000d0 87 f0 14 3e 12 f3 c2 be fb c3 f4 3e 2a c7 2d be
       0.14544879 -0.38076073 0.4780577 -0.16970506
0000e0 e1 2c a4 3d c4 be 80 3e 5b 10 41 3e a9 17 e0 be
       0.080163725 0.25145543 0.18853895 -0.4376805
0000f0 3c 7f b9 be 8c 55 a5 3d 50 65 91 3d 06 c1 8c bd
       -0.36229885 0.080729574 0.07099402 -0.06872754
000100 9b aa 30 3e fc f6 87 be 19 c1 60 3e a2 8a fb bc
       0.17252581 -0.26555622 0.21948661 -0.030705754
000110 f4 e0 a1 be c6 c1 b5 be 40 3c cf 3e 45 75 a5 bc
       -0.31616938 -0.354994 0.40475655 -0.02019752
000120 f7 11 63 be 99 b2 d7 be fa e4 23 3e 06 40 56 be
       -0.22174822 -0.42128447 0.16005316 -0.2092286
000130 19 f2 cc bd 22 1c f3 bc 83 d8 28 3e 9f ed 88 be
       -0.10007114 -0.0296765 0.16488843 -0.2674379
000140 ab 77 03 3f 4b 40 70 bd d8 e9 99 3e 63 11 da 3e
       0.51354474 -0.058655065 0.3006122 0.4259139
000150 0e 25 95 be 29 50 3b be ac 3b eb bd d1 68 9f 3e
       -0.29129833 -0.18292297 -0.11485991 0.31134656
000160 0b 71 d0 3c df 4a af 3e 32 94 da 3d c3 2b a3 3e
       0.025444528 0.3423681 0.10672797 0.31869325
000170 d2 20 47 be 01 ea 59 3e f0 bc ba be be 24 0a bd
       -0.19446114 0.21280672 -0.36472273 -0.033726446
000180 e9 b3 c1 be 69 c8 b9 3e 9b a4 f3 be 19 73 e4 3e
       -0.37832573 0.36285713 -0.47586522 0.44619063
000190 8c f8 0a bd cc 92 e5 be af 36 c0 be bc ea 97 be
       -0.03392844 -0.4483856 -0.3754172 -0.29671276
0001a0 eb 5f 1f 3e b8 fe f5 be e8 2c 92 3e 7b f2 84 3d
       0.15563934 -0.48045897 0.28549886 0.06491562
0001b0 b9 13 af be 03 a8 b1 be 8d 07 8f 3e 46 c7 9f 3e
       -0.34194735 -0.34698495 0.27935448 0.3120672
0001c0 d6 3d 61 bc b4 36 b1 bd 2c 66 b8 3e 12 8c e1 be
       -0.013747653 -0.08653012 0.3601545 -0.44052178
0001d0 b7 b2 95 3d 30 f5 00 3f 6f 30 c9 be d5 c9 bd 3e
       0.07309478 0.50374126 -0.39294764 0.37068048
0001e0 68 6c 8b be 8d fe 4b 3e 60 d2 bb bd 39 53 ba be
       -0.27231145 0.19921322 -0.09170985 -0.3639162
0001f0 6f 1e c8 bd 4f 35 e3 be 3b 9b f2 bd e7 b5 11 3d
       -0.0977143 -0.4437661 -0.11846014 0.035573866
000200 bb b0 d6 be 5f 56 0e bd 6a d4 ae bd 38 58 c9 be
       -0.4193171 -0.03475034 -0.085366085 -0.39325118
000210 5f d5 ff be b2 ce 38 3e d7 c3 d0 be 27 df d8 3e
       -0.49967477 0.18047598 -0.40774414 0.42357752
000220 d1 5f 8a 3d d4 63 ae 3e 07 df 1a 3d a3 bc c4 be
       0.06756557 0.34060538 0.03781035 -0.38425168
000230 ca 1e b8 be 83 c1 de bc f4 f3 2d bd 69 f9 f8 3e
       -0.3596099 -0.027191883 -0.04246898 0.48627785
000240 38 37 98 3e 99 84 9c be 47 8f 4a 3d 3f 78 9c be
       0.2972963 -0.30569914 0.049453046 -0.3056049
000250 77 2c df be a3 46 e2 be d3 a3 c5 be ed 0e ae be
       -0.4358861 -0.44194517 -0.3860155 -0.33995762
000260 e2 9f c8 be a8 7f 28 3a 56 13 f3 3c 13 87 2b 3d
       -0.3918448 0.00064277137 0.029672306 0.041876864
000270 53 5b f3 be e1 d4 a6 3e f1 97 29 3e e7 75 be 3e
       -0.47530612 0.3258429 0.16561867 0.37199327
000280 fc a5 47 3e 7b 63 6e be 40 1b ed 3e ef d6 b5 be
       0.19496912 -0.23280136 0.46309853 -0.35515544
000290 a8 cf ca 3e a6 88 b9 3e 2c aa a7 bd 93 67 62 3e
       0.39611554 0.36237067 -0.081867546 0.22109823
0002a0 8d 7e e0 3e d9 a6 ac bd 1f b5 07 3f 18 5f ec 3e
       0.4384655 -0.08430261 0.53010744 0.461663
0002b0 d3 be 89 be 04 61 e4 3e cc 17 ae be 4b 2b f2 bc
       -0.269034 0.44605267 -0.3400253 -0.02956166
0002c0 60 b2 bc bd 43 1d c4 3e 66 3e 91 be 5c f5 bb 3e
       -0.0921371 0.38303575 -0.2836792 0.36710632
0002d0 69 8a af be f2 1d ca 3e 41 80 c9 be fa 65 8f be
       -0.34285286 0.3947597 -0.39355662 -0.2800749
0002e0 00 0b eb bd 85 0b 9f 3e 5d 4e 80 ba 61 e8 04 3f
       -0.114767075 0.31063476 -0.0009788979 0.5191708
0002f0 a6 8a de 3d 50 f9 47 3c ce e1 28 be 0d ec 75 bd
       0.10866289 0.012205437 -0.16492388 -0.06003957
000300 b3 19 84 3e a6 08 8f 3d fe c4 01 3f d4 e7 25 3e
       0.25800857 0.069840714 0.5069121 0.16201717
000310 49 f4 5f be 70 41 84 be 77 9b b6 be 6f 66 4e be
       -0.21870531 -0.25831175 -0.35665485 -0.20156263
000320 1c 97 9d bd f4 3c c9 3d 21 1c e1 3e f5 97 d3 3e
       -0.076948375 0.09826079 0.43966773 0.41326872
000330 dc a4 0b be 9a e6 8d be 77 74 ac be 64 fa 67 be
       -0.13637108 -0.27714998 -0.33682606 -0.2265411
000340 d2 27 d8 3e b7 a6 d2 be 5e 62 91 be 8c 03 9a bc
       0.4221788 -0.41142818 -0.2839536 -0.01880052
000350 4d b4 d3 bd dc 37 56 3e c9 df 50 bd c2 3f 24 be
       -0.10337124 0.20919746 -0.05099467 -0.16039947
000360 47 68 cf be cc 16 f6 3e b1 a9 c8 be 4c 00 a1 3e
       -0.40509245 0.48064268 -0.39191964 0.3144554
000370 00 1b c5 3e 35 ef ab be 38 0a 1e bb 42 36 2b 3e
       0.38497162 -0.33580938 -0.0024114978 0.16719916
000380 50 9d 95 3c 05 cb 69 be be db fb 3d ec f5 44 bd
       0.018263489 -0.22831352 0.12297772 -0.048086092
000390 26 29 b1 3e f1 c6 d2 be cc ef f1 be bc 01 2d 3e
       0.34601706 -0.41167405 -0.47253263 0.16895193
0003a0 3f ea a9 3e 0d df 5f 3e 6f 98 bb be a3 40 b5 3e
       0.33186528 0.21862431 -0.36639735 0.35400876
0003b0 1a 29 d3 bd bd ce 06 3d d2 5e 14 ba 5f 4d d5 3e
       -0.10310574 0.032912005 -0.0005659881 0.41660592
0003c0 71 3d 9e be 86 83 cf 3e ef d9 73 bd 5d 68 de 3c
       -0.3090625 0.40530032 -0.05953401 0.027149374
0003d0 7d a0 85 3d 98 ff 96 3e 7a 22 3f be 3b 41 6e bd
       0.06524751 0.29491878 -0.18665496 -0.058167677
0003e0 fb be 60 be cd 67 dd 3e f7 3e 8d 3e 6e 6c 37 be
       -0.21947853 0.43243256 0.275871 -0.17912456
0003f0 b8 f0 02 3e 6b 31 60 3e 6f f2 df 3e c4 3e cc 3e
       0.1278714 0.21893851 0.4373965 0.39891636
