results/cartpole/sac/20251207-223656/critic.pt (torch, 544877 bytes, 10 tensors)

q1.0.weight f4 [256, 5]
0.229731 0.38448623 0.38736564 -0.073827885 -0.1914024 0.15537176 -0.1810576 -0.4105463
-0.24205458 0.04923507 -0.24465664 0.27822477 -0.42551616 -0.06533991 -0.16456468 -0.048386443
-0.2860569 -0.3236936 -0.2578141 -0.025836607 -0.025967365 0.13747333 0.25888383 0.13053207
-0.12789741 0.41889182 -0.18479171 0.33948532 0.31956145 -0.14007732 0.22374466 -0.36504972
-0.24456647 0.27901813 0.29386085 -0.36981294 0.41605514 -0.3119179 -0.45454362 0.34409377
0.14569953 0.08068874 0.15876865 0.038113397 0.11450392 0.13436212 -0.031374454 0.4445689
0.31445712 -0.5469459 -0.15234669 -0.39890206 0.23883554 0.45841044 -0.50357366 -0.30110896
0.07330617 -0.46224225 -0.2140818 0.3632146 0.29757562 -0.21578631 -0.38092688 -0.46681988
0.14358376 0.422653 0.24554443 0.02806671 0.3746195 -0.3583297 0.39124063 -0.03130602
-0.47211957 0.18330768 -0.23862945 0.49818817 -0.15223122 -0.2746081 0.3438056 0.3580751
-0.014841558 0.16513723 0.16829635 -0.3614797 0.15950198 0.4937497 0.3344139 -0.3666988
0.29805824 -0.013783794 0.08605805 -0.09725127 -0.3510568 0.26216733 -0.30074048 0.16341062
0.11530378 -0.41250587 -0.2505816 0.4243538 -0.00695735 -0.45537835 0.17421849 -0.23816036
0.5743532 -0.17013206 0.12090065 -0.4021342 -0.35995534 -0.3029415 -0.06101229 -0.18797833
0.09583907 0.30337504 0.16058755 0.009385707 0.046247415 -0.05808646 -0.4094512 0.45045164
-0.268571 0.046200942 0.18049799 -0.17001764 0.48093095 0.270578 0.4624803 -0.0021851491
-0.17958702 -0.11888656 -0.42715988 -0.3452258 -0.015591492 -0.13752814 -0.19700296 0.34657145
-0.21736154 -0.36850196 0.31438112 -0.113506466 0.15687776 0.12636755 0.31554377 0.5234425
-0.07864305 -0.3208222 0.28431505 -0.24024737 -0.24478261 0.39958158 -0.42748106 0.0699445
0.4696688 -0.31802845 -0.3443224 0.42972952 -0.4854315 0.19495888 0.087471604 0.39282712
0.13923159 -0.23474763 -0.46128374 0.33603093 -0.052153826 -0.06937728 0.1849276 0.4382568
0.06816619 0.42706522 0.13172409 -0.17142592 0.05808949 -0.11610288 -0.035985187 0.07071017
-0.16032322 0.017096763 -0.3442413 -0.73552114 -0.20318645 0.22604384 -0.27284542 -0.21825652
0.03883206 0.2802298 0.44788626 0.08092071 0.24757116 -0.3260382 -0.036156327 0.00022917056
0.37948838 0.14595518 -0.15493098 0.44718444 0.0031371692 0.17804989 0.22128536 -0.21430583
0.2868911 -0.06753804 -0.44680166 -0.2702535 0.20090318 0.26173854 -0.16202389 -0.06920241
0.32949764 -0.06921019 0.120176494 -0.058291707 -0.3286065 -0.21639322 0.26303953 0.0785888
-0.1214372 -0.052229702 0.14961882 0.4814763 -0.097767465 -0.28334373 -0.27892792 0.027510563
0.30502754 0.1278841 -0.44628486 -0.19121931 -0.43821806 0.13383892 0.24816112 0.4134798
-0.14232044 0.15869275 0.018165482 -0.44606382 0.43432695 0.3015768 -0.43135357 0.37094343
0.2761516 -0.3785438 0.32358912 -0.42951423 0.36821187 0.011946834 -0.21672688 0.23130049
0.3188013 -0.5730735 0.22154255 0.03932087 0.3798554 0.507122 0.5248791 0.21484765
00000000: 9a3e 6b3e 61db c43e ca54 c63e 1333 97bd
00000010: fefe 43be c619 1f3e 2a67 39be 2033 d2be
00000020: 28dd 77be b6aa 493d 4587 7abe 7a73 8e3e
00000030: 41dd d9be eed0 85bd a583 28be dd30 46bd
00000040: 0d76 92be 2bbb a5be 3600 84be 4ba7 d3bc
00000050: 83b9 d4bc cfc5 0c3e 6c8c 843e 33aa 053e
00000060: 8af7 02be fd78 d63e 0a3a 3dbe 05d1 ad3e
00000070: 8f9d a33e 6e70 0fbe 521d 653e cce7 babe
00000080: a26f 7abe 77db 8e3e ee74 963e 1f58 bdbe
00000090: 2e05 d53e b4b3 9fbe f1b9 e8be 0f2d b03e
000000a0: 4232 153e 2340 a53d 4094 223e cb1c 1c3d
000000b0: 0881 ea3d 3996 093e 8082 00bd 899e e33e
000000c0: 8600 a13e a604 0cbf c500 1cbe e43c ccbe
000000d0: 4e91 743e c6b4 ea3e 34ea 00bf f42a 9abe
000000e0: 8c21 963d 04ab ecbe 4238 5bbe 44f7 b93e
000000f0: d55b 983e 16f7 5cbe d908 c3be 0403 efbe
00000100: 9f07 133e f965 d83e 0070 7b3e 28ec e53c
00000110: 21ce bf3e fe76 b7be b150 c83e be3a 00bd
00000120: a8b9 f1be 02b5 3b3e 475b 74be 8512 ff3e
00000130: 80e2 1bbe 6f99 8cbe 4a07 b03e 9f55 b73e
00000140: 022a 73bc bc19 293e e155 2c3e de13 b9be
00000150: 7d54 233e c3cc fc3e 4c38 ab3e f2bf bbbe
00000160: 179b 983e 6cd5 61bc 343f b03d ad2b c7bd
00000170: b8bd b3be cc3a 863e a8fa 99be 1d55 273e
00000180: 6324 ec3d f833 d3be 3b4c 80be e744 d93e
00000190: 7bfa e3bb 5a27 e9be 5566 323e 4fe0 73be
000001a0: d008 133f 1937 2ebe c39a f73d 89e4 cdbe
000001b0: 114c b8be 261b 9bbe 06e8 79bd 647d 40be
000001c0: 4647 c43d f953 9b3e 1071 243e 82c6 193c
000001d0: ee6d 3d3d 11ec 6dbd 96a3 d1be 99a1 e63e
000001e0: 2382 89be 333d 3d3d 77d4 383e 1b19 2ebe
000001f0: 953c f63e 3389 8a3e 38ca ec3e b834 0fbb
00000200: a9e5 37be cc7a f3bd b3b4 dabe 70c1 b0be
00000210: 7573 7fbc 2dd4 0cbe 25bb 49be d071 b13e
00000220: 0694 5ebe 4aac bcbe 90f6 a03e 1476 e8bd
00000230: 90a4 203e 7f66 013e f48e a13e 5400 063f
00000240: 9b0f a1bd cf42 a4be be91 913e 6803 76be
00000250: 4ba8 7abe f595 cc3e ccde dabe 103f 8f3d
00000260: 6e78 f03e a0d4 a2be 074b b0be 8205 dc3e
00000270: 7a8a f8be 4da3 473e 5024 b33d a320 c93e
00000280: ba92 0e3e af61 70be 622d ecbe 3f0c ac3e
00000290: 409f 55bd ad15 8ebd a95d 3d3e 3263 e03e
000002a0: b79a 8b3d 4ba8 da3e aee2 063e 478a 2fbe
000002b0: 3fef 6d3d 59c7 edbd 3465 13bd 7ed0 903d
000002c0: c52b 24be 830e 8c3c 6540 b0be 1d4b 3cbf
000002d0: 1c10 50be 0978 673e 65b2 8bbe a37e 5fbe
000002e0: 5e0e 1f3d 487a 8f3e 5951 e53e c2b9 a53d
000002f0: 4b83 7d3e 7bee a6be a818 14bd 814d 7039
00000300: 4d4c c23e 4675 153e 3aa6 1ebe 5cf5 e43e
00000310: f798 4d3b b652 363e a198 623e fd72 5bbe
00000320: 64e3 923e 6251 8abd 30c3 e4be ab5e 8abe
00000330: 90b9 4d3e 9802 863e 97e9 25be feb9 8dbd
00000340: eab3 a83e 12be 8dbd 181f f63d 49c3 6ebd
00000350: 1c3f a8be 2f96 5dbe 1ead 863e 2af3 a03d
00000360: 11b4 f8bd d0ee 55bd ad35 193e 1084 f63e
00000370: 4f3a c8bd 6e12 91be a4cf 8ebe d55d e13c
00000380: 922c 9c3e 0df4 023e 737f e4be ffce 43be
00000390: 1e5e e0be 120d 093e f31d 7e3e a0b3 d33e
000003a0: 73bc 11be 5a80 223e c7cf 943c 7a62 e4be
000003b0: 1a60 de3e 4668 9a3e 60da dcbe 4cec bd3e
000003c0: be63 8d3e 7ed0 c1be 79ad a53e 4ae9 dbbe
000003d0: 4486 bc3e a7bc 433c a7ed 5dbe 09da 6c3e
000003e0: ed39 a33e f2b4 12bf 0ddc 623e ec0e 213d
000003f0: 687c c23e bfd2 013f 7a5e 063f 0601 5c3e

q1.0.bias f4 [256]
-0.3103246 -0.28049362 -0.25952792 -0.3173913 0.51088697 0.48238873 -0.12900059 0.3237712
0.38312355 0.25603783 -0.0105058765 -0.3721758 0.3885017 0.14884359 -0.34037256 -0.27665254
-0.12967168 -0.02676905 0.40604827 0.25287774 -0.20934439 -0.05843772 -0.29616484 -0.46088576
0.282981 0.45276174 0.43408108 -0.20907034 -0.18293385 -0.3487412 0.21934268 0.4193023
-0.33064872 -0.104364105 0.30676427 0.04661045 0.3871083 -0.38912266 -0.2408594 0.32535428
-0.20054884 0.37389737 -0.3795302 0.017264059 -0.07464587 0.0049254782 -0.010981884 0.07739161
-0.20762867 0.05698483 0.27907926 -0.06609326 -0.32072097 -0.100966506 -0.3289252 -0.18158486
-0.26111552 0.0774364 0.06555349 -0.2535913 0.46864784 0.0014531584 -0.012441509 -0.28936797
0.373984 -0.2939239 0.40467685 0.42224777 0.10073265 -0.012210485 0.47320658 0.073599264
0.405486 -0.005600495 0.23455109 0.12936762 -0.30854023 -0.25016376 -0.3272441 0.30292344
-0.1734309 -0.040126037 0.39641035 -0.35108644 -0.3998241 -0.4082734 -0.2891656 -0.4200181
-0.17919889 0.27001002 0.18227442 -0.14637095 0.03607476 -0.2646688 0.24043404 0.19231135
-0.11237466 0.012686764 0.19360903 0.35124767 -0.45755136 0.20668216 -0.18418753 0.28442362
-0.23983444 0.43042976 -0.3969399 -0.3451069 0.4087447 -0.15604389 -0.21551058 -0.28880447
-0.40116483 0.3812069 0.18482392 -0.16711509 -0.32967043 -0.100311734 -0.3022515 0.23058262
-0.18592887 0.16920193 -0.15635797 -0.3714237 0.37017298 -0.20396528 -0.058561984 -0.009293118
-0.20870107 -0.37225407 0.19506401 0.43505096 0.5248807 -0.2932826 0.41238245 -0.3975779
0.4182527 -0.05923881 -0.35205692 0.3363505 -0.23704067 -0.13568905 -0.09503449 -0.29143155
0.07584674 0.31242067 -0.36221564 -0.43421897 -0.48036817 0.0033980873 -0.25634128 -0.14392203
0.09447542 0.28375515 0.23181202 -0.61790866 -0.24823487 0.53996706 -0.16804098 -0.3645925
0.48904666 -0.18785076 -0.17531963 0.40254125 -0.02789742 -0.0145525625 0.053682715 -0.44946858
0.25409508 -0.50567096 0.39468995 0.40998688 -0.33340716 -0.26308718 0.24492358 0.43325683
0.43787232 -0.14971763 -0.37667298 -0.3205128 -0.020965165 0.33853197 -0.041837636 0.4871041
-0.21233737 -0.401082 -0.36055723 0.18355773 0.25893676 -0.21294971 0.042847652 -0.11997398
-0.3150679 0.30747923 -0.48618603 0.1782533 0.3474233 0.47723812 0.50993764 0.35243896
0.5001208 0.123242766 0.21364458 0.21656711 -0.35758615 -0.15357673 -0.37278217 0.20815003
-0.32828778 -0.044276327 0.2987725 -0.30838707 -0.29660317 -0.34853178 0.27729714 0.36418325
0.47738189 0.37438497 0.30101687 0.3817844 0.19256115 -0.21139555 -0.101180844 0.12472832
0.31712675 0.29183668 0.4076945 0.36967286 0.20422746 -0.2858862 -0.2760888 0.19975083
-0.33287472 0.24756978 -0.11195632 0.09963147 0.3837794 0.22983195 0.23731092 0.1538666
-0.39975992 -0.14959198 0.39802274 0.19273841 -0.24944034 0.40435427 0.29054764 -0.2233573
-0.2611636 -0.30706218 -0.0054451143 0.21495458 -0.01960552 -0.29555136 -0.09107908 0.04912726
00000000: dee2 9ebe dc9c 8fbe d8e0 84be 1d81 a2be
00000010: 7dc9 023f a8fb f63e bb18 04be 57c5 a53e
00000020: c528 c43e 6417 833e d720 2cbc d48d bebe
00000030: b2e9 c63e 746a 183e 5045 aebe 67a5 8dbe
00000040: a7c8 04be c44a dbbc 8fe5 cf3e 3179 813e
00000050: 605e 56be 645c 6fbd eba2 97be 38f9 ebbe
00000060: e3e2 903e 63d0 e73e e03f de3e 8916 56be
00000070: 0353 3bbe 358e b2be 5e9b 603e cbae d63e
00000080: ca4a a9be d9bc d5bd 3510 9d3e 99ea 3e3d
00000090: 0f33 c63e 163b c7be d9a3 76be d694 a63e
000000a0: ad5c 4dbe 7a6f bf3e c851 c2be 5b6d 8d3c
000000b0: efdf 98bd e865 a13b 5ced 33bc 7e7f 9e3d
000000c0: 9c9c 54be ed68 693d 7ae3 8e3e e75b 87bd
000000d0: 8a35 a4be 87c7 cebd e268 a8be 62f1 39be
000000e0: efb0 85be fa96 9e3d e840 863d b8d6 81be
000000f0: 9cf2 ef3e e877 be3a 79d7 4bbc 0a28 94be
00000100: d57a bf3e 327d 96be ce31 cf3e dc30 d83e
00000110: eb4c ce3d 7c0e 48bc 2248 f23e 36bb 963d
00000120: dc9b cf3e 5b84 b7bb 292e 703e f278 043e
00000130: fcf8 9dbe 7715 80be 8a8c a7be c818 9b3e
00000140: df97 31be 335b 24bd 4cf6 ca3e 9ac1 b3be
00000150: bfb5 ccbe 3609 d1be 830d 94be 9d0c d7be
00000160: ea7f 37be c13e 8a3e 25a6 3a3e 44e2 15be
00000170: 21c3 133d ab82 87be 5734 763e 44ed 443e
00000180: b024 e6bd 25dc 4f3c 7241 463e bcd6 b33e
00000190: 2c44 eabe 7da4 533e a89b 3cbe f99f 913e
000001a0: 2997 75be 4a61 dc3e b53b cbbe dab1 b0be
000001b0: fc46 d13e f8c9 1fbe ceae 5cbe 2ede 93be
000001c0: 7a65 cdbe 8d2d c33e 7b42 3d3e 3820 2bbe
000001d0: 90ca a8be 3d70 cdbd b5c0 9abe da1d 6c3e
000001e0: 2364 3ebe 4543 2d3e 4e1c 20be 3f2b bebe
000001f0: 5087 bd3e 46dc 50be b1de 6fbd 2942 18bc
00000200: bcb5 55be 1698 bebe dcbe 473e 00bf de3e
00000210: 955e 063f 2329 96be cb23 d33e 558f cbbe
00000220: 3825 d63e 65a4 72bd ce40 b4be 2236 ac3e
00000230: caba 72be 12f2 0abe 71a1 c2bd 8436 95be
00000240: 8955 9b3d 9af5 9f3e 5474 b9be f351 debe
00000250: d1f2 f5be 72b2 5e3b 2a3f 83be 4c60 13be
00000260: 547c c13d 5b48 913e 2160 6d3e 432f 1ebf
00000270: 4831 7ebe 483b 0a3f ef12 2cbe deab babe
00000280: 5364 fa3e f35b 40be fd86 33be e319 ce3e
00000290: 2189 e4bc df6d 6ebc 68e2 5b3d bf20 e6be
000002a0: c018 823e a773 01bf cd14 ca3e cde9 d13e
000002b0: 58b4 aabe 5db3 86be 3fcd 7a3e d7d3 dd3e
000002c0: cd30 e03e 944f 19be 48db c0be 411a a4be
000002d0: 23bf abbc 1054 ad3e f15d 2bbd b565 f93e
000002e0: f86e 59be 9f5a cdbe f59a b8be 8ff6 3b3e
000002f0: 5c93 843e 7d0f 5abe 0581 2f3d ebb4 f5bd
00000300: 9450 a1be eb6d 9d3e 60ed f8be 0888 363e
00000310: 77e1 b13e 8e58 f43e 468b 023f e172 b43e
00000320: eb07 003f b466 fc3d a5c5 5a3e c5c3 5d3e
00000330: 8815 b7be 3843 1dbe 4edd bebe 4825 553e
00000340: 5615 a8be 185b 35bd b6f8 983e e9e4 9dbe
00000350: 5fdc 97be c272 b2be e4f9 8d3e 3a76 ba3e
00000360: 666b f43e 63af bf3e e21e 9a3e 3f79 c33e
00000370: c02e 453e 1378 58be e737 cfbd 9071 ff3d
00000380: 705e a23e 9e6b 953e 55bd d03e c345 bd3e
00000390: 0121 513e ad5f 92be 835b 8dbe 7b8b 4c3e
000003a0: 8e6e aabe ef82 7d3e 5b49 e5bd 960b cc3d
000003b0: bc7e c43e 1159 6b3e a201 733e 358f 1d3e
000003c0: 55ad ccbe a42e 19be a3c9 cb3e 385d 453e
000003d0: 4a6d 7fbe 8607 cf3e a9c2 943e c7b7 64be
000003e0: 3cb7 85be 4137 9dbe ee6c b2bb 0e1d 5c3e
000003f0: c19b a0bc 8252 97be ab87 babd aa39 493d

q1.2.weight f4 [256, 256]
0.023877615 -0.104378596 -0.17073616 -0.16043264 0.05725223 0.06241681 -0.10215771 -0.01967443
0.032680348 -0.008068615 -0.008280151 -0.060445867 0.05863133 0.15531212 -0.18622963 -0.06520307
-0.110897645 0.036978874 0.11527857 0.015276291 -0.13446824 -0.043925792 0.0017521626 -0.25920388
0.025741793 0.08089673 0.10869588 -0.17379278 -0.11220743 -0.0722696 0.084340096 0.022029188
-0.12968068 -0.0045314804 0.033594884 0.3489978 0.09273095 -0.013119688 -0.013013958 0.06985219
-0.13954304 0.035508215 -0.16249944 0.053188425 -0.0060059493 -0.028707134 -0.038255498 0.04907936
-0.0034416954 0.007177129 0.037850276 -0.09607348 0.05562971 0.045330375 -0.17012285 -0.053097025
-0.10831957 0.019017106 -0.028562188 -0.009064019 0.08363459 0.035266586 0.041226722 -0.0420782
0.013545102 -0.014489663 0.03927209 0.08514763 0.08237421 -0.07818891 0.11519182 0.058108997
0.11911792 -0.035645947 0.00094080355 0.19844092 -0.111940436 -0.11782949 -0.15588722 0.0661766
-0.09297164 -0.05001333 0.10720695 -0.04573973 0.081737645 -0.07458597 -0.15927607 0.013365029
-0.0035577293 0.0049284203 0.030520782 -0.006499406 -0.007705731 -0.009574696 -0.007420996 0.018497707
-0.048263576 -0.024340762 -0.024129428 0.04752146 0.017466426 0.096444376 -0.006928653 0.05737141
-0.29892376 0.032197837 -0.07532903 -0.27404568 0.0012726862 -0.16329809 0.055310078 -0.32341772
0.024828723 -0.009105854 0.08559405 -0.10777829 -0.054384913 0.026178246 -0.14350452 0.10019887
-0.14893256 0.07721777 -0.13335472 -0.037610248 -0.021242274 -0.124371506 0.04189101 -0.044235453
-0.0793824 -0.15988877 0.14505008 -0.0061642393 0.09377128 0.011701604 0.11057662 -0.005588323
0.05120623 -0.07771933 -0.0022235797 0.06659893 0.03845777 -0.031972237 0.12641686 -0.046186317
-0.014267525 0.09834283 -0.1555119 0.11505571 0.022113396 0.09923441 -0.122306764 -0.020008178
-0.029294644 0.07070544 0.028095523 -0.07532616 -0.12573753 0.028031763 -0.0510794 -0.27089268
0.0018501409 0.054953907 -0.040466595 0.045024864 0.062417597 0.022333775 0.055673163 -0.24605323
0.013206106 -0.17567405 0.065613635 0.002734261 -0.14675835 0.0567116 0.033083122 0.05233313
-0.0043691383 0.009895394 -0.09362051 0.052111164 0.007851223 0.14068641 0.026993759 0.013163245
-0.039369624 0.006067316 0.01597944 -0.0023572105 0.06631685 -0.059694987 -0.029481601 -0.03505551
0.021626057 0.02433673 -0.14703935 0.103102855 0.04787125 0.016369069 -0.026377685 0.10085205
0.063993946 0.00041684153 0.0113313235 0.07127849 -0.12617184 -0.09371705 -0.08374739 -0.0046482426
-0.1124809 -0.0014202484 0.0052963374 -0.06570967 -0.067886 -0.16171716 0.0008878346 0.10189825
0.08198933 0.01598971 0.09754398 0.023933554 0.06369894 -0.07795994 -0.0036600286 0.04486276
0.0011043627 0.09470257 0.071415536 0.11077559 0.043262083 -0.032081716 -0.046851095 0.106929764
-0.25347444 0.09906899 0.021705758 -0.0027431555 0.01511104 0.022408891 0.059992265 0.03226148
-0.10360171 -0.12155936 0.00370249 0.07160234 -0.105460435 0.034412533 0.07987748 -0.019052602
-0.12805948 -0.002358196 -0.0833208 -0.0032212322 0.17642993 -0.026091978 -0.1253026 0.023681091
00000000: fd9a c33c 72c4 d5bd 76d5 2ebe 7448 24be
00000010: 5081 6a3d c5a8 7f3d 1038 d1bd 452c a1bc
00000020: d4db 053d 3932 04bc 78a9 07bc 1696 77bd
00000030: 6827 703d 240a 1f3e fbb2 3ebe 3089 85bd
00000040: 4e1e e3bd 2977 173d 2c17 ec3d 6949 7a3c
00000050: 0bb2 09be 88eb 33bd d2a8 e53a 5fb6 84be
00000060: 74e0 d23c 2fad a53d f29b de3d bcf6 31be
00000070: 02cd e5bd 1602 94bd 80ba ac3d 8e76 b43c
00000080: 03cb 04be d07c 94bb ca9a 093d d7af b23e
00000090: b9e9 bd3d f6f3 56bc 7f38 55bc aa0e 8f3d
000000a0: 5fe4 0ebe 1071 113d 4166 26be 1bdc 593d
000000b0: 8ecd c4bb 392b ebbc ccb1 1cbd 7007 493d
000000c0: 118e 61bb 1f2e eb3b e408 1b3d 2cc2 c4bd
000000d0: fbdb 633d 58ac 393d af34 2ebe 447c 59bd
000000e0: a7d6 ddbd c3c9 9b3c 40fb e9bc 4081 14bc
000000f0: 9d48 ab3d b273 103d 5add 283d 315a 2cbd
00000100: 47ec 5d3c 0d66 6dbc c5db 203d e161 ae3d
00000110: cfb3 a83d 8221 a0bd b0e9 eb3d b303 6e3d
00000120: 19f4 f33d 7c01 12bd 42a0 763a 1934 4b3e
00000130: 0741 e5bd 9650 f1bd e6a0 1fbe 9987 873d
00000140: ea67 bebd c7da 4cbd 518f db3d 9559 3bbd
00000150: 1166 a73d 87c0 98bd 4419 23be fff8 5a3c
00000160: cb28 69bb 967e a13b b806 fa3c f8f8 d4bb
00000170: 5b80 fcbb 30df 1cbc d42b f3bb 8188 973c
00000180: 07b0 45bd 4766 c7bc 14ab c5bc dda5 423d
00000190: c015 8f3c a184 c53d c109 e3bb 49fe 6a3d
000001a0: 890c 99be e1e1 033d 1b46 9abd b74f 8cbe
000001b0: 43d0 a63a 9d37 27be d28c 623d 0297 a5be
000001c0: 9b65 cb3c b830 15bc ef4b af3d ddba dcbd
000001d0: b7c2 5ebd c373 d63c d9f2 12be 1135 cd3d
000001e0: c781 18be 5a24 9e3d 248e 08be 340d 1abd
000001f0: 4704 aebc 7db6 febd e895 2b3d 3c30 35bd
00000200: 3d93 a2bd e2b9 23be 0288 143e 63fd c9bb
00000210: 280b c03d 16b8 3f3c ff75 e23d 401e b7bb
00000220: a0bd 513d 502b 9fbd 7ab9 11bb 0565 883d
00000230: e585 1d3d 52f5 02bd 6c73 013e dd2d 3dbd
00000240: 56c2 69bc f767 c93d 833e 1fbe 54a2 eb3d
00000250: 2727 b53c 693b cb3d f87b fabd 31e8 a3bc
00000260: 52fb efbc 04ce 903d 9528 e63c 9a44 9abd
00000270: 57c1 00be dea2 e53c a238 51bd 72b2 8abe
00000280: 6d80 f23a 5917 613d 4dc0 25bd fe6b 383d
00000290: 98a9 7f3d 52f5 b63c 8b09 643d 61f5 7bbe
000002a0: 6c5e 583c e6e3 33be 7160 863d 4a31 333b
000002b0: d247 16be 6c4a 683d 2b82 073d 445b 563d
000002c0: fd2a 8fbb 4a20 223c 1cbc bfbd 8472 553d
000002d0: 6ba2 003c 1910 103e 0422 dd3c a7aa 573c
000002e0: 0b42 21bd 56d0 c63b 51e7 823c 6e7b 1abb
000002f0: 21d1 873d bb82 74bd 6683 f1bc 5e96 0fbd
00000300: 2129 b13c d25d c73c 7c91 16be 9727 d33d
00000310: a514 443d 6d18 863c 0416 d8bc 858b ce3d
00000320: 420f 833d 868b da39 04a7 393c 75fa 913d
00000330: 3133 01be baee bfbd c083 abbd 4950 98bb
00000340: 635c e6bd a127 baba e68c ad3b cb92 86bd
00000350: d107 8bbd 2f99 25be 92bd 683a 08b0 d03d
00000360: 06ea a73d dafc 823c 23c5 c73d 4d10 c43c
00000370: 9774 823d 76a9 9fbd 17dd 6fbb 03c2 373d
00000380: 43c0 903a 6cf3 c13d 4f42 923d 50de e23d
00000390: 9533 313d 1e68 03bd efe6 3fbd fefd da3d
000003a0: 67c7 81be afe4 ca3d 46d0 b13c 83c6 33bb
000003b0: 4c94 773c da92 b73c 73ba 753d 9d24 043d
000003c0: 222d d4bd 1df4 f8bd 79a5 723b 3fa4 923d
000003d0: a4fb d7bd 28f4 0c3d ce96 a33d 3414 9cbc
000003e0: 0622 03be f78b 1abb 18a4 aabd 4f1b 53bb
000003f0: 0caa 343e d8be d5bc 534f 00be d9fe c13c

q1.2.bias f4 [256]
0.10832791 0.0024356197 -0.008270311 0.018185277 0.061715145 -0.03503662 0.052021075 0.09797461
0.030192524 -0.029834973 0.08886916 -0.01385016 0.027382936 -0.04646 0.061882693 -0.033822175
-0.05035144 0.014368835 0.07593239 -0.103298865 -0.0006280191 0.019946503 -0.020124108 -0.059209064
-0.015885146 -0.018560022 -4.4604247e-05 -0.012298721 -0.051330935 0.009942522 0.0113358265 -0.03437558
-0.08044648 0.015678285 0.03696908 -0.053741977 -0.062461033 0.025192024 0.0006043914 -0.0149139725
-0.017049419 1.4208299e-05 -0.03245369 0.063783325 -0.02422431 0.016921462 0.009638882 0.029717818
-0.03693605 0.04195933 0.062453628 -0.011015964 -0.04451023 0.029286066 0.035170455 0.022204041
0.07402426 0.06528405 0.04347875 -0.0822382 -0.09921772 -0.070440926 -0.025916811 0.07374989
0.029708516 0.011437642 0.07198839 -0.0263623 0.02825383 0.084380925 -0.050179012 0.0030104443
0.10341009 0.044059563 0.10417603 0.039553173 0.016166164 0.008831323 0.06896699 0.037521876
0.080796726 0.10680583 0.0016370484 0.08014187 -0.016962925 -0.022550413 0.06634115 0.0016959943
0.02089938 0.06850071 -0.09358441 -0.07270291 0.05894249 -0.008695289 0.048171964 0.015187763
0.029358827 0.08497004 0.05086619 -0.035536118 -0.0073264986 0.04507487 0.05670456 0.03969779
-0.011114513 0.02094684 -0.04257171 -0.0041723032 -0.024490137 0.022371268 0.05676171 0.046761338
0.039988138 -0.06200913 -0.028338077 0.05775303 -0.025095075 0.09149597 0.08965472 0.006277646
-0.025260197 0.026363593 0.056025464 0.07822349 -0.05167149 -0.0021751178 -0.06428374 -0.0035185064
-0.011571384 0.023822948 -0.02539657 -0.014876293 0.05049684 0.013242787 -0.001455543 0.0043451325
0.054443825 0.017423524 0.058798436 0.011125877 0.035251502 0.093370706 -0.02384385 0.076052316
-0.0660654 -0.08172479 0.00873983 0.12379414 0.030060392 -0.00624869 0.07414661 -0.04685426
0.06718952 0.075760946 -0.0010037982 0.03278781 -0.049695425 -0.010653953 0.014871812 -0.05088258
-0.007230861 0.03866087 0.0338191 -0.0036940468 0.045047574 -0.056140862 -0.07483982 -0.07478643
-0.030097665 0.03986903 0.08728344 -0.019585462 0.048508644 -0.03112033 -0.017532988 -0.016182268
0.020495797 -0.0479949 0.010503984 -0.024647903 -0.034750823 0.034821257 -0.058133595 -0.04832679
0.046346057 0.028780375 -0.041284792 0.012211292 -0.029447976 0.04071497 0.03463369 -0.01086606
0.0026516728 0.011448788 0.12560579 0.043495886 -0.010422567 0.092947476 -0.0033406212 0.018938182
-0.03657286 0.115484394 0.097326644 0.028938925 0.00087595073 0.002715974 -0.023389576 0.047632236
0.013527 -0.065841526 0.0003327536 0.031419393 0.025037382 -0.018522875 0.0039722426 0.06471955
-0.05417554 -0.050217334 0.002289086 -0.0051355157 0.037593942 -0.0046221423 0.06989068 0.03471604
0.0070855054 0.084436 -0.005660279 -0.031075729 -0.06457172 0.040027976 0.07140193 -0.0669094
-0.01881776 0.033077583 0.025287498 -0.017403368 0.05646795 -0.056200705 0.04784456 0.01860163
-0.0919927 -0.0023231003 0.029788816 0.01965262 0.0038317365 0.014274321 0.05840829 -0.03974091
0.037794344 -0.0007301203 0.05541204 0.07003552 0.053006124 0.06813705 -0.05759667 0.0187048
00000000: 06db dd3d eb9e 1f3b 3380 07bc 4af9 943c
00000010: 05c9 7c3d 8f82 0fbd 0d14 553d eaa6 c83d
00000020: 5056 f73c 7968 f4bc 0901 b63d c8eb 62bc
00000030: 2e52 e03c d74c 3ebd b578 7d3d 1f89 0abd
00000040: 503d 4ebd 436b 6b3c 7182 9b3d 5b8e d3bd
00000050: a6a1 24ba d966 a33c 50db a4bc 3485 72bd
00000060: 9121 82bc 300b 98bc 7215 3bb8 9380 49bc
00000070: 6340 52bd f6e5 223c e7b9 393c 68cd 0cbd
00000080: 20c1 a4bd bf6f 803c e46c 173d 8c20 5cbd
00000090: 24d7 7fbd 815f ce3c 0570 1e3a bc59 74bc
000000a0: 39ab 8bbc 2e60 6e37 29ee 04bd d5a0 823d
000000b0: 0f72 c6bc e19e 8a3c 67ec 1d3c c872 f33c
000000c0: 414a 17bd 8cdd 2b3d 60cf 7f3d 4d7c 34bc
000000d0: 5c50 36bd 55e9 ef3c e50e 103d 40e5 b53c
000000e0: 089a 973d a5b3 853d c616 323d 806c a8bd
000000f0: a932 cbbd 5543 90bd 7e4f d4bc 2f0a 973d
00000100: 465f f33c f364 3b3c a66e 933d c0f5 d7bc
00000110: 9374 e73c e8cf ac3d 8288 4dbd e04a 453b
00000120: abc8 d33d cd77 343d 3e5a d53d 8202 223d
00000130: e76e 843c 41b1 103c 913e 8d3d 8ab0 193d
00000140: c178 a53d 04bd da3d 3b92 d63a 6c21 a43d
00000150: d5f5 8abc a5bb b8bc dedd 873d 204c de3a
00000160: 2d35 ab3c 1a4a 8c3d 2fa9 bfbd 43e5 94bd
00000170: ae6d 713d af76 0ebc f74f 453d 18d6 783c
00000180: ec81 f03c c604 ae3d 1159 503d 528e 11bd
00000190: 2013 f0bb 6da0 383d 0a43 683d 269a 223d
000001a0: a519 36bc b598 ab3c ac5f 2ebd d1b7 88bb
000001b0: 8a9f c8bc f343 b73c f87e 683d d188 3f3d
000001c0: 9aca 233d 49fd 7dbd 4125 e8bc 718e 6c3d
000001d0: 3094 cdbc 3d62 bb3d e59c b73d b6b4 cd3b
000001e0: 79ee cebc 76f8 d73c f57a 653d a333 a03d
000001f0: 7ca5 53bd 6c8c 0ebb 32a7 83bd be96 66bb
00000200: e795 3dbc 5828 c33c 780c d0bc b2bb 73bc
00000210: c6d5 4e3d 46f8 583c ebc7 beba 9d61 8e3b
00000220: 7d00 5f3d c7bb 8e3c a1d6 703d 4f49 363c
00000230: e163 103d 2439 bf3d 2d54 c3bc 51c1 9b3d
00000240: 4c4d 87bd 545f a7bd 8131 0f3c c887 fd3d
00000250: 3641 f63c d0c1 ccbb 2eda 973d 41ea 3fbd
00000260: a99a 893d 8e28 9b3d e191 83ba 834c 063d
00000270: 6e8d 4bbd eb8d 2ebc e7a8 733c 416a 50bd
00000280: dcf0 ecbb dc5a 1e3d e685 0a3d d217 72bb
00000290: ce83 383d f6f3 65bd 9f45 99bd a129 99bd
000002a0: 618f f6bc b54d 233d a9c1 b23d b171 a0bc
000002b0: 00b1 463d 10f0 febc 57a1 8fbc ad90 84bc
000002c0: cde6 a73c 4d96 44bd e718 2c3c 66ea c9bc
000002d0: e156 0ebd bca0 0e3d 7e1d 6ebd 50f2 45bd
000002e0: 5dd5 3d3d d2c4 eb3c 3e1a 29bd df11 483c
000002f0: e23c f1bc bec4 263d 0edc 0d3d 8f07 32bc
00000300: b0c7 2d3b b393 3b3c ce9e 003e be28 323d
00000310: 6ac3 2abc 3f5b be3d 53ee 5abb 3f24 9b3c
00000320: 6ccd 15bd 1583 ec3d 3153 c73d 5311 ed3c
00000330: 0fa0 653a 7cfe 313b 7f9b bfbc 051a 433d
00000340: 5aa0 5d3c ecd7 86bd 6f75 ae39 9fb1 003d
00000350: 321b cd3c 49bd 97bc 9629 823b af8b 843d
00000360: 2ce7 5dbd b1b0 4dbd 7e04 163b d447 a8bb
00000370: 1bfc 193d 5775 97bb d822 8f3d 6832 0e3d
00000380: 872d e83b c8ec ac3d dd79 b9bb 8792 febc
00000390: 2e3e 84bd 60f4 233d 2d3b 923d cc07 89bd
000003a0: b427 9abc 5c7c 073d ba27 cf3c 8291 8ebc
000003b0: f04a 673d b632 66bd a8f8 433d 7262 983c
000003c0: ab66 bcbd 283f 18bb ad07 f43c 88fe a03c
000003d0: df1d 7b3b d7de 693c 883d 6f3d 5dc7 22bd
000003e0: 3ece 1a3d 8b65 3fba bcf7 623d c86e 8f3d
000003f0: f31c 593d 708b 8b3d 7cea 6bbd cf3a 993c

q1.4.weight f4 [1, 256]
0.2300972 -0.009148761 -0.038041346 0.11219584 0.16891459 0.0870638 -0.018975176 0.25987
0.047698677 0.09411985 -0.5009406 0.17387685 -0.24261415 0.3626115 0.129956 -0.2687049
-0.3781134 0.16194592 0.14897037 -0.4942448 -0.27070814 -0.009439825 -0.05910696 -0.034713067
-0.35234085 0.143765 -0.31508783 0.18960626 -0.3029201 0.107709445 0.10548904 -0.0016471761
-0.2950844 0.064857274 -0.30503902 0.00559383 -0.0592651 0.2076566 0.09174906 -0.29805788
-0.019999394 -0.3539768 -0.034988634 0.0857862 -0.31483966 0.082271986 -0.32589453 -0.04520089
0.07859093 -0.22242635 -0.20604748 0.084983 -0.025700755 0.09539167 -0.03798158 -0.39523056
0.10125975 0.23884499 0.22243233 -0.28993583 -0.3836684 -0.5133067 -0.62146866 0.24678077
0.17910044 0.2428899 -0.4424654 -0.31824374 -0.16159558 -0.62912387 -0.49614424 0.093836226
0.1712251 -0.030629702 0.20324944 0.1219832 0.091036215 0.09486154 0.11833415 0.06848791
0.10886426 0.20031598 -0.0029209557 0.08912147 -0.29517457 0.094983 -0.28890753 0.12886775
0.10884701 0.06699952 -0.5305335 -0.38083994 0.18718243 0.12547378 0.14516102 -0.01344356
-0.05650913 0.14576165 0.14869186 0.008563249 -0.6503997 -0.051529534 -0.23118599 -0.38261956
-0.21353756 0.4243938 -0.027627524 -0.060125995 -0.0065107574 -0.24584106 0.10193266 0.10881068
0.18499947 -0.011958918 -0.50500447 0.20461051 0.16070476 0.22351904 0.16499254 0.18438026
0.13063084 -0.58215094 -0.26619625 0.17825738 -0.016070753 -0.03044553 -0.05141658 -0.27913716
0.11803911 0.21794438 -0.57532734 -0.42070976 -0.24918832 0.116786964 0.1427366 0.09042636
-0.051807564 -0.29006326 0.12894407 0.14471498 -0.26321605 0.2805287 -0.025808904 0.19692515
-0.048729394 0.62304866 -0.030805282 0.27118403 -0.008659784 0.19039157 0.103718415 -0.31139672
0.094974786 0.080883846 -0.18816078 -0.19610313 -0.029561505 -0.53018886 -0.15891132 -0.29626328
-0.71790326 0.17453626 -0.27467158 0.074698135 0.15563321 -0.04485946 -0.30720684 -0.4755015
-0.05015105 0.13583411 0.16670981 -0.32512823 -0.48932406 -0.022664282 0.1547453 0.107877366
0.0887905 -0.0020549633 -0.30318874 0.08841531 -0.047613725 0.16015065 0.013993378 -0.05532678
0.15097943 0.124755755 -0.016981907 0.10775859 0.14156589 0.11692161 -0.34842843 0.1856303
-0.22696996 0.1386587 0.16158237 0.11087195 -0.3701154 0.17297247 -0.4129696 0.14005648
-0.21287777 0.18405093 0.2399213 -0.5457647 -0.4780474 -0.27877408 -0.49254432 -0.26149645
-0.04196906 -0.054818112 0.11973431 -0.213127 0.13468356 0.10419651 0.27693015 -0.41560912
-0.013771828 -0.3616213 0.0328739 0.18223646 0.12054939 -0.3552994 0.090440296 -0.19327609
-0.6130546 0.09550989 0.13472363 0.0761159 -0.012664434 -0.024353977 0.073579855 -0.3731999
-0.024784997 0.14514706 0.066658 0.08654358 0.1930613 -0.32674807 -0.053310506 -0.2194667
-0.43698424 -0.25950277 0.16590647 -0.7150119 -0.23314314 -0.047064275 0.08033163 -0.36733046
-0.17902024 0.19058977 0.29706052 -0.36969674 -0.23814894 0.103567086 -0.011259929 0.13656285
00000000: 9a9e 6b3e afe4 15bc 3ed1 1bbd efc6 e53d
00000010: f2f7 2c3e 814e b23d d471 9bbc ae0d 853e
00000020: b05f 433d e8c1 c03d a53d 00bf c60c 323e
00000030: d86f 78be 37a8 b93e 3013 053e b093 89be
00000040: 1498 c1be 27d5 253e b08b 183e a80d fdbe
00000050: 429a 8abe 7fa9 1abc 241a 72bd 4a2f 0ebd
00000060: 0566 b4be 2237 133e 3153 a1be 2528 423e
00000070: 5818 9bbe c596 dc3d a30a d83d 0fe6 d7ba
00000080: 4d15 97be e4d3 843d 132e 9cbe 724c b73b
00000090: f6bf 72bd efa3 543e eee6 bb3d 0b9b 98be
000000a0: c5d5 a3bc 723c b5be 3e50 0fbd adb0 af3d
000000b0: aa32 a1be 377e a83d a6db a6be 9224 39bd
000000c0: 48f4 a03d bcc3 63be 1cfe 52be 910b ae3d
000000d0: 648a d2bc b55c c33d 9392 1bbd a95b cabe
000000e0: 4661 cf3d c893 743e 4dc5 633e 7872 94be
000000f0: 2f70 c4be 1168 03bf 9218 1fbf 19b4 7c3e
00000100: 1b66 373e 21b8 783e d38a e2be d8f0 a2be
00000110: 5079 25be 430e 21bf 9e06 febe 352d c03d
00000120: a255 2f3e 24eb fabc 9f20 503e 54d2 f93d
00000130: 3271 ba3d c446 c23d 2d59 f23d 6443 8c3d
00000140: 3af4 de3d a21f 4d3e 816d 3fbb 5185 b63d
00000150: 1f21 97be 7286 c23d b0eb 93be e8f5 033e
00000160: 2eeb de3d 0b37 893d 0bd1 07bf 74fd c2be
00000170: c0ac 3f3e 337c 003e 17a5 143e 6142 5cbc
00000180: 1e76 67bd 8b42 153e ae42 183e df4c 0c3c
00000190: 9880 26bf a210 53bd 05bc 6cbe b6e6 c3be
000001a0: 97a9 5abe 254a d93e 1e53 e2bc ad46 76bd
000001b0: 3158 d5bb c2bd 7bbe 12c2 d03d 22d8 de3d
000001c0: 8070 3d3e 56ef 43bc f947 01bf 6b85 513e
000001d0: ca8f 243e 2de2 643e cef3 283e 2ece 3c3e
000001e0: 17c4 053e d807 15bf e04a 88be 1a89 363e
000001f0: d0a6 83bc e768 f9bc 319a 52bd 11eb 8ebe
00000200: 7dbe f13d d02c 5f3e a748 13bf 4567 d7be
00000210: 392b 7fbe 012e ef3d 8b29 123e 7531 b93d
00000220: 2b34 54bd 2c83 94be ea09 043e 2a30 143e
00000230: 41c4 86be 75a1 8f3e 326d d3bc bfa6 493e
00000240: 7998 47bd 1e80 1f3f 5c5b fcbc a2d8 8a3e
00000250: c4e1 0dbc 02f6 423e 526a d43d 646f 9fbe
00000260: 2482 c23d 6ea6 a53d 38ad 40be 42cf 48be
00000270: f82a f2bc 75ba 07bf a6b9 22be d2af 97be
00000280: 82c8 37bf a2b9 323e c1a1 8cbe 56fb 983d
00000290: 505e 1f3e 8ebe 37bd 374a 9dbe ef74 f3be
000002a0: 306b 4dbd 1918 0b3e fab5 2a3e 3577 a6be
000002b0: af88 fabe 72aa b9bc 8d75 1e3e cfee dc3d
000002c0: cbd7 b53d 90ac 06bb 8e3b 9bbe 1613 b53d
000002d0: 9c06 43bd 88fe 233e 7b44 653c 559e 62bd
000002e0: 5a9a 1a3e f27f ff3d a41d 8bbc 89b0 dc3d
000002f0: a6f6 103e 9974 ef3d 3665 b2be df15 3e3e
00000300: d06a 68be 8cfc 0d3e d975 253e d510 e33d
00000310: c47f bdbe b21f 313e c070 d3be f76a 0f3e
00000320: a1fc 59be d977 3c3e eead 753e 3cb7 0bbf
00000330: a1c2 f4be 7abb 8ebe c52e fcbe dde2 85be
00000340: c0e7 2bbd f588 60bd 4337 f53d f73d 5abe
00000350: 7dea 093e fb64 d53d cac9 8d3e b8ca d4be
00000360: 3ca3 61bc 6d26 b9be c8a6 063d 329c 3a3e
00000370: 99e2 f63d cee9 b5be c338 b93d 2bea 45be
00000380: 25f1 1cbf b09a c33d fef4 093e a7e2 9b3d
00000390: 7c7e 4fbc fe81 c7bc 09b1 963d 0f14 bfbe
000003a0: e809 cbbc 6ea1 143e fd83 883d c33d b13d
000003b0: ddb1 453e 864b a7be 1e5c 5abd e1bb 60be
000003c0: 66bc dfbe 8cdd 84be 63e3 293e 050b 37bf
000003d0: 13bd 6ebe 78c6 40bd e984 a43d bd12 bcbe
000003e0: 1551 37be f729 433e 5118 983e e448 bdbe
000003f0: 51dd 73be fb1a d43d 917b 38bc 22d7 0b3e

q2.0.weight f4 [256, 5]
-0.0970573 0.010109631 -0.10839675 -0.44823602 -0.29414764 0.0797724 -0.12410924 0.18082899
-0.35313836 0.3347917 -0.20376414 0.17940536 -0.39309633 0.44795606 0.4468125 0.19092903
0.32627827 -0.49074978 -0.5609508 0.03176579 0.14139923 -0.19225441 -0.27076587 -0.17342566
0.38953772 -0.18408489 -0.40012693 0.24229363 -0.31367692 -0.37230557 0.4615228 -0.22312355
0.41719565 0.12482248 -0.34083194 -0.009314281 -0.23557785 -0.39681068 -0.21373457 -0.3012426
-0.09472152 -0.4952639 -0.4490338 0.065590315 -0.31906363 0.1661329 0.257288 -0.38662183
0.19405964 0.22661622 -0.4447109 -0.30545655 -0.1464471 0.12697528 -0.024353309 -0.12634204
-0.23496564 0.38824892 -0.23029442 -0.26942146 0.08630302 -0.033790424 -0.13556193 0.018258967
0.4350873 -0.28817415 0.40333512 0.040508326 -0.3189233 0.3689545 0.22748442 0.003167307
0.2926061 -0.012639942 0.41177478 0.32115874 0.22539707 0.26617554 -0.15329656 -0.5159673
-0.017662909 0.38661176 -0.10285498 0.56285816 0.12736705 -0.31616655 -0.21507323 0.115748025
0.28386712 -0.25043532 -0.22387365 0.0070701586 0.1413879 -0.57476294 -0.18313272 -0.40389252
-0.16851966 0.16719672 -0.04726072 -0.4855208 -0.36050946 -0.3816498 0.4007245 -0.25449637
-0.20954072 -0.4608124 0.10345079 0.36476108 0.15511051 0.13393849 -0.16151693 -0.44980696
0.20843457 -0.05932548 -0.14698014 0.53545123 -0.05179987 -0.36293665 0.34134233 0.06511326
-0.394629 0.06656196 0.3522994 0.28834978 0.19630685 0.16823032 -0.18592536 0.45391536
0.24293812 -0.11969636 -0.46091557 -0.03673828 0.11484595 -0.108521044 0.26065636 -0.47029424
0.08103105 0.1936521 0.009778693 0.13847227 0.37151083 0.18169728 -0.22211683 0.57421404
-0.40898776 -0.16897595 -0.16788575 0.06385516 -0.022481436 0.3100295 0.3719183 0.17486747
-0.24205208 -0.3589446 0.5712797 -0.4516423 0.3387527 -0.46087334 0.36174393 0.09262344
-0.4166854 -0.4817103 0.13296248 -0.40351796 -0.36004356 -0.31791055 -0.1995749 0.32875994
-0.45973843 -0.3826532 0.06339221 -0.19602579 -0.03281853 0.0004230619 0.3001796 -0.34455964
-0.0026512602 -0.28165728 -0.39674997 0.42597452 -0.026117953 0.2810592 0.31539783 -0.523339
0.119771495 0.4645389 0.03515401 0.33718413 0.44321626 0.3219204 -0.35469303 -0.11517131
-0.38219935 0.048486434 -0.028555317 -0.10222326 0.23430455 -0.11292927 -0.43474895 -0.18355139
-0.18629931 -0.32268992 -0.037116796 0.19414009 -0.18422303 -0.11073994 0.16346933 -0.17239094
-0.42624882 0.32824224 -0.010948707 0.54261273 -0.37081757 0.31593186 -0.25445548 0.38942495
-0.4115373 0.26067355 0.008400962 -0.0113454675 0.001618955 -0.47792873 0.14365071 -0.41625124
-0.38592818 0.20436117 -0.35460907 0.073141724 -0.39934143 0.24885513 -0.31267524 0.4081555
0.2650609 -0.058871116 0.007970109 -0.18679877 0.10368179 -0.13217789 -0.35265207 0.26669976
0.22811553 -0.34354275 -0.071935005 0.42553616 0.37008286 0.09617114 -0.1189447 0.3064376
0.23691548 -0.06052424 -0.3239334 -0.13707653 0.10127064 0.08297998 -0.2240581 -0.43907893
00000000: fac5 c6bd dea2 253c 1eff ddbd 317f e5be
00000010: 859a 96be b65f a33d fc2c febd 3c2b 393e
00000020: 8dce b4be d169 ab3e 8ca7 50be 0ab6 373e
00000030: ec43 c9be 7f5a e53e 9cc4 e43e e682 433e
00000040: f20d a73e 8e43 fbbe 799a 0fbf d81c 023d
00000050: f6ca 103e 57de 44be d3a1 8abe 7f96 31be
00000060: 7d71 c73e c080 3cbe 70dd ccbe d21b 783e
00000070: 439a a0be d69e bebe b74c ec3e 807a 64be
00000080: ab9a d53e eea2 ff3d 8681 aebe ed9a 18bc
00000090: 523b 71be c52a cbbe 3cdd 5abe 783c 9abe
000000a0: 5bfd c1bd 3b93 fdbe c2e7 e5be 3754 863d
000000b0: 4f5c a3be be1e 2a3e 41bb 833e 4cf3 c5be
000000c0: 92b7 463e 150e 683e 26b1 e3be cd64 9cbe
000000d0: 3bf6 15be cf05 023e 9780 c7bc cf5f 01be
000000e0: d59a 70be 90c8 c63e 4dd2 6bbe 9cf1 89be
000000f0: a3bf b03d d467 0abd bfd0 0abe d493 953c
00000100: c3c3 de3e 908b 93be f181 ce3e 0fec 253d
00000110: ea49 a3be 9be7 bc3e adf1 683e 9892 4f3b
00000120: 77d0 953e c217 4fbc 25d4 d23e eb6e a43e
00000130: 7dce 663e 2948 883e c6f9 1cbe 6f16 04bf
00000140: ceb1 90bc faf1 c53e a2a5 d2bd 7917 103f
00000150: 826c 023e 95e0 a1be 283c 5cbe 4d0d ed3d
00000160: 0857 913e 0f39 80be 223f 65be caac e73b
00000170: fdc7 103e aa23 13bf 2587 3bbe 00cb cebe
00000180: 6b90 2cbe 9e35 2b3e 7594 41bd 2f96 f8be
00000190: b294 b8be 9a67 c3be c32b cd3e 594d 82be
000001a0: d891 56be 9aef ebbe 02de d33d f7c1 ba3e
000001b0: 4ad5 1e3e 2c27 093e b264 25be 194d e6be
000001c0: df6f 553e 46ff 72bd f681 16be 5513 093f
000001d0: 1a2c 54bd d5d2 b9be 6cc4 ae3e 1a5a 853d
000001e0: d00c cabe a351 883d 9660 b43e 95a2 933e
000001f0: aa04 493e 9244 2c3e 3863 3ebe 9867 e83e
00000200: c5c4 783e 5d23 f5bd 20fd ebbe e17a 16bd
00000210: 5a34 eb3d 4840 debd c074 853e 68ca f0be
00000220: 9bf3 a53d bc4c 463e d036 203c adcb 0d3e
00000230: ab36 be3e da0e 3a3e 9872 63be b1ff 123f
00000240: d866 d1be 0808 2dbe 3eea 2bbe 7ec6 823d
00000250: fd2a b8bc 30bc 9e3e 136c be3e 7510 333e
00000260: 80dc 77be 96c7 b7be 633f 123f a93d e7be
00000270: fe70 ad3e 97f7 ebbe 8036 b93e 5cb1 bd3d
00000280: ca57 d5be bca2 f6be 5127 083e e899 cebe
00000290: a157 b8be 2cc5 a2be 5d5d 4cbe 3953 a83e
000002a0: d662 ebbe 1feb c3be c6d3 813d fcba 48be
000002b0: b96c 06bd 68ce dd39 24b1 993e 1f6a b0be
000002c0: c4c0 2dbb 6235 90be d022 cbbe 5519 da3e
000002d0: 51f5 d5bc fee6 8f3e d37b a13e 8bf9 05bf
000002e0: c24a f53d 0bd8 ed3e a7fd 0f3d 66a3 ac3e
000002f0: 3eed e23e c0d2 a43e 539a b5be f0de ebbd
00000300: a2af c3be b699 463d d7ec e9bc 6e5a d1bd
00000310: 88ed 6f3e 7647 e7bd 6a97 debe e5f4 3bbe
00000320: 3fc5 3ebe 9d37 a5be c807 18bd a9cc 463e
00000330: f6a4 3cbe 9fcb e2bd 8164 273e 4087 30be
00000340: 493d dabe 5e0f a83e 3562 33bc abe8 0a3f
00000350: cddb bdbe d2c1 a13e fd47 82be b562 c73e
00000360: 04b5 d2be 0177 853e 30a4 093c 57e2 39bc
00000370: 1e33 d43a 13b3 f4be 2c19 133e e21e d5be
00000380: 6198 c5be 0e44 513e 528f b5be 54cb 953d
00000390: 7b76 ccbe e1d3 7e3e f816 a0be c2f9 d03e
000003a0: 10b6 873e d722 71bd 0f95 023c 2d48 3fbe
000003b0: 1e57 d43d a459 07be d08e b4be df8c 883e
000003c0: 1e97 693e d6e4 afbe a952 93bd e0df d93e
000003d0: 807b bd3e 60f5 c43d 4799 f3bd 64e5 9c3e
000003e0: f999 723e 44e8 77bd 99da a5be ca5d 0cbe
000003f0: fb66 cf3d 68f1 a93d 7d6f 65be f4ce e0be

q2.0.bias f4 [256]
-0.3348866 0.41733631 -0.35475606 0.05432264 -0.2561184 -0.2762061 -0.301931 -0.14121766
0.25166965 0.068911016 -0.38322207 0.100381024 0.36252648 0.37707424 0.1955633 -0.14986719
-0.14742862 0.33801493 -0.2565839 0.03528932 0.23947929 -0.41448998 0.4659426 0.29997924
-0.45388538 -0.08215193 0.23447096 -0.49909294 0.111276366 -0.25279695 -0.38980836 -0.22587758
0.058538474 -0.2916606 0.065029114 0.2886776 0.03330293 -0.19831459 -0.23972766 -0.39966807
-0.34202737 0.14226522 -0.20523211 -0.19642599 0.2863889 -0.3131378 -0.28183877 -0.1777758
0.3807285 -0.21845669 0.41859984 0.19931994 0.14631043 -0.3805026 0.47870868 -0.16912179
0.08082829 0.25165537 0.18851367 -0.43726248 -0.3648706 0.08082814 0.07098085 -0.06650302
0.17358853 -0.26472905 0.21977593 -0.0306118 -0.31740886 -0.35451302 0.40470725 -0.019695623
-0.22244397 -0.42289388 0.15947336 -0.21019357 -0.10143429 -0.030303959 0.16412711 -0.2679011
0.5141657 -0.05784115 0.3000209 0.4263386 -0.29135382 -0.18280531 -0.113991596 0.3124372
0.026991611 0.34331766 0.107962556 0.3198479 -0.19469534 0.21217182 -0.3654038 -0.033386804
-0.3801851 0.36265165 -0.47733805 0.44765064 -0.035873163 -0.45238408 -0.37607467 -0.2989047
0.15602385 -0.4820716 0.28523996 0.06445662 -0.34215957 -0.34786612 0.27939093 0.31112435
-0.013895329 -0.08576291 0.36071658 -0.44307163 0.07265694 0.50401986 -0.39395246 0.37230298
-0.27278394 0.20061629 -0.09257665 -0.3646974 -0.097091556 -0.44516182 -0.11775214 0.0371544
-0.41952136 -0.034496278 -0.08524558 -0.39092454 -0.50114334 0.18031147 -0.40739974 0.4242969
0.068541825 0.33990005 0.037797228 -0.38451552 -0.359453 -0.027717499 -0.041997273 0.48794544
0.29772663 -0.30766553 0.04759532 -0.30522943 -0.4366701 -0.4413036 -0.38707265 -0.34171805
-0.3939694 0.0021936821 0.030779893 0.039393723 -0.47480452 0.32607546 0.16488448 0.3734
0.19639032 -0.2338141 0.46323425 -0.35620108 0.39611483 0.36256373 -0.08305302 0.22123545
0.438852 -0.087001264 0.53124887 0.4626209 -0.26999897 0.44554466 -0.34075782 -0.029326722
-0.09152591 0.38494772 -0.28536722 0.36690253 -0.34268293 0.39431664 -0.39409924 -0.28061968
-0.11388177 0.30968958 0.0011487349 0.52010405 0.108271375 0.013155513 -0.1660121 -0.059441168
0.25919247 0.07138018 0.5072165 0.16147263 -0.21903038 -0.2584905 -0.35745153 -0.20361893
-0.07713148 0.09756951 0.4411595 0.41256106 -0.13530724 -0.27756724 -0.3369991 -0.22591805
0.42197314 -0.41445294 -0.2824653 -0.019093508 -0.10351059 0.20866765 -0.049706463 -0.15944222
-0.40563583 0.48106906 -0.39307508 0.31486812 0.38435826 -0.33827284 -0.0027221444 0.16804479
0.017493282 -0.22723298 0.12417434 -0.04771857 0.3475575 -0.4134131 -0.4739652 0.16724126
0.33282796 0.21795012 -0.36513335 0.35707062 -0.104163766 0.033602633 -0.00043116676 0.41623908
-0.30951113 0.40580878 -0.059996966 0.02628264 0.0652532 0.2989579 -0.18785086 -0.05867677
-0.21962382 0.43322182 0.27604783 -0.17958404 0.12983613 0.21989748 0.4367953 0.39878374
00000000: 4276 abbe 1bad d53e 96a2 b5be 6b81 5e3d
00000010: f321 83be e36a 8dbe b396 9abe 5d9b 10be
00000020: d8da 803e 3821 8d3d af35 c4be 9194 cd3d
00000030: 129d b93e e00f c13e bf41 483e c976 19be
00000040: 87f7 16be 4b10 ad3e f75e 83be 898b 103d
00000050: 0f3a 753e 0838 d4be 0790 ee3e e196 993e
00000060: aa63 e8be 453f a8bd 2819 703e 1c89 ffbe
00000070: dde4 e33d 9a6e 81be f694 c7be 744c 67be
00000080: 0ac6 6f3d 8a54 95be fc2d 853d 8dcd 933e
00000090: a768 083d fb12 4bbe 2b7b 75be 4ba1 ccbe
000000a0: 361e afbe f9ad 113e 5e28 52be e523 49be
000000b0: 91a1 923e 9953 a0be 2c4d 90be dc0a 36be
000000c0: d9ee c23e 1cb3 5fbe b852 d63e 871a 4c3e
000000d0: 67d2 153e 3dd1 c2be 4e19 f53e 432e 2dbe
000000e0: 4d89 a53d f9d8 803e ba09 413e dee0 dfbe
000000f0: 52d0 babe 3989 a53d 685e 913d bc32 88bd
00000100: 31c1 313e 918a 87be f10c 613e 99c5 fabc
00000110: 6a83 a2be bb82 b5be ca35 cf3e b758 a1bc
00000120: 5ac8 63be 8c85 d8be fc4c 233e fc3c 57be
00000130: c8bc cfbd 0240 f8bc f010 283e 552a 89be
00000140: 5da0 033f d7ea 6cbd 579c 993e 0e49 da3e
00000150: 542c 95be 5131 3bbe 6d74 e9bd c5f7 9f3e
00000160: 831d dd3c 55c7 af3e 791b dd3d 1bc3 a33e
00000170: 375e 47be 9243 593e 3516 bbbe 9ac0 08bd
00000180: 9fa7 c2be 7aad b93e a765 f4be 7732 e53e
00000190: bdef 12bd e39e e7be dc8c c0be 090a 99be
000001a0: b7c4 1f3e 17d2 f6be f90a 923e d501 843d
000001b0: 8a2f afbe 821b b2be 540c 8f3e b14b 9f3e
000001c0: 3ca9 63bc 77a4 afbd d8af b83e 49da e2be
000001d0: 29cd 943d 7207 013f 23b4 c9be 7f9e be3e
000001e0: 56aa 8bbe 5b6e 4d3e d498 bdbd 9eb9 babe
000001f0: f0d7 c6bd 40ec e3be 0928 f1bd 362f 183d
00000200: 81cb d6be f84b 0dbd 3c95 aebd 4327 c8be
00000210: ee4a 00bf 92a3 383e b396 d0be 713d d93e
00000220: a85f 8c3d 6107 ae3e 44d1 1a3d 38df c4be
00000230: 390a b8be cf0f e3bc 5505 2cbd fcd3 f93e
00000240: a06f 983e 5686 9dbe 4ff3 423d 0847 9cbe
00000250: 3993 dfbe 8cf2 e1be 632e c6be abf5 aebe
00000260: 5bb6 c9be e1c3 0f3b 1d26 fc3c 505b 213d
00000270: 9419 f3be 5df3 a63e 7ad7 283e 492e bf3e
00000280: 8b1a 493e f76c 6fbe 0a2d ed3e fd5f b6be
00000290: 90cf ca3e f4a1 b93e b417 aabd 8c8b 623e
000002a0: 36b1 e03e b82d b2bd edff 073f a6dc ec3e
000002b0: 4e3d 8abe 6e1e e43e cf77 aebe 983e f0bc
000002c0: f071 bbbd de17 c53e a71b 92be a6da bb3e
000002d0: 2374 afbe dfe3 c93e 60c7 c9be 62ad 8fbe
000002e0: d83a e9bd a28f 9e3e 2691 963a 8a25 053f
000002f0: 62bd dd3d 398a 573c 13ff 29be 9578 73bd
00000300: e0b4 843e c62f 923d f1d8 013f 1559 253e
00000310: 8049 60be de58 84be e303 b7be 7b81 50be
00000320: 1cf7 9dbd 86d2 c73d a8df e13e 343b d33e
00000330: fb8d 0abe 4b1d 8ebe 258b acbe 1057 67be
00000340: dd0c d83e 2d33 d4be 4b9f 90be fd69 9cbc
00000350: 5cfd d3bd f9ac 553e 0199 4bbd d244 23be
00000360: 80af cfbe af4e f63e 2341 c9be 6536 a13e
00000370: 9bca c43e 1932 adbe 0166 32bb ef13 2c3e
00000380: 124e 8f3c c3af 68be 1e4f fe3d 8c74 43bd
00000390: 0ef3 b13e e2aa d3be 91ab f2be 4b41 2b3e
000003a0: 6d68 aa3e 512e 5f3e c2f2 babe f6d1 b63e
000003b0: d053 d5bd eaa2 093d 390e e2b9 4a1d d53e
000003c0: 3e78 9ebe 2bc6 cf3e 61bf 75bd b14e d73c
000003d0: 78a3 853d 0311 993e fa5b 40be 0e57 70bd
000003e0: 11e5 60be 40cf dd3e 2456 8d3e e1e4 37be
000003f0: c3f3 043e ce2c 613e a2a3 df3e 622d cc3e

q2.2.weight f4 [256, 256]
0.02144302 -0.034072045 -0.03733817 0.036395475 0.041273434 -0.016307106 -0.064166255 0.014579124
-0.04140768 -0.04246184 -0.02895836 0.00052502507 -0.008934719 -0.024802761 0.054629967 0.030393373
-0.011101339 -0.031042723 -0.031067995 -0.018699732 0.048254613 -0.007816833 0.003872543 0.035974987
-0.004115629 0.0020661592 0.033908557 0.047843587 -0.044787623 -0.043361314 -0.021592831 -0.0037305064
0.04058346 0.0013554762 0.019959126 -0.020641867 0.042968873 -0.0023364706 -0.03092416 0.054206636
0.030526178 0.027697984 -0.048640646 -0.035443515 -0.0027592196 0.02666631 0.0138098495 0.025124073
-0.0062592677 -0.046720088 -0.02895483 0.024586529 0.0032279978 0.05180813 0.0558165 0.0006183533
0.037921138 -0.03637669 -0.003949947 -0.012604729 -0.024105199 0.045725744 0.013517823 -0.05285707
-0.023800826 -0.04751417 -0.053297672 0.003003714 -0.0032843577 0.029878654 0.034789566 -0.0065557724
-0.0052764863 0.012396577 0.02331069 0.03481155 -0.026884407 -0.055119175 0.014063225 -0.0030275676
-0.008425663 0.012541529 -0.023369668 0.0025167537 -0.056460235 -0.002899922 -0.03268323 0.012661328
0.037527286 -0.0632434 0.023384845 -0.05555311 -0.062629886 0.028867383 0.0014395652 0.049936637
0.0014400333 0.040261887 -0.020447604 -0.030746544 -0.047355242 0.034110453 -0.055146195 -0.02670904
-0.023737518 -0.025621274 -0.054937918 0.03956424 0.0065067275 -0.043050215 -0.055645473 0.034522094
0.001874933 -0.06595808 -0.017600043 -0.062216368 -0.06523686 -0.04796113 -0.012562362 0.036155723
-0.017561339 -0.059636295 0.031623054 -0.040519204 -0.0640747 -0.011627658 -0.0034854584 0.016016835
-0.024219302 0.04803356 -0.0026062813 0.002495662 0.035709802 0.039881214 0.0030104397 0.015107641
0.05031988 -0.035536114 -0.008395941 -0.035051316 0.05520305 0.0317252 -0.03345024 0.032334004
-0.066051066 0.03740599 0.008901008 0.027072335 -0.045189224 -0.057877693 0.005603173 -0.037793763
-0.061203543 -0.03263298 -0.038264997 -0.0325067 -0.013916165 0.0032858632 -0.053419746 -0.058548685
-0.004267746 -0.04089868 0.047354836 -0.041233543 -0.06435976 0.023023417 -0.063756436 0.0048603565
0.007605104 0.035203382 -0.06142283 0.030478576 0.0006866909 0.0054035853 0.04689173 0.008612243
-0.043285623 0.017347729 0.015282753 0.004393466 0.047056247 -0.06259681 0.030126635 -0.03718298
0.02230739 -0.019597441 0.015226225 -0.011850363 -0.044953335 0.00880192 -0.046209414 -0.061693817
0.05402718 0.033331104 0.043099374 -0.052032255 -0.05950824 -0.040349238 0.03889232 0.055022415
-0.022369191 -0.022134978 0.032608844 -0.029644612 -0.009511105 0.029364197 0.04098978 -0.020842506
0.03929578 -0.018232247 -0.04275383 0.007460309 0.03016771 -0.013601416 0.014985525 -0.03337332
0.017919471 0.043263596 -0.022082044 -0.04149944 0.025649957 -0.06045712 0.013977001 -0.058780514
-0.01270136 -0.062731065 -0.051946193 -0.01756588 0.033933405 0.039203983 0.031542253 -0.058141433
-0.03737819 -0.05246752 -0.047518246 -0.03117595 -0.06522774 -0.0636727 -0.019597162 0.039434385
-0.06195764 0.054959983 -0.019863822 -0.050107937 0.026820894 0.016240215 -0.0030197995 0.052224644
-0.019053835 0.04678648 -0.047496054 0.021194126 -0.04764235 0.03286304 0.035738226 -0.0057834308
00000000: 46a9 af3c 218f 0bbd e9ef 18bd 6c13 153d
00000010: 550e 293d 7b96 85bc 9969 83bd 47dd 6e3c
00000020: 199b 29bd 77ec 2dbd 153a edbc d6a1 093a
00000030: ed62 12bc 292f cbbc acc3 5f3d 86fb f83c
00000040: 64e2 35bc 4f4d febc 4f82 febc 2e30 99bc
00000050: a1a6 453d 2d12 00bc 7eca 7d3b 825a 133d
00000060: 66dc 86bb 6668 073b b3e3 0a3d a3f7 433d
00000070: 3a73 37bd a29b 31bd 73e3 b0bc 837b 74bb
00000080: d83a 263d 3caa b13a 5281 a33c 2219 a9bc
00000090: 2100 303d 791f 19bb aa54 fdbc c707 5e3d
000000a0: 0912 fa3c e2e6 e23c 6a3b 47bd 382d 11bd
000000b0: 06d4 34bb 4e73 da3c b542 623c 00d1 cd3c
000000c0: 8b1a cdbb 905d 3fbd ae32 edbc b069 c93c
000000d0: d18c 533b c334 543d d89f 643d fd18 223a
000000e0: 3253 1b3d b9ff 14bd 8f6e 81bb 1184 4ebc
000000f0: 4478 c5bc eb4a 3b3d dc79 5d3c a880 58bd
00000100: f3f9 c2bc 389e 42bd a94e 5abd f5d9 443b
00000110: 613e 57bb 14c4 f43c 817f 0e3d ced1 d6bb
00000120: 60e6 acbb 031b 4b3c 0ff6 be3c 8e96 0e3d
00000130: b03c dcbc a5c4 61bd 7169 663c 286a 46bb
00000140: cb0b 0abc fc7a 4d3c bf71 bfbc 1ff0 243b
00000150: d942 67bd 9e0c 3ebb dade 05bd 7571 4f3c
00000160: 36b6 193d c185 81bd 9391 bf3c a88b 63bd
00000170: 1944 80bd 4a7b ec3c cbaf bc3a 5c8a 4c3d
00000180: 80bf bc3a a6e9 243d bc81 a7bc 2de0 fbbc
00000190: 92f7 41bd 67b7 0b3d fae0 61bd ebcc dabc
000001a0: 2f75 c2bc b5e3 d1bc 9506 61bd 1d0e 223d
000001b0: 6336 d53b 6c55 30bd 82ec 63bd 0a67 0d3d
000001c0: 50c0 f53a 0815 87bd f72d 90bc 97d6 7ebd
000001d0: e79a 85bd e472 44bd 5dd2 4dbc 0618 143d
000001e0: ccdc 8fbc 3045 74bd 2d87 013d 77f7 25bd
000001f0: 9939 83bd ef81 3ebc 4a6c 64bb bd35 833c
00000200: 8f67 c6bc d7be 443d 25ce 2abb 438e 233b
00000210: 7144 123d 7c5a 233d cc4a 453b 0a86 773c
00000220: 381c 4e3d 518e 11bd 218f 09bc f891 0fbd
00000230: 981c 623d 49f2 013d 1e03 09bd a970 043d
00000240: c845 87bd 0637 193d 89d5 113c cdc6 dd3c
00000250: 5618 39bd 2911 6dbd d29a b73b a2cd 1abd
00000260: 91b0 7abd 29aa 05bd c2bb 1cbd bf25 05bd
00000270: a000 64bc a357 573b aace 5abd bfd0 6fbd
00000280: 73d8 8bbb 6085 27bd 25f7 413d 81e4 28bd
00000290: 0dcf 83bd 9b9b bc3c bc92 82bd a043 9f3b
000002a0: 3c34 f93b 6c31 103d 8196 7bbd 35ae f93c
000002b0: 0c03 343a 8f10 b13b 8b11 403d 5e1a 0d3c
000002c0: 444c 31bd d31c 8e3c 8364 7a3c 10f7 8f3b
000002d0: 0dbe 403d c232 80bd 22cc f63c 2e4d 18bd
000002e0: fdbd b63c d08a a0bc 6b77 793c 0628 42bc
000002f0: fd20 38bd ee35 103c 1546 3dbd a8b2 7cbd
00000300: 9b4b 5d3d 3286 083d f888 303d c61f 55bd
00000310: eabe 73bd 3e45 25bd 8e4d 1f3d 2f5f 613d
00000320: 983f b7bc 6a54 b5bc da90 053d 42d9 f2bc
00000330: 77d4 1bbc 2f8d f03c e6e4 273d e7bd aabc
00000340: 9df4 203d cb5b 95bc a41e 2fbd 9c75 f43b
00000350: 4622 f73c 79d8 5ebc d985 753c 76b2 08bd
00000360: dbcb 923c 2b35 313d 67e5 b4bc 51fb 29bd
00000370: dc1f d23c e3a1 77bd cbff 643c d6c3 70bd
00000380: 5d19 50bc 2579 80bd 88c5 54bd 52e6 8fbc
00000390: c1fd 0a3d 5b94 203d 7332 013d b625 6ebd
000003a0: df19 19bd 2fe8 56bd 7ea2 42bd b564 ffbc
000003b0: 1f96 85bd d566 82bd 3a8a a0bc f385 213d
000003c0: 4bc7 7dbd b81d 613d 74b9 a2bc fb3d 4dbd
000003d0: 7eb7 db3c 330a 853c d4e7 45bb 82e9 553d
000003e0: ca16 9cbc 2ea3 3f3d 398b 42bd 4e9f ad3c
000003f0: a024 43bd 659b 063d 3f62 123d ef82 bdbb
